hw2/data/lb_rtg_dna_CartPole-v0_16-06-2019_20-00-58/11/model.pkl (torch_old, 66652 bytes, 18 tensors)

weight f4 [64, 4]
000000 1d e4 20 3f 3b f1 79 3e 23 d4 4e bf de 12 23 bf
       0.62848073 0.24408428 -0.80792445 -0.63700664
000010 8b 72 66 bf 03 53 e8 be 9d f0 38 3f ef d0 20 3f
       -0.9001853 -0.45375833 0.72242147 0.6281881
000020 23 37 16 3f 02 b6 d1 3e d4 8e 42 bf 70 9a 5d bf
       0.5867788 0.40959173 -0.7599919 -0.8656378
000030 1b e9 d7 3e 49 fa cf 3e 9c d4 31 bf f3 89 63 bf
       0.42170033 0.4062064 -0.6946504 -0.8888237
000040 56 17 60 3f 31 83 a3 3e 99 e9 38 bf 76 a1 6c bf
       0.8753561 0.3193603 -0.7223144 -0.9243387
000050 07 02 29 bf 06 bd 20 bf dc e3 6a 3f 8f 05 5a 3f
       -0.6601872 -0.62788427 0.91753936 0.8516473
000060 dc 12 ef be da 32 5b bf 88 ea 4c 3f 3f 96 fe 3e
       -0.46694076 -0.8562447 0.80045366 0.49724004
000070 f7 15 9c 3e e8 2e bc 3e 10 54 12 3c 3f dc a8 be
       0.30485508 0.36754537 0.008931175 -0.32980534
000080 49 28 4f 3f 19 5d 3c 3f 92 ca 00 bf bf 5e b9 be
       0.80920845 0.73579556 -0.503091 -0.36205098
000090 ec 11 5c bf 7f a2 03 bf cd 80 be 3e 1a 50 2f 3f
       -0.85964847 -0.51419824 0.37207642 0.684816
0000a0 82 48 68 3e 40 fb ab 3e a2 9c b9 be cf 55 f9 be
       0.2268391 0.33590126 -0.36252314 -0.4869828
0000b0 43 f5 69 3e ff f1 16 3e d0 af 21 bf 95 19 15 bf
       0.22847466 0.14740752 -0.63158894 -0.5824216
0000c0 25 38 fe 3e bf 34 0d 3f d7 f9 3d bf af de 49 bf
       0.4965221 0.5515861 -0.7420935 -0.78855413
0000d0 de 3e 54 3f de 9d ba 3e 49 de 3b bf a1 a7 53 bf
       0.8290843 0.36448568 -0.73386055 -0.82677656
0000e0 11 6d 5d bf cc 78 12 bf da 1b 67 3f 63 22 57 3f
       -0.8649455 -0.5721557 0.90276873 0.84036845
0000f0 0b f5 10 bf 5f 53 4f bf ca 72 58 3f ed c3 cb 3e
       -0.56623906 -0.8098659 0.84550154 0.39797917
000100 fd e0 4a bf 0c cc 0f bf a6 b4 26 3f c3 8b 3b 3f
       -0.79249555 -0.56170726 0.651194 0.73260134
000110 30 ae 3f 3f 6a 83 38 3f d0 48 dc be a7 81 0c bf
       0.74875164 0.7207552 -0.43024302 -0.54885334
000120 9a 77 8a 3e c4 d5 22 3f 62 0b 51 bf 44 88 5a bf
       0.27044374 0.6360743 -0.81657994 -0.85364175
000130 bb fa 1b 3f 56 fb 1d 3f a7 b2 21 bf df 99 fd be
       0.6092946 0.61711633 -0.63163227 -0.49531457
000140 23 63 09 bf 9f 05 43 bf 85 0b 0f 3f 71 df 5f 3f
       -0.53666896 -0.7618045 0.5587695 0.8745032
000150 54 69 b5 be 0d df 4d bf 4b d4 cf 3e 3a a3 63 3f
       -0.3543192 -0.80418473 0.40591654 0.8892094
000160 f8 0f 1a bf 3b 75 47 bf b0 38 3b 3f bc 85 3f 3f
       -0.60180616 -0.77913254 0.73133373 0.7481344
000170 42 f1 ab 3e 2e 42 19 3f 5f 69 54 bf 70 ac 45 bf
       0.33582503 0.5986661 -0.82973284 -0.77216244
000180 2c 25 9d 3e a5 d4 39 3f a6 f0 3f bf f2 ba 21 bf
       0.30692422 0.72590095 -0.74976575 -0.6317588
000190 44 30 42 bf a1 f2 29 be 05 a5 c9 3e a5 c4 30 3f
       -0.758549 -0.16596462 0.39383712 0.69050056
0001a0 00 6d 4c 3f e5 ab 1c 3f 5c dc 71 bf ae 9a 11 bf
       0.7985382 0.6119979 -0.94476867 -0.5687665
0001b0 e8 77 0d 3f 07 a1 f1 3e 73 b8 0a bf cf 06 6a bf
       0.5526109 0.47193167 -0.541877 -0.9141664
0001c0 94 8a 55 bf 40 7a 55 bf f0 18 4c 3f bf 48 36 3f
       -0.8341458 -0.83389664 0.7972555 0.7120475
0001d0 f1 a4 46 3f 93 76 2e 3f 0c 07 3f bf 72 ce 53 bf
       0.7759543 0.6814968 -0.7462013 -0.82736886
0001e0 94 d4 14 bf 81 a4 51 bf 9b b1 4d 3f a9 bb e9 3e
       -0.5813687 -0.8189164 0.8034913 0.45650986
0001f0 dd b5 9b bd 74 b4 b1 3e d5 e8 e3 3e 37 48 95 3e
       -0.07603047 0.34707987 0.44513574 0.29156658
000200 03 fc 49 bf d2 24 b5 be 6f 72 da 3e 86 f2 35 3f
       -0.78900164 -0.35379654 0.4266543 0.71073186
000210 a7 ba 83 bd 98 cc 3a 3e e5 cd db 3e 41 2c 57 3e
       -0.064320855 0.18242109 0.42930523 0.21012975
000220 7e 53 e0 be 7b 5b b4 be 06 fc 45 3f 8d 6c 14 3f
       -0.438137 -0.35226044 0.7733768 0.57978135
000230 59 78 15 bf 2d a6 5e bf af ae 46 3f 79 6f 16 3f
       -0.5838676 -0.86972314 0.77610296 0.58763844
000240 76 b2 35 bf 5e 61 e7 be e7 c2 42 3f f5 39 15 3f
       -0.70975435 -0.45191473 0.7607865 0.5829156
000250 78 51 dc 3e 38 72 00 3f ce bb 5b bf 53 68 ec be
       0.43030906 0.50174284 -0.8583344 -0.46173343
000260 2d fe 62 3f 31 af fc 3e 5b 4e 39 bf 77 6d c5 be
       0.8866909 0.4935241 -0.72385186 -0.38560078
000270 8a 67 67 be bc 0a 65 3e 6d b4 21 3d 24 f9 04 3e
       -0.22598091 0.22367376 0.039478708 0.12985665
000280 44 43 4f 3f f6 c0 02 3f a5 c9 08 bf f2 f6 42 bf
       0.80962014 0.51075685 -0.53432685 -0.7615806
000290 b1 76 5c 3f cb c2 29 3f 7b a2 37 bf 44 12 3e bf
       0.8611861 0.66312855 -0.717323 -0.7424662
0002a0 e3 fa f0 3e d3 1e 20 3f 70 df d6 be 1b 64 2b bf
       0.4706641 0.62547034 -0.41967344 -0.66949624
0002b0 34 1a 02 3f ab c8 0a 3f ea 63 0d bf 3b 65 53 bf
       0.5082123 0.54212445 -0.5523058 -0.8257634
0002c0 98 69 ca 3e 5d 48 4e 3f c0 31 e1 be e1 6e 14 bf
       0.39533687 0.8057917 -0.4398327 -0.5798169
0002d0 4e 2a 58 bf a1 91 50 bf d0 2e db 3e cb 54 05 3f
       -0.8443955 -0.8147221 0.42809153 0.5208251
0002e0 81 65 11 bf 24 dd 36 bf 71 9f 2c 3f 42 27 1f 3f
       -0.5679551 -0.71431184 0.6743079 0.6216928
0002f0 d8 a7 1f bf d3 88 89 be 70 a8 ef 3e 1b 4d e1 3e
       -0.62365484 -0.268622 0.46808195 0.4400414
000300 eb 47 28 3f 38 7d 55 3e ae 54 01 bf f7 fb 26 bf
       0.6573474 0.20848548 -0.50519836 -0.6522822
000310 0e bc ff 3e 94 3b 5c 3f 85 95 4e bf 77 71 08 bf
       0.49948162 0.8602841 -0.806969 -0.53298134
000320 3a e2 17 3f e5 95 8f 3e 3b 2a b2 be 85 8f 11 bf
       0.5932957 0.28044048 -0.34797844 -0.5685962
000330 e8 19 41 3f 29 64 51 3f e4 98 eb be 5e f6 50 bf
       0.75430155 0.8179346 -0.46015084 -0.81625926
000340 4d b7 4f bf b3 7d 39 bf 94 af 5e 3f ae ec 30 3f
       -0.8113907 -0.72457427 0.8698666 0.69111145
000350 56 5e 39 bf 02 2f e4 be 32 17 b0 3e 56 33 36 3f
       -0.7240957 -0.44567114 0.34392697 0.7117208
000360 4c 2d 32 3f 5d d4 77 3e 03 cc 5a bf 7b 01 45 bf
       0.6960037 0.24202104 -0.8546755 -0.76955384
000370 e4 fa 43 3e 59 3d 08 3f 1d 9d 9c be 91 a9 22 bf
       0.19138676 0.5321861 -0.30588618 -0.6353999
000380 ef 82 2c bf 5c 7b 15 bf 0a 4a e0 3e 1d 24 0b 3f
       -0.6738729 -0.58391356 0.43806487 0.5435198
000390 ce e7 30 3f 82 6e 2d 3f b0 1f 4c bf 56 59 19 bf
       0.69103706 0.67746747 -0.7973585 -0.5990194
0003a0 5f 7d d9 3e 29 a2 e0 3e ce cc 96 be b8 73 b6 be
       0.42478463 0.43873718 -0.2945313 -0.3563516
0003b0 0b 10 e4 be ad 1b 53 bf f6 0d e4 3e b8 d0 26 3f
       -0.4454349 -0.82464105 0.445419 0.6516223
0003c0 1a da a8 3e 02 de 00 3f f5 5c 53 be 41 9f 0c bf
       0.32978898 0.5033876 -0.20640929 -0.549305
0003d0 d4 d2 5c 3f 70 c1 5a 3f 5f 30 16 bf 9d 38 f0 be
       0.862592 0.8545141 -0.5866756 -0.46918193
0003e0 b6 51 4f bf 7e 4c e2 be 19 ee 03 3f 20 87 48 3f
       -0.80984056 -0.44198984 0.51535183 0.78331184
0003f0 df 06 db 3e 01 56 ea 3e fe d2 11 bf 25 1d 39 bf
       0.4277868 0.4576874 -0.56962574 -0.72310096

bias f4 [64]
000000 34 b3 52 be e2 95 88 3e c3 1e 03 be 72 7c 82 be
       -0.20576173 0.26676852 -0.12804703 -0.2548557
000010 52 f0 61 be 06 31 0a 3e f0 2f f6 3c 6e 4d 58 be
       -0.22064331 0.13495263 0.030052155 -0.21123287
000020 03 4b f2 3e d5 56 55 bc 39 33 a2 bd 9c 3c 4d 3e
       0.47322854 -0.013021191 -0.07919926 0.20042652
000030 1c 3f 85 be b7 6d 2d be 61 58 cb 3c 7e 15 6e 3e
       -0.2602471 -0.16936384 0.024822416 0.23250386
000040 d7 00 7b 3e 2b a2 c5 be e8 0c d0 3c 9e 52 28 be
       0.24512039 -0.38600287 0.02539678 -0.16437766
000050 80 65 1e 3e c2 7b 22 be 9d de ca 3d cf bc 99 bd
       0.15468407 -0.15867522 0.09905741 -0.075067155
000060 64 33 f9 bd 02 12 18 be e9 b9 a9 be 27 08 ab bd
       -0.12168005 -0.1485062 -0.3314965 -0.08351164
000070 00 25 4f 39 1a 2a 56 bd f2 fb a5 3e a4 a7 ef 3e
       0.00019754842 -0.052286245 0.32418782 0.46807587
000080 1a 2b 9e 3e a0 31 75 3e 83 ca 88 3e ab 58 ba 3d
       0.3089226 0.23944712 0.26717004 0.09098943
000090 17 a3 d0 3e 06 33 9b be 42 9e 54 be 02 3b b6 be
       0.40749428 -0.30312365 -0.20763496 -0.35591894
0000a0 4e 97 ea 3d 81 1e 53 be 10 46 e1 bd af 2b 00 be
       0.1145464 -0.20617105 -0.109996915 -0.12516664
0000b0 e9 fe 14 be 68 5f 97 3e 27 03 a7 3e 71 aa 8a 3e
       -0.14550366 0.29564977 0.32619593 0.2708316
0000c0 3f 78 e6 be 7d a9 6b be 92 fc 9c be ae ae 0c be
       -0.45013615 -0.23013873 -0.30661446 -0.1373851
0000d0 61 d7 72 3d 78 73 8e 3c 8a d7 8b be 7c 61 87 3e
       0.059287433 0.017389044 -0.2731288 0.26441562
0000e0 23 60 0d be 7b 3d 88 be d0 2a 9c be 7f 7c 9f bd
       -0.13806204 -0.26609406 -0.30501413 -0.077874176
0000f0 e0 04 4f be 84 36 e4 bc be 4f 7d bd e7 26 b8 bd
       -0.20216703 -0.027858026 -0.061843626 -0.08991795

weight f4 [64, 64]
000000 4b 30 ce 3e 09 c8 81 3e b8 74 1f 3f 04 0c 4a 3f
       0.4027122 0.25347927 0.62287474 0.78924584
000010 f3 54 4b 3f 3f e0 36 bf 6c f4 1b bf 28 44 8b be
       0.794265 -0.7143592 -0.60919833 -0.27200437
000020 c3 4b fe 3e b0 5c 85 3e a4 53 7c 3e 61 7e de 3e
       0.49667177 0.26047277 0.24641281 0.43455794
000030 7e 5f 3d 3f f6 e0 9d 3e 74 fc f6 be 2c c0 72 3e
       0.73973835 0.30835694 -0.4823948 0.2370612
000040 55 dc d9 be 06 f0 df 3e 76 76 be 3e 76 dd cb 3e
       -0.42550912 0.4373781 0.37199754 0.398174
000050 89 87 33 bf 00 ab ed be 7d c2 1e bf e7 c8 cb 3e
       -0.70128685 -0.46419525 -0.62015516 0.39801714
000060 d6 fd d9 3e 89 fd 02 bf e5 0a 08 3f b0 61 21 3f
       0.42576474 -0.51168114 0.53141624 0.63039684
000070 65 a7 e1 be 1b d6 07 3f 3d 6c 53 bd 57 89 13 bf
       -0.44073024 0.53061074 -0.051616896 -0.5763144
000080 df 0f e3 be 85 eb 14 3d bf 6f 22 be 4f 67 81 be
       -0.44348046 0.03635742 -0.1586294 -0.2527413
000090 06 ed d8 be 24 6c ba be 9e b8 c4 be 44 32 73 be
       -0.42368335 -0.3641063 -0.38422102 -0.23749644
0000a0 73 d5 0b 3f 5c 28 2b 3f 3a 45 71 be 66 30 2f 3f
       0.5462257 0.6685846 -0.23561564 0.68433225
0000b0 1b 68 21 be 8d ed a8 bd 3e e6 05 be 8e 5e 33 3e
       -0.1576237 -0.08248434 -0.13076112 0.17516539
0000c0 f6 a9 b3 3e 2a 0b 02 3d fa 56 d9 bd ae e8 4a 3f
       0.35090607 0.031748928 -0.106122926 0.7926129
0000d0 e3 0c 35 bf da 77 b3 3d 0e a8 fb 3e 74 f5 23 3f
       -0.7072279 0.08763094 0.49151653 0.64046407
0000e0 1a 48 f8 be 4f a7 1c 3f b5 6b 86 be b2 75 21 bf
       -0.4849251 0.6119279 -0.2625405 -0.63070214
0000f0 c3 dc 98 3e 85 74 fb 3e b3 99 16 bf 35 0d 13 3f
       0.29855928 0.49112335 -0.58828276 0.5744203
000100 d9 47 1b 3f c1 55 a0 be 57 3f fa 3e 7d fb 10 3f
       0.60656506 -0.31315425 0.4887645 0.5663374
000110 3a 7c 1f 3f 96 26 24 bf 13 37 bf be 8e 2b 80 3e
       0.6229893 -0.6412138 -0.37346706 0.2503323
000120 5e dd ff 3e 8d 1e e2 be 31 69 e3 3e 04 c2 d9 3e
       0.49973577 -0.44163933 0.44416192 0.42530835
000130 0c 27 1b 3f 4a c8 86 3e 68 74 33 bf bb 9d 7f be
       0.60606456 0.26324683 -0.70099497 -0.24962513
000140 ec 2a 1d bf 9c fd d8 3e 14 82 26 3f 87 d9 72 3e
       -0.6139362 0.4238099 0.65042233 0.23715793
000150 c6 78 3b bf 2e 8d b1 be c2 90 3a bf ec 25 0e 3f
       -0.7323116 -0.34678024 -0.7287713 0.55526614
000160 5b dc 48 3f 2d b3 d8 be 5a ea b2 3e 81 a2 30 3f
       0.78461236 -0.423242 0.3494442 0.6899796
000170 b0 6d 41 bf 6b da 33 3f 7d 1e fb be 39 d6 a9 be
       -0.75557995 0.70255154 -0.49046698 -0.3317125
000180 05 80 f5 be c6 9d 79 be 9a f2 bc be 45 4b bd be
       -0.47949234 -0.24376592 -0.3690384 -0.3697149
000190 00 5a 05 bf 47 06 21 3b 7b 03 98 be 96 05 e2 be
       -0.52090454 0.0024570392 -0.29690155 -0.44144887
0001a0 ae 7f 1b 3f 51 21 d0 3e 00 78 3e 3e 50 41 2c 3f
       0.607417 0.40650418 0.18600464 0.6728716
0001b0 5c 39 aa 3e ba 4a 89 bd cd ca 04 bf c9 c6 39 3d
       0.33246887 -0.06703706 -0.5187195 0.045355592
0001c0 c0 17 c0 3e 62 f1 98 3e 43 c3 c5 3e 32 36 2b 3f
       0.3751812 0.2987166 0.38625535 0.6687957
0001d0 74 52 cd be aa b5 df be 42 8f 1f 3f a5 a1 f0 3e
       -0.4010197 -0.43693286 0.6232797 0.46998325
0001e0 86 f6 bd be 03 7a 1b 3f b3 0f 75 be 1a 45 4c bf
       -0.37102145 0.6073305 -0.2393177 -0.7979294
0001f0 b0 da 43 3e ac 99 13 3f 47 c2 23 bf 88 32 4f 3f
       0.19126391 0.5765636 -0.6396832 0.8093648
000200 bd c4 29 bf 45 72 86 3e 3e 70 11 bf 53 f2 30 bf
       -0.66315824 0.26259056 -0.56811893 -0.6911976
000210 9d 03 44 bf 55 23 29 3f da 14 d6 3e 0e f7 49 3c
       -0.76568013 0.6606954 0.41812783 0.012326969
000220 19 a2 6e be 32 f7 7a 3e e0 48 40 be ec 6a 43 bf
       -0.23304023 0.2450836 -0.187778 -0.76335025
000230 7a 02 3b bf af 48 17 bf 77 70 0d 3f ce 1b c7 bd
       -0.73050654 -0.5909528 0.5524973 -0.097221
000240 e7 1b df 3e 0b 67 e9 be c4 47 b8 be 07 5f fe be
       0.43575975 -0.45586428 -0.35992253 -0.49681875
000250 af f0 27 3f 15 7d 85 3e 79 1a f3 3e bf 73 21 bf
       0.6560163 0.26071993 0.47481135 -0.6306724
000260 60 5b 23 bf 28 8b a1 3e 8a cb b6 be 71 45 eb be
       -0.638113 0.3155148 -0.35702163 -0.45951417
000270 a9 1e bc 3e a7 5c b5 be 12 f4 d9 3e 32 5d 15 3f
       0.36742142 -0.3542225 0.42569023 0.5834533
000280 56 ae 13 3f da cb f3 3e 91 77 79 3e a9 cb e8 3e
       0.5768789 0.47616464 0.24362017 0.4546788
000290 16 86 00 3f a3 ea dc 3e ea 4c 93 3e e9 9a 75 3e
       0.502046 0.43147764 0.28769618 0.23984875
0002a0 e9 f2 eb be ec 04 f3 be 40 6f 33 be b2 5d 36 bf
       -0.46083763 -0.47464693 -0.17522907 -0.7123672
0002b0 82 a9 a8 be fa 62 0f 3e 91 aa b7 3e bb 7e 6b be
       -0.32941824 0.140026 0.3587232 -0.22997563
0002c0 e5 94 6e be 04 4b 82 be 24 71 8b bd c2 88 ec be
       -0.23298986 -0.25447857 -0.06808689 -0.46198088
0002d0 0d 17 21 3f 86 4f 37 3d 29 3e 0b bf c4 37 3a bf
       0.629258 0.044753574 -0.54391724 -0.7274134
0002e0 31 49 dc 3e 8f 04 ff be 2b 61 70 3e 0a 7f 24 3f
       0.4302459 -0.49808165 0.23474567 0.64256346
0002f0 b8 17 10 bf 21 f9 03 bf 60 5a 38 3f 9d a8 09 bf
       -0.5628619 -0.51552016 0.720129 -0.5377291
000300 5e ea eb 3e 75 c7 ae be a5 fe 03 3f ae 7a 2a 3f
       0.46077245 -0.3413655 0.5156043 0.66593444
000310 3b 53 c6 3e a9 2d 17 bf 58 b0 f5 be 23 62 48 3e
       0.38735375 -0.59054047 -0.47986102 0.19568686
000320 85 07 26 3e 22 f0 f1 be 71 e5 aa 3e 25 72 8b 3e
       0.16213806 -0.4725352 0.33378175 0.27235523
000330 80 33 d7 3e d3 be e1 3e c1 4e 13 bf 4a 4e 51 be
       0.4203148 0.440909 -0.57542044 -0.20440021
000340 2c 7b a6 be df d9 cb 3e 4b 62 df 3e 87 7b b1 3e
       -0.32515848 0.3981466 0.4362968 0.34664556
000350 98 3b 47 bf 5c ec 12 bf 57 17 42 bf 4e 17 2b 3f
       -0.7782531 -0.57391906 -0.75816864 0.66832435
000360 49 ca 17 3f c7 95 1b be 33 21 24 3f 80 e7 20 3f
       0.5929304 -0.15193854 0.6411316 0.6285324
000370 65 60 eb be 11 f1 3c 3f f2 2d 11 bf c4 e7 e7 be
       -0.4597198 0.7380534 -0.5671073 -0.4529401
000380 09 a3 c1 be fa d6 09 bf ef 2c 20 bf c6 11 ad be
       -0.37819698 -0.53843653 -0.62568563 -0.33802623
000390 d1 30 08 bf e7 85 a1 3e 59 ee b5 3e 77 b9 d1 bc
       -0.5319949 0.31547472 0.35533407 -0.025601132
0003a0 74 58 be 3e 57 5c 4a 3f 06 de ce 3e c8 a1 1b 3f
       0.3717686 0.7904715 0.40403765 0.60793734
0003b0 a8 8b 12 3f 5b c6 19 bf 0f 55 9c be e3 16 9b be
       0.5724435 -0.6006829 -0.30533645 -0.302909
0003c0 62 4b a4 3e a7 c3 1f 3f cf 74 75 3e 4c 05 2b 3f
       0.32088763 0.62407917 0.2397034 0.6680496
0003d0 69 d2 02 bf 1e f3 9a be 0b bd d6 3e 5d aa c0 3e
       -0.5110231 -0.3026361 0.41941103 0.37629977
0003e0 c1 dd 38 3e d2 71 d1 3e 77 8c 46 be b6 7f 05 bf
       0.18053342 0.4090715 -0.1938952 -0.52147996
0003f0 77 4a b8 3e 82 59 f4 3e a8 75 12 bf c0 93 28 3f
       0.35994312 0.4772454 -0.5721078 0.6585045

bias f4 [64]
000000 58 a8 e0 bd 50 c2 2e 3d 60 d0 7d 3d eb cd f6 3d
       -0.10969609 0.04266578 0.0619663 0.120509945
000010 74 e1 4d 3e d7 5b fb be 89 28 a3 3d b5 d6 f3 be
       0.20105535 -0.49093506 0.07966716 -0.47624746
000020 a7 08 d0 be 41 28 c1 be bb 51 de 3e c1 c9 21 be
       -0.406316 -0.37726024 0.4342173 -0.1579962
000030 49 a0 e9 3e 08 99 9c bc 2d 4d b6 bd 91 0e da bd
       0.456301 -0.01911594 -0.08901439 -0.106473096
000040 12 c7 b8 3e 9f 0a c1 bd 8b a4 a5 3e 0a 1b b5 be
       0.3608938 -0.09425854 0.323521 -0.35372192
000050 07 9d e7 be 90 0e ec bd 3d 05 db 3e f1 e0 bf bd
       -0.4523699 -0.11526215 0.42777434 -0.09369076
000060 25 8f 62 be 06 d8 1c be 2c 22 9d be 3f e4 41 bd
       -0.22124918 -0.15316781 -0.30690134 -0.047336813
000070 da 3d 1f 3f f7 2e cb 3e 8a 2d 96 3e 2d 17 1e 3c
       0.62203753 0.3968427 0.2933162 0.00964908
000080 6b 59 e0 be 42 e1 c0 be 06 b8 0b bf 24 b3 99 3e
       -0.4381822 -0.37671858 -0.5457767 0.30019486
000090 9d 62 92 be ea 98 95 3e e2 5b 0a 3e 9f c8 ac 3c
       -0.2859086 0.29218227 0.13511613 0.021091757
0000a0 41 4e 8c be 84 b2 f2 be 12 da 8f be d1 d6 20 3e
       -0.27403453 -0.47401822 -0.28096062 0.15706946
0000b0 75 f9 bb 3e 4b 90 06 bf 85 71 a9 be 98 88 42 3e
       0.36713758 -0.52563924 -0.3309442 0.18997419
0000c0 53 2a e5 bd 59 39 f2 be 42 6c 4f be 74 f6 bb be
       -0.11189713 -0.47309378 -0.20256141 -0.36711466
0000d0 c4 86 b5 3d 0d 5f d4 bd 7e cf 74 3e 76 2e bb 3e
       0.08863595 -0.10369692 0.23907277 0.36558884
0000e0 65 fc 92 be 4e cd 1d bf d5 04 e5 3e 12 e3 dc 3e
       -0.28708187 -0.61641395 0.4473025 0.4314199
0000f0 f8 56 ce 3e 64 08 dd be 11 a8 90 3e 07 66 94 3e
       0.40300727 -0.43170464 0.28253224 0.2898409

weight f4 [2, 64]
000000 25 db c8 3e e6 e2 d8 3e 54 fb e1 be 7b b4 2c 3f
       0.39229694 0.4236061 -0.4413706 0.6746289
000010 9b 9c 14 3f 65 98 b7 3d 50 b2 4b 3f d4 fe 51 3e
       0.5805146 0.08964614 0.7956896 0.20507365
000020 bf 59 3d be 37 dd 3a bf 32 6c c8 be 30 f2 43 bf
       -0.18491267 -0.729938 -0.39145046 -0.76541424
000030 2f 4e a1 3e 8b a1 1c bf bc 92 11 bf 90 cf 1b 3f
       0.31504962 -0.61183995 -0.56864524 0.6086359
000040 c4 8b 6e 3e 4c d9 02 bf 82 dd 2e 3f 93 4a 99 be
       0.23295504 -0.5111282 0.68306744 -0.29939708
000050 e0 33 fa bd 5c f6 1f bf 02 19 ab be 94 b1 f0 3e
       -0.122169256 -0.6248529 -0.33417517 0.4701048
000060 c3 48 55 bf 47 8c 0f bf b3 b2 de be e2 21 f7 be
       -0.8331415 -0.5607342 -0.43495712 -0.48268038
000070 60 d4 2b bf 59 36 e8 3d a9 29 18 3f 89 f9 e7 be
       -0.67120934 0.11338491 0.5943857 -0.45307568
000080 18 24 64 be 56 ec 06 3e 5b 68 8e be 9f 70 ef be
       -0.22279394 0.13176093 -0.27813992 -0.4676561
000090 be 35 68 be 98 d1 27 3f 25 dd 4a bf 6c e4 eb 3e
       -0.22676751 0.6555419 -0.7924369 0.4607271
0000a0 59 ec ad be 50 a2 9b 3e 58 ce e4 be eb 41 02 bf
       -0.3396938 0.30397272 -0.44688678 -0.5088183
0000b0 03 5e ea 3e 03 51 35 3f b9 45 2c 3f aa c3 ad be
       0.4577485 0.7082674 0.6729389 -0.33938342
0000c0 0b 80 5d bf b2 47 25 3f 47 9d f3 bd 51 cc b1 3e
       -0.86523503 0.64562523 -0.11895233 0.34726194
0000d0 38 95 b0 be af b1 11 bf c0 64 2c bf 74 1e c7 be
       -0.34488845 -0.5691175 -0.6734123 -0.3889042
0000e0 d4 07 fd 3e bb 98 e0 3e ee f4 20 bf 14 44 ca be
       0.49420035 0.43866524 -0.62873733 -0.39505064
0000f0 4e c4 1b bf b2 54 6f bd 7c d7 29 bf d2 6c 5b 3e
       -0.6084641 -0.05843038 -0.6634443 0.2142823
000100 99 8d 51 bf 74 ad 49 bf 20 0f 38 3f 0b b4 19 bf
       -0.81856686 -0.78780293 0.7189808 -0.6004035
000110 67 e9 29 bf b3 ce 55 be 79 f5 9e be ea 4a 84 bd
       -0.6637177 -0.2087963 -0.31046656 -0.06459601
000120 6a 7c 0a 3e 7f e7 18 3f b6 7a 52 3e 9e f5 2f 3f
       0.13524023 0.59728235 0.20554623 0.6873416
000130 22 4b dd bd 72 aa 1f 3f f4 dd 87 3e 5a ae 82 bd
       -0.10805346 0.62369454 0.26536524 -0.06380911
000140 c3 f4 c7 be b1 6c 2c 3f 6c fa 91 be ed ef 1d 3f
       -0.39053926 0.6735335 -0.2851137 0.6169422
000150 a1 14 5a bc 18 9e 1c 3f ae 8b 6c 3e 27 3c 38 bf
       -0.013310582 0.6117873 0.23100159 -0.71966785
000160 d6 1f 3e 3f 32 2b c4 3e 40 3c c6 3e c3 15 2c be
       0.7426733 0.38314205 0.38717842 -0.16805176
000170 b5 61 d3 3e 3f be 85 be 6b 4e a8 bd 3e 4b 3b 3f
       0.41285482 -0.2612171 -0.08218082 0.73161685
000180 84 2e a6 be e2 32 a6 bd ac bb 1a 3f fc 7e ac 3e
       -0.32457364 -0.08115174 0.60442615 0.3369063
000190 01 e0 0c 3f e9 37 20 bf 3f 80 5a 3e a8 9c 26 bf
       0.550293 -0.6258531 0.21337985 -0.6508279
0001a0 74 64 a4 be 82 89 e4 be 0d 77 a6 3e 47 b5 0d 3f
       -0.3210789 -0.4463616 0.32512704 0.5535473
0001b0 29 0c 85 3e 9d 67 b0 be de 50 1a be f8 1f 3d be
       0.2598584 -0.3445405 -0.15069911 -0.18469226
0001c0 ea af 29 3f 23 22 4c be 86 bc 99 3e a7 0d 46 bf
       0.6628405 -0.19934897 0.30026644 -0.7736458
0001d0 25 92 9d 3e 89 47 7e 3e 7c 5e 8e 3e b9 31 63 3e
       0.30775562 0.24831976 0.2780646 0.22186936
0001e0 d2 6d 58 3d 2c d9 e7 be 34 ff 84 3e 6a 54 25 bd
       0.052839108 -0.45282876 0.25975955 -0.040363707
0001f0 32 5e a5 3e 1f 05 84 be 15 24 61 3e 4e e1 70 3e
       0.32298428 -0.25785157 0.2198642 0.23523447

bias f4 [2]
000000 1f 72 17 3e 57 15 88 be
       0.14789627 -0.2657878

exp_avg f4 [64, 4]
000000 58 0e 33 be 26 3f 09 bf dd 64 e8 3e cc 06 00 40
       -0.1748594 -0.5361198 0.45389453 2.0004148
000010 2c 6b 37 3e 55 25 35 3f 88 a1 cf be 2a a8 01 c0
       0.17911977 0.7076009 -0.40552926 -2.025889
000020 2b 2f 8d be 64 c9 67 bf 38 3d 34 3f 54 2f 4b 40
       -0.2757505 -0.9054167 0.7040591 3.1747637
000030 fa b7 b8 be 72 9c 9a bf 3c 1e 61 3f 3c 2e 81 40
       -0.36077863 -1.2078993 0.8793676 4.036894
000040 25 86 04 be 74 7b de be 05 4b f5 3e 58 06 fe 3f
       -0.12941797 -0.43453562 0.47908798 1.9845686
000050 78 ca c9 3d 59 4f b3 3e 53 24 e4 be 00 f4 e5 bf
       0.09853071 0.35021475 -0.44558963 -1.7965088
000060 86 26 5a 3e 3b 2c 3a 3f c2 67 1f bf c2 f8 2e c0
       0.21303758 0.7272374 -0.62267697 -2.733933
000070 c1 e2 4e bd b7 ed 1e be ff 0c 01 3e d6 34 11 3f
       -0.050509218 -0.15520369 0.12602614 0.56721246
000080 73 8b 9e bd 0c c7 11 be 30 70 6d 3e 67 b7 58 3f
       -0.077414416 -0.14236087 0.23187327 0.8465485
000090 8e 10 66 3e 8a 6f 51 3f ff 02 e1 be a1 c1 0f c0
       0.22467253 0.8181082 -0.43947598 -2.2461932
0000a0 4c 98 b5 bd e2 fe 69 be 19 85 91 3e 4f 0a 94 3f
       -0.08866939 -0.22851136 0.28421858 1.1565646
0000b0 2e 25 05 bd ce b9 25 bd 14 86 90 3e 45 3c 6e 3f
       -0.03250616 -0.0404604 0.28227293 0.93060714
0000c0 6b 40 69 be e8 1b 3c bf f6 ae 2a 3f 7d 34 38 40
       -0.2277848 -0.7348008 0.6667322 2.8782036
0000d0 97 9b 29 be c8 48 18 bf 02 3c e5 3e 23 b5 02 40
       -0.16563259 -0.59486055 0.44772345 2.0423057
0000e0 d6 4c d1 3e 8e 76 b1 3f d8 51 71 bf 33 b6 8d c0
       0.40878934 1.3864305 -0.9426551 -4.428491
0000f0 5d ff b6 3d 0b d9 ba 3e 80 92 29 be af 8e 69 bf
       0.089354254 0.36493716 -0.16559792 -0.9123334
000100 9b ce 31 3e 22 e9 2d 3f 00 4a fa be 7e 7e 11 c0
       0.1736397 0.6793386 -0.48884583 -2.2733455
000110 7a 4e a9 bd ba 62 ae be e5 86 d2 3e 34 ef d5 3f
       -0.08266921 -0.34059697 0.4111854 1.6713624
000120 d5 5d 97 bd c8 55 85 be 97 f8 bf 3e 70 19 bd 3f
       -0.07390944 -0.26042008 0.37494346 1.4773388
000130 3b 6d 2e be 37 41 fa be 3c 05 dd 3e 50 2a f0 3f
       -0.17033856 -0.4887788 0.43168056 1.8762913
000140 3a f8 b8 3e 17 88 8d 3f aa 5b 68 bf 0c 35 80 c0
       0.36126882 1.1057156 -0.9076487 -4.0064754
000150 7e 9f d6 3e 6a 24 b9 3f 09 ad 5b bf 3b 86 86 c0
       0.41918558 1.4464238 -0.85810906 -4.2038856
000160 f8 b4 18 3e 7a ef e0 3e dc 70 08 bf 8f 1a 0a c0
       0.14912784 0.43932706 -0.5329721 -2.157871
000170 86 ca 87 be e3 92 58 bf d1 1e 2e 3f 32 a5 42 40
       -0.265217 -0.8459913 0.6801577 3.0413327
000180 f9 22 9a be 8d 1e 7b bf b5 01 4c 3f 8f dc 62 40
       -0.30104807 -0.9809349 0.79690105 3.5447118
000190 eb a9 bb 3c 28 f6 d0 3d 3f 6e 24 be ee 91 20 bf
       0.022908172 0.102032006 -0.1605768 -0.6272267
0001a0 88 21 56 be 2d 37 56 bf 85 9f 12 3f 11 08 2d 40
       -0.20911229 -0.8367794 0.5727466 2.7036173
0001b0 72 56 b8 be 5f b1 99 bf 29 86 5e 3f 66 41 80 40
       -0.36003453 -1.2007254 0.8692346 4.007983
0001c0 51 2f 2c 3e 21 03 0b 3f 7a 70 0e bf 4d 6a 15 c0
       0.16814925 0.5430165 -0.55640376 -2.334613
0001d0 ec d7 b9 be a6 c8 9b bf 46 32 59 3f 69 ef 7c 40
       -0.36297548 -1.2170608 0.84842336 3.9521124
0001e0 e1 92 3f 3e 1d b3 46 3f f2 64 03 bf 73 bb 1c c0
       0.18708374 0.77617055 -0.51325905 -2.448941
0001f0 8a 04 18 3d 2f 22 29 bd 0d ea 82 be db 7c 40 bf
       0.037113704 -0.041292366 -0.25569192 -0.75190514
000200 6f 29 2f 3e cf 3b 16 3f 42 48 0d bf 66 aa 18 c0
       0.1710565 0.5868501 -0.5518838 -2.3854003
000210 71 b7 82 3d 15 52 7b 3c 38 64 79 be 08 42 46 bf
       0.06382645 0.015339394 -0.24354637 -0.77444506
000220 fd c7 44 3e 7f f1 1a 3f 23 5b fd be 35 2e 0d c0
       0.19216914 0.60524744 -0.49483594 -2.2059453
000230 5a 77 31 3e 22 a8 2f 3f 8c 9d d9 be 17 5f 04 c0
       0.17330685 0.68615925 -0.4250301 -2.0683038
000240 94 36 eb 3d e3 3f 1c 3f e8 f7 ae be d8 09 e1 bf
       0.11485019 0.61034983 -0.34173512 -1.7581129
000250 90 97 f7 bd b6 5a c4 be 8a 49 37 3e 3f d7 71 3f
       -0.12089455 -0.38350457 0.17899147 0.94469064
000260 3d 9e e1 bd da 98 cc be c0 92 aa 3d 23 a6 2d 3f
       -0.1101651 -0.39960366 0.083287716 0.6783163
000270 b6 c6 fe bc e8 a7 80 bd d9 5c 89 bb c4 52 30 3d
       -0.031100612 -0.062820256 -0.0041919765 0.04304768
000280 71 c4 cc bd cf c8 b5 be 91 63 d1 3e f0 18 d7 3f
       -0.09998406 -0.35504767 0.40896276 1.6804485
000290 72 5f a0 be 39 f7 83 bf 45 41 50 3f 49 15 6a 40
       -0.3132282 -1.0309821 0.81349593 3.6575491
0002a0 17 07 f7 bd 1c 80 e7 be 2e 84 8d 3e 2c 16 ad 3f
       -0.12061899 -0.45214927 0.27639908 1.3522391
0002b0 0a 61 91 be a1 ed 7d bf 1b a7 35 3f 62 1b 53 40
       -0.28394347 -0.9919072 0.7095811 3.2985463
0002c0 50 6a 61 be 64 8a 3d bf 07 7c ec 3e 05 13 0e 40
       -0.22013211 -0.7403929 0.46188375 2.2199109
0002d0 63 0c 21 3e 3b 2c 17 3f b7 e9 ce be 47 78 f2 bf
       0.15727381 0.59051865 -0.40412685 -1.8942956
0002e0 83 92 9f 3d 8f dd ba 3e 58 0d 9f be a8 d8 b0 bf
       0.07791617 0.3649716 -0.31064868 -1.3816118
0002f0 3d e3 68 3d 90 b2 5b 3e 00 92 f4 bd a2 aa 1a bf
       0.056857336 0.21454835 -0.1194191 -0.60416615
000300 68 28 99 bd 39 9c ad be 02 cc 92 3e 35 a2 a2 3f
       -0.0747841 -0.3390825 0.2867127 1.2705752
000310 1e 34 0b be 32 79 f8 be 04 d5 b9 3e fc c3 d3 3f
       -0.135941 -0.48529965 0.3629533 1.6544185
000320 20 95 d6 bd 3c 05 a7 be c4 5f 8f 3e 72 0c 9d 3f
       -0.10477662 -0.3262118 0.2800275 1.2269423
000330 bb 9c 53 be c4 4c 26 bf 99 3f 2a 3f 1b a1 32 40
       -0.20665257 -0.64960885 0.6650329 2.791083
000340 fe a8 1d 3e ea 02 fb 3e 4f 26 0b bf ae 60 0f c0
       0.15396497 0.4902566 -0.5435533 -2.2402759
000350 f3 9a 43 3e e0 f6 2c 3f b1 18 b9 be 1d 41 ec bf
       0.19102077 0.675642 -0.3615165 -1.8457371
000360 a8 cd 57 be 1d ef 3b bf 1c 4c 16 3f 18 07 29 40
       -0.21074545 -0.7341173 0.58709884 2.641058
000370 a6 98 24 bd b8 df 22 bd 7d 19 a1 3e 78 59 84 3f
       -0.04018464 -0.039764136 0.3146476 1.0339804
000380 e8 16 bb 3d 00 10 b5 3e 80 d7 81 be 9a 81 96 bf
       0.091352284 0.3536377 -0.25359726 -1.1758301
000390 cd d2 66 be aa 19 37 bf 2d 66 2c 3f f8 07 39 40
       -0.22541352 -0.71523535 0.6734341 2.8911114
0003a0 e7 ea dc bd b3 bc 65 be dd 34 fb 3d d1 ce 18 3f
       -0.107869916 -0.22435264 0.12265942 0.59690577
0003b0 a0 17 47 3e da 27 1f 3f a0 44 1b bf 77 61 24 c0
       0.19442606 0.62170184 -0.6065159 -2.5684488
0003c0 a7 cb 18 be 63 68 d1 be c7 f6 cc 3e 75 97 d9 3f
       -0.14921437 -0.40899953 0.40032026 1.6999346
0003d0 bd c7 a3 be 5a 04 88 bf cf 97 3b 3f 0f 93 5a 40
       -0.31988326 -1.0626328 0.73278517 3.4152257
0003e0 01 0d e6 3d 29 08 c3 3e 50 92 e9 be 1d f5 ec bf
       0.11232949 0.38092163 -0.4561944 -1.8512303
0003f0 65 ac 7d be 67 c5 50 bf 62 39 33 3f 77 81 44 40
       -0.24772795 -0.8155121 0.70009434 3.070402

exp_avg_sq f4 [64, 4]
000000 a0 44 1a 3b 71 5c 97 3c d1 2d 17 3c 0b f1 45 3e
       0.002353944 0.018476697 0.009227232 0.19330232
000010 25 82 1f 3b c5 e9 fe 3c 7b 9e fc 3b e9 7f 56 3e
       0.0024339047 0.03111733 0.007709322 0.20947231
000020 b9 e2 c5 3b 51 f2 56 3d 92 32 bd 3c 3f af 01 3f
       0.0060389903 0.052477185 0.023095403 0.5065803
000030 3f 6d 28 3c b2 3b c3 3d a1 73 19 3d c2 85 5a 3f
       0.010279953 0.0953287 0.037463788 0.8536035
000040 f5 d5 e9 3a 2e e1 4b 3c 7e 95 17 3c be b7 30 3e
       0.0017840253 0.012443824 0.00925195 0.17257592
000050 9a 43 aa 3a eb ae 10 3c d6 89 01 3c 8e b7 0f 3e
       0.0012990118 0.008830766 0.007906398 0.14034864
000060 19 60 89 3b 94 26 1d 3d cf 3b 96 3c 5d 71 c8 3e
       0.004192364 0.03836687 0.018339066 0.3914899
000070 ce 78 38 39 26 6f 09 3b 17 3b 30 3a 6c fa 83 3c
       0.0001759261 0.002097079 0.0006722672 0.016110621
000080 4a 5a 2e 3a 83 fd 33 3b 1a 73 60 3b fa 7b 56 3d
       0.00066510274 0.0027464337 0.0034248293 0.052364327
000090 98 b4 65 3b 77 50 43 3d 53 a1 28 3c ed 03 99 3e
       0.003505027 0.04768416 0.010292369 0.29885808
0000a0 d4 72 2e 3a 41 7b 94 3b 56 a4 52 3b 87 0a 75 3d
       0.0006654684 0.0045312946 0.003214141 0.059824493
0000b0 67 42 91 39 9f 47 c3 39 20 7a 48 3b b1 5c 01 3d
       0.0002770603 0.0003724666 0.003059037 0.031582538
0000c0 6b 36 95 3b 5d 96 0e 3d 3c f2 a2 3c 4f 2b cc 3e
       0.0045536063 0.034811366 0.019890897 0.39876792
0000d0 1d fa 10 3b 01 d6 b1 3c 6a c7 0c 3c 48 7d 47 3e
       0.0022121735 0.02170849 0.008592466 0.19481385
0000e0 6f 9e 56 3c 95 8a 06 3e f8 da 3e 3d 53 d4 8d 3f
       0.013099297 0.13138802 0.046595544 1.1080421
0000f0 86 29 0e 3a 1a c5 15 3c 1b a8 ad 3a c8 05 3b 3d
       0.00054230576 0.009141231 0.0013248952 0.04565981
000100 17 2c 26 3b 05 79 eb 3c 11 d9 26 3c cd 5b 78 3e
       0.002535587 0.02874423 0.010183589 0.24253769
000110 75 84 85 3a fd 65 0c 3c b7 b3 d2 3b 12 49 ec 3d
       0.001018657 0.008569238 0.006430115 0.115373746
000120 fc 72 6a 3a ae ff b7 3b ef 57 be 3b e0 8c ca 3d
       0.00089435256 0.005615196 0.0058088223 0.09890151
000130 f2 62 0d 3b cd ec 85 3c a9 8c 0f 3c a2 35 37 3e
       0.0021573869 0.016348267 0.008761563 0.17891553
000140 1e 32 32 3c db 1b ac 3d fb 8c 2b 3d 4d a9 5f 3f
       0.010876207 0.084037505 0.041882496 0.8736771
000150 ec 37 58 3c 83 36 14 3e 97 8d 2b 3d 0c 64 88 3f
       0.013196927 0.1447392 0.041883077 1.0655532
000160 22 84 17 3b c7 36 55 3c 3a 78 47 3c fb 51 5a 3e
       0.0023119529 0.013013548 0.01217466 0.21320336
000170 59 ea b6 3b af a3 3b 3d 1e 00 b2 3c 5e 35 ee 3e
       0.0055821356 0.045810398 0.021728572 0.4652509
000180 c0 76 fd 3b 8a 5a 89 3d 7f fe fe 3c 7d 9c 2b 3f
       0.0077351034 0.06706722 0.031127213 0.6703566
000190 7c 96 6e 39 c6 25 b1 3a 55 68 9f 3a 6f 28 af 3c
       0.00022753509 0.0013515286 0.0012161831 0.021381585
0001a0 09 a0 78 3b 06 4a 3c 3d 53 f7 6e 3c 12 09 b9 3e
       0.0037937185 0.04596903 0.014585334 0.36139733
0001b0 75 05 29 3c 1b d2 c5 3d 73 d5 19 3d 0a fc 5c 3f
       0.010316242 0.09659215 0.037557077 0.8632208
0001c0 ce 19 4c 3b 36 88 ba 3c 64 4e 73 3c fc 2d 93 3e
       0.003114331 0.022770029 0.014850233 0.2874602
0001d0 6e c8 27 3c 47 fc c7 3d 4c e6 16 3d dd c1 5a 3f
       0.010240657 0.09764915 0.036840722 0.8545206
0001e0 78 d3 4d 3b 7d 77 29 3d d3 91 42 3c e2 99 9b 3e
       0.0031406563 0.04137372 0.0118755875 0.3039084
0001f0 1e 61 93 39 1f 4f 37 3b 90 4e 0f 3b 89 df b4 3c
       0.00028110383 0.0027970744 0.0021866895 0.022079246
000200 55 5b 2e 3b 19 5b ae 3c f2 ce 4c 3c 73 de 80 3e
       0.002660473 0.021283673 0.0125005115 0.25169715
000210 f2 b4 05 3a 47 26 b6 3b c1 bb 1a 3b 63 c6 14 3d
       0.00051005103 0.0055587622 0.0023610445 0.03632201
000220 1e b7 3b 3b 83 11 be 3c a9 a9 3b 3c bc 0b 78 3e
       0.0028643082 0.02320171 0.011454024 0.24223226
000230 35 35 18 3b 24 5f 02 3d 02 88 05 3c bb 5e 60 3e
       0.0023225073 0.031829014 0.008150103 0.21911137
000240 30 08 b1 3a a0 59 d5 3c 5d 12 94 3b e4 51 14 3e
       0.0013506468 0.026043713 0.0045187906 0.14484364
000250 f3 f7 68 3a dd 59 16 3c d1 90 f8 3a 86 d6 57 3d
       0.0008887045 0.0091766985 0.0018964057 0.05269482
000260 0e 36 27 3a 7f 04 38 3c 7c 32 33 3a 7f 93 18 3d
       0.0006378599 0.011231541 0.0006835831 0.03725004
000270 f4 b5 96 38 6e 59 88 3a ac 3f b3 38 95 d5 6a 3b
       7.186449e-05 0.0010402629 8.547245e-05 0.0035832871
000280 25 75 bc 3a e6 41 35 3c 8c 7f fb 3b 66 6e 15 3e
       0.0014378174 0.011063075 0.007675117 0.14592895
000290 1a 55 05 3c d8 74 8f 3d f7 9f 02 3d 6f b9 31 3f
       0.008137966 0.07004708 0.031890836 0.69423574
0002a0 07 24 8e 3a 2e 54 62 3c ba 80 64 3b 62 f7 bf 3d
       0.0010844477 0.013814015 0.0034866766 0.093733564
0002b0 9f 1f d6 3b fb d5 83 3d 73 d3 c6 3c 6e 94 11 3f
       0.0065345312 0.06437298 0.024270749 0.5686711
0002c0 51 b8 67 3b 12 87 1d 3d 06 99 3a 3c 36 22 92 3e
       0.0035357664 0.03845889 0.011389023 0.28541726
0002d0 66 29 03 3b 31 32 b1 3c 9a 0f ec 3b 4b 18 30 3e
       0.002001369 0.021630378 0.0072040083 0.17196767
0002e0 61 34 3a 3a c4 63 00 3c 0e c2 61 3b 90 07 98 3d
       0.0007103142 0.007836286 0.003444794 0.074233174
0002f0 c6 d0 63 39 6d 53 45 3b 20 d3 20 3a 49 37 90 3c
       0.00021726181 0.003010954 0.00061349757 0.017604487
000300 14 8f 26 3a e1 24 cd 3b 89 f0 38 3b 06 55 73 3d
       0.0006353718 0.0062605 0.0028219542 0.059407257
000310 5b 56 c5 3a 0d eb 69 3c b4 9b b9 3b 2f d4 01 3e
       0.0015055643 0.014277232 0.005664313 0.12678598
000320 f0 1e 5b 3a 45 fd eb 3b 3a 59 65 3b e3 5e 95 3d
       0.0008358797 0.007201823 0.003499581 0.07293489
000330 0a ed 88 3b ad 9a f7 3c ab f6 a5 3c 09 fe c6 3e
       0.004178648 0.030225122 0.020259222 0.38865688
000340 06 73 28 3b e7 14 8a 3c bf 1a 59 3c 3a 46 78 3e
       0.0025703325 0.01685567 0.013251006 0.2424554
000350 88 54 27 3b 51 5f 05 3d d5 67 ef 3b 90 57 54 3e
       0.0025532562 0.032561604 0.007306079 0.20736527
000360 1a 8f 72 3b 3f fe 07 3d 88 80 70 3c cf f6 a5 3e
       0.0037011565 0.033201452 0.014679082 0.32414863
000370 81 b5 c5 39 eb 8d c2 39 28 a6 81 3b c4 92 2d 3d
       0.0003771 0.000371083 0.003956575 0.042376295
000380 b3 4b 96 3a 0a 9c 3d 3c ed cf 8f 3b 98 53 d2 3d
       0.0011466652 0.011572847 0.0043888004 0.102698505
000390 bd e6 8e 3b 49 df 03 3d 2e 27 a0 3c b5 9b c5 3e
       0.0043610022 0.032195363 0.019549932 0.38595358
0003a0 1b db 1d 3a 35 53 a7 3b 84 60 fc 3a e2 3c 2a 3d
       0.0006021724 0.0051063546 0.0019254838 0.04156197
0003b0 68 a1 74 3b 55 ad f1 3c 65 2d 90 3c 39 4a b2 3e
       0.003732765 0.029501596 0.01759977 0.34822252
0003c0 15 88 dc 3a c3 96 47 3c 8b eb ef 3b a6 cb 12 3e
       0.0016825224 0.0121819405 0.00732178 0.14335498
0003d0 87 e1 03 3c 79 b4 a5 3d ee a1 e7 3c ed 94 2c 3f
       0.008049375 0.08091063 0.028275456 0.6741474
0003e0 11 8c cc 3a 6a 64 2c 3c ff 1b 0e 3c d7 1d 1f 3e
       0.0015605708 0.010521987 0.008673667 0.15538727
0003f0 c5 cb b2 3b 8b 79 3b 3d 23 f1 b9 3c 2d a3 f4 3e
       0.00545642 0.04577021 0.02269799 0.47780743

exp_avg f4 [64]
000000 e5 7e 57 3f 7c 50 86 bf 9d 7b 17 3f dc 0c 9d be
       0.84178 -1.0493312 0.59172994 -0.30673873
000010 ba 26 03 c0 2a 59 30 40 4d a5 d4 3f da c0 eb 3f
       -2.0492387 2.7554421 1.6612946 1.8418229
000020 2a e1 db bf 74 b6 db bf c6 cb 94 3f f0 f9 04 c0
       -1.717809 -1.7165055 1.1624687 -2.077755
000030 98 d7 7c bf 4e c2 79 3f 81 2c 0c be a6 5f 9e bf
       -0.9876647 0.9756211 -0.13688852 -1.237294
000040 3f 20 16 bf 31 89 7e bf 44 75 4d c0 f5 e6 6b 3f
       -0.58642954 -0.9942809 -3.2102823 0.9214929
000050 fd d7 b9 3f 32 dd b8 bf c4 fb 04 40 35 3c fc 3e
       1.4519039 -1.4442503 2.0778666 0.49264684
000060 a9 3b a5 bf 48 87 2c 40 90 7a 9a 3e d4 0c 2f 3e
       -1.2908832 2.695757 0.30171633 0.17094737
000070 fa 73 5a 40 dd 45 9e 3e b6 cd 4e 3d c8 e9 13 3f
       3.4133286 0.30912676 0.05048915 0.57778597
000080 f5 c2 31 3e 72 c8 cc bf 0d bd c2 be 5b 95 71 bf
       0.17359526 -1.5998671 -0.3803486 -0.94368523
000090 86 30 d6 3e 25 e5 f5 3f d7 a0 10 40 0e ee 30 40
       0.41833895 1.9210554 2.259817 2.7645297
0000a0 60 7a 57 c0 ba a4 20 bf 14 af 8f 3f 2b ec 9b 3c
       -3.3668442 -0.6275135 1.1225305 0.019033512
0000b0 18 6a 93 3f 09 c9 25 bf 82 c7 d2 3b fa b5 c8 bf
       1.1516752 -0.6475988 0.0064324746 -1.5680535
0000c0 af 63 5e 3e 0c 6c 3b 3f 0a cc 93 3f 41 da 10 c0
       0.21717714 0.7321174 1.1546643 -2.2633212
0000d0 55 e9 21 40 82 e4 b8 bf 47 00 81 be cf 15 16 c0
       2.5298665 -1.4444735 -0.25195524 -2.345081
0000e0 0e 22 3b 40 1c 5f ca 3d c5 3e 19 40 71 a5 1c 40
       2.9239535 0.09881422 2.3944561 2.4475977
0000f0 3c fa 95 3f 03 d5 6c bf 6e 63 22 40 6a f4 b6 bf
       1.171699 -0.9251253 2.5373187 -1.4293339

exp_avg_sq f4 [64]
000000 b9 64 a7 3e 2f 3d b0 3e 28 d3 03 3f 8d 3e ef 3e
       0.32694033 0.3442168 0.51494074 0.4672741
000010 86 84 1c 3e 09 6e 4a 3e 0e 7a 1c 3e 9c 8a 93 3e
       0.15284929 0.19768538 0.15280935 0.28816688
000020 77 38 11 3e 99 8f bb 3e 5e 5e 93 3e 67 18 e3 3d
       0.14181696 0.36632994 0.28782934 0.11088639
000030 c5 47 83 3e 8f 2d de 3e 95 7e e7 3e 7a a9 27 3e
       0.25640693 0.43394133 0.45213762 0.16373244
000040 25 13 d3 3e 2f d1 21 3e b6 4b 90 3e b2 f3 84 3e
       0.41225544 0.15802453 0.28182763 0.25967175
000050 a0 a4 8b 3e 95 89 0a 3f af 7f 27 3e 27 e4 de 3e
       0.27274036 0.54116184 0.16357301 0.4353344
000060 47 d7 70 3e df 76 8a 3e cb 45 cf 3e 2a 13 f3 3e
       0.23519622 0.27043816 0.40482935 0.4747556
000070 bd 32 b2 3e db 0a e8 3e c9 14 86 3e f5 e8 13 3e
       0.34804335 0.45320782 0.26187733 0.14444335
000080 56 97 b4 3e 0d 49 e0 3e 5b 7b 7f 3e 85 5e b2 3e
       0.3527171 0.43805733 0.249494 0.34837738
000090 56 08 23 3e 92 cb 84 3e f5 0e 64 3e c2 c2 ba 3e
       0.15921149 0.25936562 0.2227133 0.36476713
0000a0 6c dd ac 3e ca 5c af 3e 8c ba 66 3e f8 c5 b4 3e
       0.3376268 0.3425048 0.225321 0.35307288
0000b0 5f 27 82 3e 35 76 9b 3e 54 85 6c 3e 67 23 6a 3e
       0.25420663 0.30363622 0.23097736 0.22865067
0000c0 42 74 90 3e 93 05 91 3e 5e 00 72 3e 88 22 50 3e
       0.28213698 0.28324565 0.23632953 0.20325673
0000d0 fd bd 40 3e 4c 06 6f 3e 8a 58 b0 3e eb 7a 15 3e
       0.18822475 0.23342246 0.3444255 0.1459767
0000e0 60 1f cc 3e 9d 56 f9 3e 8f 0a 39 3e 19 11 40 3e
       0.39867687 0.48698893 0.18070434 0.18756522
0000f0 dc c0 9d 3e 77 73 31 3e eb a2 30 3e af 13 58 3e
       0.30811203 0.17329203 0.17249648 0.21101259

exp_avg f4 [64, 64]
000000 47 1f de bc 33 97 b4 bc e0 65 b6 bd 17 5f dd bd
       -0.027114524 -0.022044754 -0.0890615 -0.108091526
000010 6d 41 1e be 25 88 65 3e 2f 5e 25 3d ed 03 9d 3d
       -0.15454645 0.22415216 0.040373024 0.076667644
000020 8d f9 b6 bd 9a 37 15 bc ad 42 4d 3a 62 d1 cf bd
       -0.08934317 -0.009107495 0.0007830065 -0.101473585
000030 9d e9 b2 bd 33 dc 49 bd 3f 90 23 3e bb 51 6c bd
       -0.087359644 -0.049282264 0.15972994 -0.05769513
000040 45 db ec 3c 00 62 b4 3c 03 7f 86 be 7a f4 6c bb
       0.02891315 0.022019386 -0.26268777 -0.0036156462
000050 d0 f6 51 3e 2c da f7 3d 4f 09 2e 3e 79 5b d8 bd
       0.20504308 0.1210216 0.16995738 -0.10564322
000060 eb 90 7d bd 2a e9 25 3e ce 2b 0f bb f9 01 fa bd
       -0.061905783 0.16202226 -0.0021846178 -0.122074075
000070 dd 9d 75 3e 02 39 12 be d0 fb e4 bc 0e 13 c8 3c
       0.23986001 -0.14279559 -0.027952105 0.024423148
000080 2d f5 d8 3c 97 8d 98 bc 08 56 dd bb b7 55 f1 3c
       0.026484096 -0.018622203 -0.0067546405 0.029459817
000090 bc 75 4d bc 7e ff 7d 3d b1 ff e2 3d bf 44 00 3e
       -0.012540277 0.062011234 0.110839255 0.12526225
0000a0 0d a0 57 be 09 fd db bd 35 92 11 3c 45 ad aa bd
       -0.21057148 -0.10741622 0.008884956 -0.0833383
0000b0 5b 97 6a 3c cb 9f 24 bd f0 93 1c ba 08 34 72 bd
       0.0143183125 -0.040191453 -0.0005972972 -0.059131652
0000c0 c6 a3 2d 3c ad bf 0e 3c da 18 19 3d d2 d3 46 be
       0.010598129 0.008712691 0.037377216 -0.1941674
0000d0 21 fe 2a 3e e4 d2 13 bc fe da 06 bd 6d e6 e1 bd
       0.16698505 -0.009022448 -0.03292369 -0.11030278
0000e0 c0 8b 13 3e f8 0c 86 bd 9f 9e 8c 3d 88 2a 00 3e
       0.14408779 -0.06545442 0.06866192 0.12516224
0000f0 b1 f7 85 bb 92 37 a9 bc 45 fb 08 3e 1a e8 25 bd
       -0.004088365 -0.02065638 0.13377102 -0.040504552
000100 8c 3c 66 bd 13 e5 a3 3c 1b 70 03 be 33 c3 e7 bd
       -0.056210086 0.020006692 -0.12835734 -0.11316528
000110 20 09 ff bd 66 50 2f 3e ce 69 1e 3d 3f c1 ab 3c
       -0.12452912 0.17120513 0.038675122 0.02096617
000120 1c d7 a8 bd 20 3b 83 3d b6 ca 5e bd 74 22 97 bd
       -0.08244154 0.064077616 -0.05439254 -0.07379618
000130 84 7f aa bd ed fa d9 bd 29 14 52 3e 56 6c 98 bb
       -0.08325103 -0.106435634 0.20515503 -0.0046515865
000140 4f c5 89 3d 02 40 69 3c 33 dd 4c be 6e a7 00 bd
       0.06727087 0.014236452 -0.20006256 -0.031409673
000150 28 e6 4a 3e ab ae 4c 3e 58 52 14 3e c7 31 13 be
       0.1981436 0.19988506 0.14484537 -0.14374457
000160 72 23 6f bd 5b f9 d0 3d 2d b4 dd bc 3e 1f 20 be
       -0.058383413 0.10203811 -0.027063454 -0.15636918
000170 3c b0 3b 3e b1 f6 3d be e1 10 fb bb 84 93 14 3c
       0.18328947 -0.18551137 -0.007661924 0.009068374
000180 73 36 02 3d 41 f7 c5 3c a5 9c 6a bb 48 86 ca 3d
       0.031790208 0.024165751 -0.0035798934 0.09888893
000190 38 3d a4 3b 59 4c 86 3c 00 93 48 3d 2c a0 b9 3d
       0.0050121807 0.016393827 0.048968315 0.090637535
0001a0 2c f0 20 be 8e 32 e8 bd 80 3c 78 bd fd 14 e2 bd
       -0.15716618 -0.113377675 -0.060604572 -0.110391594
0001b0 a5 53 d0 bc cc 83 93 bb 18 ff 07 3d 70 61 02 bc
       -0.02543051 -0.0045017954 0.03320226 -0.007957801
0001c0 31 42 fb bb ec db 1c bd 13 b2 ec 3a f1 5b 2a be
       -0.0076678027 -0.03829567 0.0018058441 -0.16636635
0001d0 bd 8f 05 3e 0c 77 77 3d aa 17 28 bd 33 60 a7 bd
       0.13043113 0.060416266 -0.041038193 -0.081726454
0001e0 41 9e ad 3d fd db 9e bd 9f ae 70 3d 27 5a d6 3d
       0.0847745 -0.07756803 0.05876028 0.10466414
0001f0 51 07 f1 bc e6 d8 f1 bc 66 35 e0 3d 42 3c 20 bd
       -0.029422434 -0.02952237 0.10947685 -0.039119966
000200 96 b4 8a 3d d2 c8 eb b9 e2 24 0b 3e cb 4c 0a 3e
       0.06772725 -0.00044972316 0.13588288 0.13505857
000210 2b 38 30 3e d2 2f 77 be 53 71 46 bd ed c6 2a bd
       0.17208926 -0.24139336 -0.04844792 -0.041693617
000220 08 40 b2 3d 6c 5f fb bc 5b 60 60 3d db b5 de 3d
       0.08703619 -0.03068515 0.05477939 0.1087453
000230 93 86 dc 3d 10 83 c3 3d a2 83 64 be cf b8 13 3d
       0.107678555 0.095464826 -0.22315839 0.03606492
000240 0c 28 86 bd 8d f3 17 bc 43 b4 8b 3e c3 a9 2d 3d
       -0.06550607 -0.009274376 0.27285966 0.042398226
000250 f7 f0 7e be 45 7f 49 be 66 94 4d be 47 1d 28 3e
       -0.24896608 -0.19677456 -0.20076141 0.16417418
000260 d4 ac 94 3d 4b 15 15 be 3a 37 c9 3c d8 fc 2c 3e
       0.07259527 -0.14558904 0.024562467 0.16893327
000270 cd a7 82 be a4 bb 50 3e 61 5a 45 3c 30 ef 56 bd
       -0.25518647 0.20384079 0.012045474 -0.0524742
000280 a2 e1 6c bd 42 20 e6 bc 82 64 10 bc 25 4a a8 bd
       -0.057832368 -0.028091554 -0.008813025 -0.08217267
000290 43 ec 2a b9 d4 49 49 bd 1f 42 cd bd 64 9f e0 bd
       -0.00016300478 -0.049142674 -0.10022377 -0.10967901
0002a0 33 f6 5b 3e 01 b7 0f 3e d1 b8 f3 3c b4 5c f5 3d
       0.21480636 0.14034654 0.029751213 0.11980572
0002b0 03 ee 25 3c c4 5d 93 3c b7 f7 cf bc 5a ff 0c 3d
       0.010127547 0.017989047 -0.025386674 0.03442321
0002c0 59 b5 a7 3b d5 3d c1 3c 95 bb 01 bc 78 d3 66 3e
       0.005118054 0.023589054 -0.007918258 0.22541606
0002d0 57 8d 3a be ca a1 dd bc e2 e0 63 3d 57 3a f1 3d
       -0.1821798 -0.027054686 0.055634387 0.117787056
0002e0 3b 7f 02 be 5e 52 e5 3d 58 ea 70 bd 24 48 0d be
       -0.12743847 0.11197351 -0.058817238 -0.1379705
0002f0 dc e8 39 3d 90 d0 00 3d 93 2e 12 be c5 12 31 3d
       0.045388088 0.0314489 -0.14275579 0.04323079
000300 21 c4 15 be 35 42 09 3e 99 c0 95 be 5f 05 72 be
       -0.14625598 0.13404162 -0.29248503 -0.23634861
000310 28 56 6f be 52 11 8d 3e 16 cf 91 3d da 5d 34 bd
       -0.2337271 0.27552277 0.07119577 -0.044034816
000320 ef fe a5 bd 9c b4 3f 3e ec e6 19 be 92 e8 81 bd
       -0.08105265 0.18721241 -0.15029496 -0.063431874
000330 e1 1b 38 be e6 54 94 be 01 be d9 3e 1a 83 c0 3d
       -0.17979385 -0.28971022 0.42527774 0.09400006
000340 93 f7 59 3e 50 a4 8d bd 44 67 91 be 7d 68 b9 bd
       0.21285848 -0.06916106 -0.28399098 -0.09053133
000350 bc 66 b7 3e 94 58 d9 3e dd 63 82 3e 29 f9 9a be
       0.35820568 0.42450392 0.25466815 -0.3026822
000360 f5 cb dc bd 9a f4 e3 3d 0a 54 12 be de c4 a4 be
       -0.10781089 0.111306384 -0.14289871 -0.32181448
000370 6d 73 8c 3e f2 42 c7 be 33 b9 92 3d e4 78 81 3d
       0.27431813 -0.38918263 0.0716423 0.06321886
000380 5d da d9 3d 61 9f ea 3d 91 ce 82 3c 82 81 91 3e
       0.106373526 0.1145618 0.01596764 0.2841912
000390 3e c6 f0 3d 9e 61 60 bd 2b 14 81 bc 0c 7b ab 3d
       0.11756562 -0.054780595 -0.015756687 0.08373079
0003a0 0d 77 63 be 76 16 76 be b1 0a 53 be f1 27 74 be
       -0.22213383 -0.24032006 -0.20609547 -0.23843361
0003b0 2b fe c7 bd b3 7a be 3d 3d 00 2b 3e 56 06 9a 3d
       -0.097652756 0.09300747 0.1669931 0.0752074
0003c0 fe 75 de bd 26 e6 28 be e7 ee 89 bd 30 c4 92 be
       -0.10862349 -0.16494045 -0.0673502 -0.28665304
0003d0 b6 2a 5e 3e 04 43 35 3e 94 64 06 be 86 09 b3 bd
       0.2169598 0.17701346 -0.13124305 -0.08742051
0003e0 f8 20 a3 3d 67 6d 40 be a4 9c c3 3d ef 11 22 3e
       0.07965273 -0.18791734 0.09551361 0.15827154
0003f0 3c a3 a4 bd 48 14 80 bd 00 19 35 3e 48 cf 92 bd
       -0.08038947 -0.06253868 0.17685318 -0.07168442
