hw2/data/sb_rtg_na_CartPole-v0_16-06-2019_19-14-25/11/model.pkl (torch_old, 66652 bytes, 18 tensors)

weight f4 [64, 4]
00000000: be74 2c3f b5ec 9e3e 9908 4dbf 9493 20bf
00000010: f89d 71bf 57d5 f2be 96f6 363f ab61 1e3f
00000020: 3d59 273f 6063 ec3e 2fe6 4abf 8725 64bf
00000030: 39b4 f13e 1f30 d93e 2981 35bf e2b9 63bf
00000040: 174e 673f 8a79 703e 7d31 38bf 214d 5dbf
00000050: 70c6 37bf 3f57 1ebf 9338 6a3f ec19 513f
00000060: aeb6 08bf 7151 5fbf 668c 4f3f b796 fa3e
00000070: c707 bc3e d124 4e3e 9d1d a23e 1d46 5bbd
00000080: 210f 703f 6bcc 583f c7a0 12bf 36d5 d4be
00000090: 96c1 69bf d628 0cbf d8ba c33e 74e7 313f
000000a0: fb27 8a3e 4eef 863e d204 9abe c6ff afbe
000000b0: c118 9a3e e894 fd3e edf9 1abf a930 09bf
000000c0: 2fd2 0e3f 6fec 153f 1c48 42bf 8d36 4bbf
000000d0: 0263 5b3f 97e3 923e 89a0 3fbf f1f1 3fbf
000000e0: ce0d 6bbf 8623 16bf 21f2 6a3f 8043 573f
000000f0: 2ad0 18bf d8ca 59bf c9f7 4a3f 4c47 c83e
00000100: ccad 53bf 5f40 13bf 462d 293f ed7b 3b3f
00000110: 944c 573f 1cfe 4e3f 9e0f d9be db08 0dbf
00000120: 12be 9a3e ebe7 1d3f e72b 51bf f907 50bf
00000130: 8a05 283f 27f4 353f c2dd 24bf 4c10 01bf
00000140: 03c7 16bf 2b46 45bf ac11 123f 7f42 5e3f
00000150: 337d cebe 2d7e 52bf cff2 d73e 2314 653f
00000160: 8ca4 18bf 49e3 35bf f935 3c3f a6bc 2d3f
00000170: 91ae c33e bea6 2c3f ccb0 58bf 5fc5 45bf
00000180: 75d4 b83e 56ee 3b3f ae8a 42bf 1891 1fbf
00000190: 8a14 79be aa1e d13c a1de c03e 53d1 113f
000001a0: 273c 5a3f be42 213f 4690 6fbf 0602 0dbf
000001b0: a11b 1c3f c3f6 fd3e faf2 0ebf 3f96 6bbf
000001c0: a71e 5fbf 5885 52bf 705f 4c3f be3c 2f3f
000001d0: 7b08 553f 9bab 353f 7d7d 44bf 38bd 56bf
000001e0: f39d 24bf b6e2 59bf 2d91 4b3f 3aa6 e53e
000001f0: 101b a53e 817e 123f 5e84 393e c3b4 6ebe
00000200: c765 4fbf 6322 cebe 811e d33e e3b2 2d3f
00000210: be47 85be 8b86 333e 53fe b63e dad8 f83c
00000220: 290e eabe 23fe ddbe e632 423f 9a9e 0f3f
00000230: 87c3 22bf f913 67bf d973 463f d60d 163f
00000240: f0a8 31bf edb3 eabe 94b2 083f 8daa 023f
00000250: 2386 e83e 7c02 133f f479 59bf 835a e8be
00000260: 70c5 663f 733d 013f 8719 12bf 8ed2 bcbe
00000270: f62a 233d 2fbc ca3d dc40 a73e 773e a53e
00000280: defc 543f 1d67 fc3e ca05 09bf 4818 3abf
00000290: 5abc 6a3f 5d89 2d3f 321e 3bbf 0785 3dbf
000002a0: c6f7 033f 197a 263f c21a ccbe 5d76 27bf
000002b0: 9ac5 143f 9df1 133f 295b 13bf c347 57bf
000002c0: 777f e73e 4b53 563f 9b8e e9be 60fc 16bf
000002d0: 1f74 64bf 59e1 56bf daac d53e b8ea 013f
000002e0: 9c74 12bf 2608 34bf 2445 143f 464c 093f
000002f0: 13f8 3abf 31b8 21be 77dd 403e 2841 883e
00000300: c44b 253f bd10 66bd 5fb4 8b3e 1e96 02be
00000310: e95f 0b3f dc47 5a3f 960a 4fbf b853 ffbe
00000320: c714 233f 2b8c 3d3e 7dc0 69be db47 bbbe
00000330: 8038 503f 720e 503f 86e3 efbe 29de 4bbf
00000340: e61e 5cbf 9a14 33bf 5ebd 5f3f 957c 283f
00000350: 2c23 47bf 091a f2be db54 b43e 8099 373f
00000360: 21be 353f 7505 6f3e 54e5 61bf 18b6 3dbf
00000370: 17de 8a3e f8d7 2d3f 327d a2be 8149 17bf
00000380: 696b 2ebf ffbb 17bf aab5 f13e 6461 0d3f
00000390: 8a85 393f bc1f 463f 439b 4cbf 769b 16bf
000003a0: 153f fc3e 4250 063f 0e43 b8be 4787 ccbe
000003b0: bbcc ffbe 74c5 52bf 6966 e63e 147c 213f
000003c0: 5ac2 c63e 82e2 123f 92dc 3ebe 30ce 08bf
000003d0: 2f90 6d3f 787a 623f 9268 1bbf ecaa f5be
000003e0: f0c8 58bf c27b ccbe 1176 023f 5b33 3b3f
000003f0: 151a ed3e 85d8 d23e 8b78 11bf aea8 2ebf
0.67365634 0.31039968 -0.80091244 -0.62725186 -0.94381666 -0.4742839 0.7147001 0.6186778
0.6537054 0.46169567 -0.7925748 -0.8911976 0.4720781 0.42419526 -0.7090021 -0.8895551
0.9035353 0.23483863 -0.71950513 -0.86445814 -0.71787167 -0.61851877 0.91492575 0.8168018
-0.5340375 -0.87233645 0.81073606 0.4894311 0.36724684 0.20131232 0.31663218 -0.053533662
0.93773085 0.8468692 -0.57276577 -0.41568917 -0.91311014 -0.5474981 0.38228488 0.69493794
0.26983628 0.2635445 -0.30081803 -0.34374827 0.3009701 0.4952767 -0.60537606 -0.53589875
0.55789465 0.58563894 -0.7589128 -0.7938011 0.8569795 0.28689262 -0.7485433 -0.7497855
-0.9181794 -0.58647954 0.9177571 0.8408737 -0.59692633 -0.8507514 0.7928434 0.39116895
-0.8268707 -0.575201 0.66084707 0.7323597 0.84101224 0.8085649 -0.42394727 -0.5509164
0.30223137 0.61682004 -0.81707615 -0.81262165 0.6563345 0.7107567 -0.64400876 -0.5041549
-0.5889742 -0.7706019 0.57058215 0.86820215 -0.40329894 -0.8222378 0.42177436 0.8948385
-0.5962608 -0.71049935 0.73519856 0.6786598 0.3821912 0.6744193 -0.8464477 -0.7725429
0.36099592 0.73410547 -0.7599286 -0.6233077 -0.24324241 0.025527317 0.37669852 0.5696003
0.85248035 0.62992465 -0.9357952 -0.5508121 0.6097966 0.49602327 -0.558395 -0.9202613
-0.87156147 -0.82234716 0.79833126 0.6845206 0.83216065 0.70964974 -0.7675398 -0.83882475
-0.6430351 -0.8511156 0.79518396 0.44853383 0.3224721 0.5722428 0.181169 -0.23311143
-0.81014675 -0.4026061 0.4123421 0.67851084 -0.26031297 0.17531793 0.3574091 0.03037684
-0.45713928 -0.43357953 0.75858915 0.5610138 -0.635796 -0.9026485 0.7752052 0.5861486
-0.69398403 -0.45840397 0.5339749 0.5104149 0.45414838 0.57425666 -0.8495171 -0.45381555
0.90145016 0.5048439 -0.570702 -0.3687939 0.039835893 0.098991744 0.3266667 0.3227422
0.83198345 0.4929742 -0.5352446 -0.726933 0.9169365 0.67787725 -0.7309295 -0.7403111
0.5154995 0.65030056 -0.39864165 -0.65414983 0.58114016 0.5779055 -0.57560974 -0.84093875
0.45214435 0.83720845 -0.45616612 -0.58978844 -0.89239687 -0.83937603 0.41733438 0.5074878
-0.5720918 -0.70324934 0.57918 0.5363201 -0.7303478 -0.1579292 0.18834482 0.2661221
0.64568734 -0.056168307 0.2728605 -0.12752578 0.5444322 0.852659 -0.8087553 -0.4986856
0.6370358 0.18510501 -0.22827335 -0.3657826 0.8133621 0.8127204 -0.46853274 -0.79635864
-0.8598465 -0.6995331 0.87398326 0.658151 -0.77788043 -0.47285488 0.3522099 0.717186
0.7099324 0.23341925 -0.8824055 -0.7410598 0.27122566 0.6790767 -0.3173614 -0.59096533
-0.68132645 -0.59271234 0.4720891 0.5522673 0.7246939 0.7739217 -0.7992441 -0.58830965
0.49266878 0.52466214 -0.3598866 -0.39946958 -0.49960884 -0.8233254 0.45000008 0.63079953
0.38820153 0.57376873 -0.18638828 -0.5343962 0.9279813 0.8846812 -0.60706437 -0.47981966
-0.84681606 -0.3993817 0.50961405 0.7312524 0.46308962 0.41180816 -0.5682456 -0.68226135

bias f4 [64]
00000000: 3c6a c0bd 782d c63e 2835 d0bd 9f55 71be
00000010: 5318 a2be 8b56 bf3e 60d7 823e 6c40 82be
00000020: 32e3 023d 8a1a 333e b189 8c3c 4f8a 273d
00000030: 7843 7bbe f1a7 b6be 6a0f 9e3c 33c5 843e
00000040: f933 f43e 70ed 15bf a837 36be 6662 36bd
00000050: 3923 2d3e 792a 44be 230b 0e3e 9c8d d73c
00000060: 7547 16be 2ecf fabd a9c6 04bf acd1 61bd
00000070: c121 0e3e de05 26bc 2498 053f bbbe 2d3d
00000080: cbe3 873e fa5d 1bbd ae4e d83d cd09 503e
00000090: 5b84 eb3e 6aa6 82be 9532 13be d8ac b1be
000000a0: 6284 a7bd b199 2ebe 9af2 33be 7951 0bbe
000000b0: 913b 7fbe cde3 d53e fbcf df3e 4885 993e
000000c0: f921 06bf 7adf b0be 3295 cdbe d013 8bbe
000000d0: 5753 283e 020a 363e 510a 87be 2dd2 93bd
000000e0: 9666 55bd fcb8 40be beb3 d9bc 048f 173e
000000f0: da4c 46bd 93ee 49be 5daf 093e 759b e5bc
-0.093952626 0.38706565 -0.10166389 -0.23567818 -0.31659183 0.37370715 0.25554943 -0.25439775
0.03195495 0.17490593 0.0171555 0.040903386 -0.24537456 -0.35675004 0.01929446 0.259317
0.47695902 -0.58565426 -0.17794669 -0.044527434 0.16907968 -0.19156827 0.13871436 0.026312642
-0.14675696 -0.12246548 -0.5186563 -0.0551316 0.13880064 -0.010133235 0.52185273 0.042418223
0.2654098 -0.03793142 0.10561882 0.20316239 0.45999417 -0.2551759 -0.14374764 -0.34702182
-0.08179547 -0.17050816 -0.17573014 -0.13605298 -0.24925067 0.4177536 0.43713364 0.29984498
-0.5239559 -0.345455 -0.4015289 -0.27163553 0.16438042 0.17777255 -0.26375058 -0.07217822
-0.052099787 -0.18820566 -0.026574966 0.1480065 -0.048413135 -0.19719915 0.13445802 -0.02802823

weight f4 [64, 64]
00000000: d02b bdbe 964d 073f 2430 583e ea82 463f
00000010: 9db5 493f 261f 35bf dd87 1cbf 6830 1abf
00000020: 7cc0 b63e 70a6 263f 86e9 c8be ce34 b83e
00000030: f877 323f 8c51 d2be 9d15 94be 56a6 e03e
00000040: 20ed 57be 5bc9 123f 3899 b63e 51c3 25be
00000050: 0ddc 30bf 8dbe ad3e ec7a 15bf 4315 bd3d
00000060: 11b1 c83e 2799 23bf 43ee a03e fd0d 023f
00000070: eb3b dabe 71a6 af3e db6a 88bd 2aab 15bf
00000080: 7ae5 dcbe 8c0a 3d3f a6b2 b03d e598 e23e
00000090: 6e2c 16be 0d18 f6be 2f38 d9be 319a b2be
000000a0: f441 0a3f 9c08 293f 4745 34bf 2709 183f
000000b0: ca3d 19bf 0776 8e3e e2df e83e c967 cd3e
000000c0: 6977 643d 6e48 0abf 3640 06bf a89c 453f
000000d0: 73b1 30bf dfc4 f13e 6c72 de3e b858 103f
000000e0: e301 1abf d73f 173f 211f 03bf c690 16bf
000000f0: 649a 873b d7c9 c93e ba9e 0dbf 32e2 ec3e
00000100: f33e 173e 4851 b33e 68d3 c13e 705d 0d3f
00000110: be2d 273f f0e0 2cbf 8282 bbbe 226d d4be
00000120: c332 a93e d9a6 893e b35b c7bd 70aa c73e
00000130: 761c 0f3f 2a61 043d 73c2 21bf 93f8 c53e
00000140: d374 21bf e08c 0e3f ae01 313f c8fc 1fbe
00000150: aab4 38bf ee66 9c3d 1c89 33bf af8c e23e
00000160: 618e 3c3f e3d6 3ebf 8635 9f3e 2b8a 223f
00000170: ed9e 47bf d68f 213f 84ac 13bf 795e b7be
00000180: a0f1 e7be 93c5 a03e 0306 83bd 0f2f 7c3e
00000190: 8080 afbe 1dd7 09bf 4f6b 0fbf fe72 44bf
000001a0: 43bb 333f 207c cb3e e26a 14bf 0499 203f
000001b0: b21a ccbd 7598 c83e 124b c4be 7fc9 333f
000001c0: 206e 843e 3378 77be e9a1 b0be db2d 283f
000001d0: 5d25 d4be 4e75 8c3e 013a 0e3f a780 d23e
000001e0: 35d6 32bf 4d1b 163f a14d d5be 5eb5 42bf
000001f0: e02f 743a 2656 f13e 14e2 22bf f445 313f
00000200: 5472 0bbd fe34 babe a3c7 39be ac63 29bf
00000210: 340f 3dbf 8b8e 233f 94bd d03e 8de6 083f
00000220: 23f8 2abe c038 b7be 32d4 263f d88c 36bf
00000230: 62ae 2cbf ba76 8f3e be00 e13e 299d dbbe
00000240: 69bc 21be 4f0c 07bf bc94 aabe e0d1 8fbd
00000250: cd10 223f 898c 24bf 9e67 e13e f0b5 f7be
00000260: c86b 16bf 664c ec3e 24e6 6d3e f6e3 c1be
00000270: 1fa7 ae3e 09a2 81be d2f0 7c3c fe36 143f
00000280: 8b5e 0f3f 5a59 c1be f6a1 f83d d09c cbbe
00000290: 1770 00be b316 1c3f 290d af3e 6a8a cf3e
000002a0: 8248 e2be 3620 e7be 1b22 053f 5da5 26bf
000002b0: 7a15 ab3e 1a35 f3be 0100 e0be 7969 28bf
000002c0: ec31 cf3e eef3 053f 5c4a 243f de81 e0be
000002d0: a062 193f 7828 0cbf 084a eebe e995 2cbf
000002e0: 5cc3 133f 4097 f5be e510 c63e fda8 1a3f
000002f0: ed3f eabe c164 dcbe 6555 2c3f aa3f d7be
00000300: 6239 ee3e 646d abbe 8f40 023f 5903 233f
00000310: 5684 a93e dfbd 15bf 3f7d ebbe c0d0 973e
00000320: 0d1a 83bd 3318 06bf 3747 c23e 9c42 be3e
00000330: b118 b83e 68dd e13e 23fa 11bf 7449 62be
00000340: f83a b4be 1e4d e63e aa0d e53e ced3 ca3e
00000350: b134 3dbf 75bf 13bf 5490 34bf 6fb3 2a3f
00000360: e2b3 083f dc79 c83d c49b 263f 95e2 1e3f
00000370: 7a77 e8be d869 3b3f 351a 1bbf 1612 acbe
00000380: cad0 adbe 2409 08bf c88c 09bf da27 b1be
00000390: 8a5a ecbe 6364 973e d71b a83e f0ec 9b3e
000003a0: fe8a 8a3e bc78 423f a649 d53e b3c1 1a3f
000003b0: ad9f 223f 9b30 21bf b01e 9abe b36d afbe
000003c0: 9a3d 9a3e dff7 223f 2d7e 9d3e 54e3 233f
000003d0: 1a82 fabe 8279 b2be 2bfc bb3e de81 033f
000003e0: 7521 b93e e794 c73e c8f6 633e d321 06bf
000003f0: 70ec d63e 70ec f73e 3abc 00bf beee fd3e
-0.3694749 0.5285276 0.21112114 0.7754351 0.78792745 -0.70750654 -0.6114481 -0.6023011
0.3569373 0.65097713 -0.39240664 0.35977787 0.6971431 -0.4107784 -0.2892274 0.43876904
-0.2108655 0.57338494 0.35663772 -0.16187789 -0.6908577 0.3393444 -0.5839069 0.09232571
0.3919759 -0.63905567 0.3143178 0.50802594 -0.4262384 0.34306672 -0.06661006 -0.584643
-0.43143827 0.7384422 0.086278245 0.44257274 -0.14665386 -0.48065224 -0.42425677 -0.34883264
0.54006886 0.6602876 -0.7041821 0.59388965 -0.5985991 0.27824423 0.4548331 0.40118244
0.05577794 -0.5401677 -0.5244173 0.77192163 -0.69020766 0.47220513 0.43446672 0.56385374
-0.6015913 0.59081787 -0.51219374 -0.58814657 0.004138278 0.39411804 -0.5532032 0.46266323
0.14770107 0.3502295 0.37856603 0.552207 0.6530417 -0.6753073 -0.36623007 -0.41489512
0.3304654 0.26885107 -0.09734287 0.3899722 0.559028 0.032319225 -0.6318733 0.3866621
-0.63068885 0.5568371 0.6914319 -0.15623772 -0.7215067 0.0763682 -0.7013109 0.44247958
0.7365475 -0.7454664 0.31095523 0.6349208 -0.77976876 0.631101 -0.5768511 -0.35814264
-0.45301533 0.31400737 -0.06397631 0.24627326 -0.34277725 -0.5384386 -0.56023115 -0.76737964
0.70207614 0.39743137 -0.5797559 0.62733483 -0.09966029 0.39178815 -0.38338524 0.70229334
0.2586527 -0.24166946 -0.34498528 0.6569497 -0.41434756 0.27433246 0.55557257 0.4111378
-0.69858104 0.5863541 -0.4166079 -0.76057994 0.0009314995 0.4713604 -0.6362622 0.69247365
-0.03404458 -0.36368555 -0.18142562 -0.6616771 -0.73851323 0.6388938 0.40769637 0.5347679
-0.16696219 -0.35785484 0.65167534 -0.7130866 -0.6745359 0.2802027 0.4394588 -0.4289334
-0.15794529 -0.52753156 -0.333166 -0.07022452 0.63306886 -0.6427694 0.44024366 -0.48380995
-0.5875821 0.46152037 0.23232323 -0.37869233 0.34111878 -0.25318936 0.015438275 0.5789641
0.56003636 -0.37763482 0.121402666 -0.39768076 -0.12542759 0.60972136 0.34189728 0.4053529
-0.44195944 -0.45141762 0.52005166 -0.65096074 0.33414823 -0.4750145 -0.43750003 -0.6578594
0.40467775 0.5232533 0.64175963 -0.4384908 0.59916115 -0.5474925 -0.46540856 -0.67416245
0.5771997 -0.47966957 0.38684765 0.60414106 -0.45751897 -0.4304562 0.673178 -0.4204076
0.46528155 -0.33481896 0.5087976 0.63676983 0.33108777 -0.58492845 -0.45993993 0.2965145
-0.06401453 -0.52380675 0.37944958 0.37160194 0.35956338 0.44114232 -0.57022303 -0.22098333
-0.3520124 0.4498071 0.44736987 0.3961472 -0.73908526 -0.57714015 -0.7053273 0.66680044
0.5339948 0.09788868 0.6508143 0.62064487 -0.45403653 0.7320838 -0.60586864 -0.33607548
-0.33948356 -0.5313895 -0.5373044 -0.34600717 -0.46162826 0.29568776 0.3283374 0.30454206
0.27059168 0.75965476 0.41657752 0.6045181 0.63524896 -0.6296479 -0.30101538 -0.3426338
0.30125123 0.6365947 0.30760327 0.6401875 -0.48927385 -0.34858328 0.36715826 0.51370037
0.36158338 0.3898079 0.22262108 -0.5239536 0.41977262 0.48422575 -0.5028721 0.49596208

bias f4 [64]
00000000: 3b19 f3be 7aff 24bf efe2 0a3f 24d5 1c3e
00000010: 62d2 0ebd 1d3b 5ebe 0c1d ac3e ac62 143f
00000020: feab 08bf 1868 acbe 7976 ebbe e8f3 99bd
00000030: 4632 febe 2778 b53e 6d46 4abe 441c 683e
00000040: 6744 fdbe cd60 fa3e 43e1 c63e b184 153f
00000050: 11dc 0a3f 7110 98bd 29f6 00be e87d 12bf
00000060: 94b3 28be 1767 92be fc59 bebd 2639 8cbe
00000070: c29e 393e ec9b bfbe 16cb 293e 7f89 043f
00000080: eded bfbe f2c9 1cbe 4ae7 dd3e 7327 6a3e
00000090: 101b ce3e afbf 883e f7f5 a0be 2e1e 1cbf
000000a0: 1ac9 4abe 9abf bfbe a255 b9be dc4e 003f
000000b0: e86a a53e e36f 76be c9e5 c43c 64d5 5dbe
000000c0: c7c8 07be aa25 0abe b2eb e53d 8747 d2be
000000d0: 9da2 af3e 21ca 66be e7a6 7e3c 67fc f0be
000000e0: afdd d23b c8dd 87be c3f7 4f3e 9116 ac3d
000000f0: ddbf 5a3e 5b6f dcbd eb4b 4bbd fb4e 113e
-0.47480187 -0.64452326 0.54252523 0.15315682 -0.034868605 -0.21702237 0.3361591 0.5796306
-0.5338744 -0.33673167 -0.45988825 -0.075172246 -0.4964773 0.3544323 -0.19753428 0.22667032
-0.4946625 0.48901978 0.38843736 0.58405596 0.54242045 -0.07425011 -0.12593903 -0.5722337
-0.16474754 -0.28594276 -0.09294507 -0.2738735 0.18126968 -0.37423646 0.16581377 0.517723
-0.3748621 -0.15311411 0.43340522 0.22866611 0.40255022 0.26708743 -0.31437656 -0.6098355
-0.19803277 -0.37450868 -0.36198145 0.5012033 0.32308125 -0.24066119 0.024035351 -0.21663433
-0.13260184 -0.1349093 0.11226596 -0.41070196 0.34303752 -0.22538044 0.015542722 -0.47067568
0.006435118 -0.26536393 0.20309357 0.08402742 0.21362253 -0.10763427 -0.049632948 0.14190285

weight f4 [2, 64]
00000000: 65b1 c73e a69d 5f3e 13d9 a9be 886e 253f
00000010: af69 ec3e 575b 5f3d 5e2d 673f 1688 c13e
00000020: 2ff4 07bf 2eb0 0ebf 6285 96be 2d35 14bf
00000030: 88b7 a13d 1de9 1fbf ef9c 3bbf a888 303f
00000040: c740 17be cdbb f6be 83b3 073f 517d 36bd
00000050: 56b2 763d 91e7 18bf c7e1 05be a8ce 483e
00000060: edef 41bf 7deb 03bf 4fee e2be aa7b d3be
00000070: bc16 c6be 9477 94be 451c f73e ac91 65be
00000080: 432d 9bbe e5b8 a2bd dc19 e8ba a734 0cbf
00000090: 7a73 a13e bdcc 0d3f 55b6 49bf 9d86 603e
000000a0: 5b71 8dbe cd04 263e 3880 bcbe 053a ecbe
000000b0: a4cd e73e b9ab 313f ef73 413f edec 18bf
000000c0: 8087 39bf 37d3 273f ec32 3c3f 1044 1e3e
000000d0: 517c 18be 8d3e ecbe 415d 47bf f46b cebe
000000e0: bcda 3e3f 5f61 a63e 4514 24bf 3124 07bf
000000f0: 1ed1 26bf 9bba 4a3d b1c2 26bf f202 9c3e
00000100: a2c3 66bf 41d1 4dbf 73ce 2b3f 8470 10bf
00000110: 202d 2bbf 9cdc 49be 3d5f 81be b52a 0d3f
00000120: 7f4c 9c3d c3eb 0f3f 1337 f83d d8b7 e13e
00000130: 1194 3ebf cf20 c43e d98f bf3e c867 393d
00000140: d868 603d 0a82 253f ca61 8c3d 1a04 ac3e
00000150: d243 373f 32bb 0f3f c04f 653e 2b7e 4bbf
00000160: 22bd b83e 65e1 85be 7ccf 74be 6e49 e73c
00000170: 4840 11bb cf7a 2fbd 2546 19bf 0927 233f
00000180: dd36 a5be 5ea1 323f fb93 003f d79c 363e
00000190: 6363 ab3c 2692 13bf 0d47 1ebe 1a18 21bf
000001a0: 6038 b4be 44b7 06bf 2aef bdbe 8797 0c3c
000001b0: 3627 bfbe 5f44 cb3d f422 533d 7d65 06bf
000001c0: 5471 cd3e e50b 983e 2fe2 463e 2643 07bf
000001d0: c43c 843e fbf5 973e 61d7 423d 8586 1c3e
000001e0: 60df 98bd 6fb6 ebbe e01f 71be 6359 08bf
000001f0: 754d 483d 2725 b9be cb3d 91be 15f6 413e
0.3900253 0.21837482 -0.33173427 0.6462178 0.4617438 0.054530468 0.903036 0.37799138
-0.5310697 -0.5573758 -0.29398638 -0.5789364 0.07896334 -0.6246508 -0.73286337 0.6895852
-0.14770804 -0.48190156 0.5300829 -0.044553105 0.06022867 -0.5972834 -0.13074408 0.19610083
-0.7575672 -0.515312 -0.4432244 -0.41305286 -0.3868922 -0.2899748 0.48263755 -0.2241885
-0.3030797 -0.07945422 -0.0017707902 -0.5476784 0.31533414 0.5539053 -0.7879384 0.21926351
-0.27625546 0.16212769 -0.36816573 -0.46138015 0.4527408 0.6940265 0.75567526 -0.5973652
-0.7247238 0.65556663 0.735152 0.15455651 -0.14891173 -0.46141472 -0.7787667 -0.40316737
0.7455251 0.32496163 -0.6409343 -0.527896 -0.6516284 0.049494367 -0.65140826 0.30470997
-0.9014226 -0.8039742 0.6711189 -0.56421685 -0.6686573 -0.19713062 -0.25267974 0.5514329
0.07631778 0.5621912 0.121198796 0.44085574 -0.7444468 0.3830628 0.37414435 0.04526499
0.054787487 0.6465155 0.06854589 0.3359688 0.7158786 0.5614501 0.22393703 -0.7948939
0.36081797 -0.26148525 -0.23907274 0.028233256 -0.0022163559 -0.04284173 -0.5987266 0.6373144
-0.3226842 0.69777477 0.502258 0.17833267 0.020921415 -0.5764488 -0.15456791 -0.629274
-0.3519926 -0.5262339 -0.3709653 0.008581049 -0.37334603 0.0992515 0.051547006 -0.5249861
0.40125525 0.29696575 0.1942222 -0.52836835 0.2582761 0.29679856 0.047568683 0.1528569
-0.074644804 -0.46037623 -0.23547316 -0.53261393 0.048901994 -0.36161157 -0.28367457 0.18941529

bias f4 [2]
00000000: fcbe 083e 8af6 eb3e
0.13354105 0.46086532

exp_avg f4 [64, 4]
00000000: 2e45 b7bc f99a 92bd aef9 f23c d2d4 253e
00000010: 11b5 813c dd26 833d ab60 71bc 6fd0 e9bd
00000020: cfa9 cbbc 66d9 9fbd 417b 183d 481d 453e
00000030: 8170 e6bc 7158 dfbd 52b8 433d 8727 873e
00000040: bdec 8bbb 2b9c 12bc 25b7 953c 7eb3 863d
00000050: 8477 b83b 6ac3 a03c 9fb5 acbc c500 b3bd
00000060: eb1f 853c a891 873d c3b6 13bd 384c 3ebe
00000070: 96cc 12bc 166d b9bc 3eb2 403b 17b2 eb3c
00000080: 73d5 44bc edc2 1cbd aa6c c73c 03ce ed3d
00000090: ff03 a13c 5bc1 ae3d 08c7 b1bc 42cc 24be
000000a0: 5c06 60bc da49 ebbc 0813 833c 559b 933d
000000b0: aae8 c6bb 88b8 0abb d544 8a3c 99fa 493d
000000c0: 93ad 97bc 2460 71bd 79ca 083d ba0f 273e
000000d0: 2c6b 85bc 21ac 43bd 35a7 933c 8c59 d03d
000000e0: 0cc0 f53c a0d5 fb3d ac48 4cbd 8c6b 93be
000000f0: 118d 243c a475 303d a092 fbbb 6ced 91bd
00000100: 6fbe 953c 5b39 733d 60b8 c5bc 2c32 09be
00000110: 6172 96bc 53c2 78bd f1e8 fb3c 7cba 213e
00000120: e71c 5fbb 328f 57bc 80e9 963c b73c 953d
00000130: 2bc4 b9bc 1b13 91bd cfc1 ff3c 63e6 293e
00000140: 2348 ce3c b8b8 c93d 41d6 44bd 5b1f 83be
00000150: bd4a 0e3d 0754 1c3e 39a6 46bd 1b2c a2be
00000160: 68ad 193c 3307 a53c de5c d4bc 116b ccbd
00000170: c218 e4bc 9698 bebd d948 2e3d 4ade 663e
00000180: ed2c a6bc a467 a4bd 0d3a 263d 4fdd 5a3e
00000190: 94cf 79bb 7082 01bc e837 e3bb 5e73 8abc
000001a0: f32a 71bc 8f8f 6fbd e753 a03c a0c6 fc3d
000001b0: 1295 f4bc b09f e2bd 9087 483d 5746 893e
000001c0: 522a 093c 3de8 1e3d 7c6d d5bc 56f8 00be
000001d0: 46e0 02bd 3295 febd 1d57 4e3d cf76 933e
000001e0: 330e 8c3c 653a 9c3d 8fa5 bfbc 95a8 20be
000001f0: e1cb beba d5e4 22bd df04 afbb c253 153d
00000200: cefd 8e3c fac8 4d3d fc97 f8bc b72c 12be
00000210: 299a 5e3c 9ff1 ee3b 03fc 3ebc 881c e9bc
00000220: bd86 953c f305 803d d32e e5bc d711 19be
00000230: 8167 943c 2e8f 933d a529 acbc 09d9 11be
00000240: 7d87 ab3b 3acf 1b3d fa5c acbb 6120 81bd
00000250: 87b2 68bc a21d 6dbd 3917 0d3c dc72 b33d
00000260: cef2 dfbb cd10 18bd 2342 363a b88e 373d
00000270: de41 ccbb e349 6cbc c8a5 04bb 85e7 8e3b
00000280: 093c 71bb 2e8d babc fb33 a43c 3f68 ba3d
00000290: 5a45 c3bc 169c b2bd 2248 333d df16 6a3e
000002a0: 8912 62bc 15a7 54bd 3572 453c e8a7 bd3d
000002b0: e3dc e8bc c862 d7bd 8001 3d3d eaa7 813e
000002c0: 7153 bbbc c472 b7bd 6872 ec3c 7bcf 3d3e
000002d0: f6ca 883c dcfc 803d e728 90bc a57b f8bd
000002e0: f168 413c a124 0e3d 7d04 4fbc 075f 96bd
000002f0: dad5 fe3b 733b cc3c cf02 38bb a991 07bd
00000300: 9b09 c6bb cbfb 37bc 6d68 213b 27d6 7a3c
00000310: 34ae 80bc e0dc 43bd a1b4 803c 1be8 c43d
00000320: 6546 53bc 0fc1 14bd 12d3 2f3c 6a1b 893d
00000330: 5788 5dbc cb78 3abd 0575 0c3d fa2b 1f3e
00000340: 7af5 063c 4a78 e63c 6c85 ccbc 0ab1 ddbd
00000350: 633d 8d3c 8464 943d dff6 9cbc 83db 0dbe
00000360: 5b2d 84bc e5db 3fbd 4201 ec3c 5738 0a3e
00000370: d7f2 fbbb 4b6d 1bbc 6170 b53c 30b9 983d
00000380: 76c1 443b 8e3a 1a3d 46ab 8abc 2bcc cebd
00000390: 50a7 c0bc 1cec 8fbd 04fa 1c3d 63cc 3f3e
000003a0: fb30 93bc ed40 82bd 86c5 ac3c 7e55 043e
000003b0: 4d7e 493c a28b 4a3d 905e 00bd d7bc 1cbe
000003c0: 0dac b4bc e7e8 8dbd 4cf7 fe3c 92eb 263e
000003d0: 79f1 debc 4786 e3bd 4e67 3f3d da79 883e
000003e0: 965c a83b 41b7 8f3c 29f3 a8bc 9b4b acbd
000003f0: 9a02 42bc 246e 21bd 5d13 fb3c 7e8b 0d3e
-0.022371855 -0.07158465 0.029660072 0.16194466 0.01583341 0.06403897 -0.01473252 -0.11416709
-0.024861244 -0.07805137 0.03722692 0.19249451 -0.028129818 -0.10905541 0.047783203 0.26397344
-0.0042701648 -0.008948366 0.018275807 0.06577204 0.0056294817 0.01962443 -0.021082697 -0.08740381
0.016250571 0.066195786 -0.036062967 -0.18583763 -0.00895991 -0.022635024 0.0029403116 0.028771443
-0.012013781 -0.038271833 0.024343807 0.11611559 0.019655226 0.085329734 -0.02170135 -0.16093543
-0.013673391 -0.028721739 0.016000286 0.072073616 -0.006070216 -0.0021167118 0.016878525 0.049311254
-0.018515384 -0.058929577 0.033396218 0.16314593 -0.016286455 -0.047771577 0.018024066 0.1017333
0.029998802 0.12296605 -0.049873993 -0.2879299 0.0100433985 0.04308094 -0.007677391 -0.07125363
0.018279282 0.05938087 -0.024135768 -0.13398045 -0.018365087 -0.060732197 0.030750724 0.15793794
-0.0034044327 -0.013156699 0.018421888 0.07286971 -0.022676548 -0.07083722 0.031220345 0.16591792
0.025180882 0.098496854 -0.04805589 -0.2560986 0.034739245 0.15266429 -0.048498366 -0.31674275
0.009379722 0.020145034 -0.025923189 -0.09981359 -0.027843837 -0.09306447 0.04254994 0.22545734
-0.020285094 -0.080275804 0.040582705 0.21373485 -0.003811811 -0.007904634 -0.006934155 -0.016900714
-0.014719713 -0.058486518 0.019571258 0.12342572 -0.029856239 -0.11065614 0.048957407 0.26811478
0.008371906 0.0387957 -0.026053183 -0.12594733 -0.031952165 -0.124308005 0.050376046 0.2880158
0.017096614 0.076283254 -0.023394374 -0.15689309 -0.001455661 -0.039769012 -0.005341157 0.03645683
0.017455008 0.050240494 -0.03034591 -0.1427487 0.013586559 0.007291987 -0.011656764 -0.028455988
0.018252725 0.06251135 -0.02797643 -0.14948212 0.01811576 0.07205044 -0.021015951 -0.14242949
0.0052346573 0.038039424 -0.005260107 -0.06305004 -0.0142027205 -0.05788959 0.008611494 0.08762142
-0.0068343645 -0.037125397 0.0006952604 0.04481384 -0.006233438 -0.014421913 -0.0020240415 0.0043610954
-0.0036809465 -0.022772398 0.020044317 0.091019146 -0.02383678 -0.08721177 0.043769963 0.22860287
-0.013798364 -0.051917154 0.012051155 0.09260541 -0.02842564 -0.10516888 0.04614401 0.2532342
-0.022866936 -0.08957437 0.028863147 0.18536179 0.016698342 0.06298229 -0.017597629 -0.12132958
0.011804805 0.0347029 -0.012635347 -0.07342344 0.007776958 0.024930691 -0.0028077846 -0.033097897
-0.0060436255 -0.011229466 0.0024628893 0.015309847 -0.015708067 -0.047818065 0.01571113 0.09614583
-0.012895201 -0.036316928 0.010731475 0.06694682 -0.0135212755 -0.045525353 0.034291286 0.1554412
0.008237237 0.02813353 -0.024965964 -0.10824783 0.017241186 0.07245734 -0.019160686 -0.13853268
-0.016134908 -0.046840567 0.028809194 0.13498054 -0.007688861 -0.009486507 0.022148313 0.07457197
0.0030022538 0.0376535 -0.016927373 -0.10097536 -0.02351728 -0.07027456 0.03832437 0.18730311
-0.017967692 -0.0636004 0.02109028 0.12923238 0.012298179 0.04944957 -0.03134018 -0.15306412
-0.022054696 -0.06929188 0.03112378 0.163008 -0.027214753 -0.11109596 0.04672938 0.26655465
0.00513799 0.017543437 -0.02062376 -0.08412858 -0.011841441 -0.03941168 0.030648882 0.13822743

exp_avg_sq f4 [64, 4]
00000000: 0aaa cb37 a6ea aa39 f723 2438 1f5d b83a
00000010: df76 3b37 cde0 8539 b204 1d37 e269 3b3a
00000020: 8618 0038 c242 dc39 6fc8 7438 a93d 023b
00000030: 5063 3138 e9c8 663a 24bd d638 ebd9 843b
00000040: 86b8 aa35 d5f5 0138 e037 4c37 5e81 8d39
00000050: 512e 1c36 409a 8938 2b98 9337 9196 fc39
00000060: 0cf4 7737 5482 d339 9a24 6e38 d45e 0c3b
00000070: 5f61 4736 56ed 0938 838d 1835 365d 8438
00000080: 40ec 0137 200d 1639 7c26 ef37 aea0 673a
00000090: 991c 9337 ecf1 f439 5beb b737 249d c33a
000000a0: be87 0a37 1ccb 8638 b275 2e37 9def 9539
000000b0: df2b 1f36 12ae c436 6c13 3537 fae8 0339
000000c0: 798a 9337 cb82 8d39 589a 3838 9eca b93a
000000d0: fc0a 4437 787c 1a39 30ee 4737 7d0f 063a
000000e0: d6d3 4538 5601 913a 357e f838 3d36 a43b
000000f0: 7ab7 8636 e755 f038 b712 1e36 ebd4 9139
00000100: a8f8 8337 81cf 7a39 b04d b837 5ac9 6f3a
00000110: 450d 9237 3c3d 9539 efec 1b38 6c9f b03a
00000120: 38d3 a835 92b7 5a38 bbbe 6437 b767 c539
00000130: d1c3 d037 9c8b aa39 8322 3338 a1c7 c03a
00000140: 5345 1338 18e1 4d3a 196f e238 5928 843b
00000150: a286 8338 a6bd cc3a 6b5e 0139 df06 c93b
00000160: 0b8d a736 9178 8638 bb63 db37 9abd 163a
00000170: 0214 2638 5985 193a c6ac a638 8245 353b
00000180: d7e7 bf37 abaf 0d3a 6fc2 9c38 9843 373b
00000190: d615 fd34 93aa 8937 95b0 2b36 5016 9f38
000001a0: f11e 2937 e6f0 8039 7113 7037 5bae 5a3a
000001b0: 551d 4138 01f0 653a a0ec e538 a550 883b
000001c0: 7c31 b136 1d94 4d39 51fc 0438 ba02 953a
000001d0: ec50 5e38 191e 8c3a 0859 f838 3b3f 9d3b
000001e0: dc2e 7037 81ab db39 79a0 bc37 d77a ba3a
000001f0: ee81 8934 be90 db38 484e aa35 ee08 3039
00000200: 06b2 8237 a545 4939 7607 1538 1d8e 883a
00000210: 36f0 0837 e39d 8c38 cc6f ce36 241b 6139
00000220: b79b 9237 69cc 8439 5548 1738 e734 a03a
00000230: 8e04 7737 ffdc b239 7415 9a37 b1ca 923a
00000240: a94f 9435 dc01 f538 6b87 8a35 8233 8c39
00000250: fd9b 1337 29e7 4439 f17f 8b36 8b33 e239
00000260: df81 e335 3bbf 9638 c184 9334 636b 0239
00000270: 551a bc35 a5b5 ba37 ac87 2735 c716 5438
00000280: 1a2b d735 cbfb db38 e63f 9937 71a1 293a
00000290: 5bd5 fb37 d336 1a3a 1d1c b238 0b1d 473b
000002a0: 432d 0537 ff80 3039 95c6 ca36 2d47 f539
000002b0: 1d97 2e38 61bc 4c3a 9d68 c538 24d3 6c3b
000002c0: 14a8 cf37 78ef 0b3a 1d52 2238 08f7 013b
000002d0: 6485 4f37 ff95 8539 8668 5837 8add 513a
000002e0: 1faf c736 a2b8 ae38 2252 ac36 bac8 8839
000002f0: 6495 1736 1c20 1438 f533 c934 3b36 7e38
00000300: ff66 c135 ef58 6937 5940 1c35 ffec d637
00000310: 6df3 3237 647e 1839 90c1 1d37 728c f539
00000320: 9ee5 ed36 66f3 a238 7f32 a036 2599 7039
00000330: ff4b 3437 ec10 7239 fe22 5238 edcd c43a
00000340: bb51 9936 de24 e938 2218 db37 4732 463a
00000350: b8e6 6037 ba50 b539 c01f 9237 176e 943a
00000360: dec9 5837 cf00 3739 2c56 0338 7e52 773a
00000370: 3057 6a36 33a7 c637 5981 9e37 e120 a239
00000380: 324a ff35 86f1 3f39 27d7 9337 56f2 693a
00000390: 8575 e837 c1b7 b839 67a5 7938 52fd ef3a
000003a0: 7927 8537 97eb 6c39 ca9b d637 03a0 7a3a
000003b0: fa3f 1937 06d5 8d39 013d 3938 f255 cc3a
000003c0: aaa7 cd37 d198 a339 667e 2e38 254f b73a
000003d0: 9a79 2138 6816 763a 0037 d738 043e 8e3b
000003e0: 218f 0936 b7e7 9038 db4a 8e37 2aad fc39
000003f0: c09d 0937 3db0 4539 aa29 2b38 730c a23a
2.4278666e-05 0.00032599753 3.9134142e-05 0.0014065838 1.1173745e-05 0.00025535226 9.359022e-06 0.00071492617
3.0540417e-05 0.00042011408 5.83608e-05 0.0019873178 4.229258e-05 0.00088037417 0.000102395454 0.004054298
1.271969e-06 3.0984946e-05 1.2172357e-05 0.00026990002 2.3272771e-06 6.5614004e-05 1.7594624e-05 0.00048177366
1.4779169e-05 0.00040342158 5.677771e-05 0.0021418827 2.9709988e-06 3.288438e-05 5.683034e-07 6.3116124e-05
7.744005e-06 0.00014310004 2.850894e-05 0.0008835894 1.7537082e-05 0.00046719552 2.1924896e-05 0.0014924151
8.257046e-06 6.42745e-05 1.0398611e-05 0.0002859802 2.3718383e-06 5.8615196e-06 1.0792963e-05 0.00012579924
1.7588247e-05 0.00026991064 4.4012762e-05 0.0014174765 1.1685068e-05 0.00014732953 1.1916782e-05 0.0005114002
4.7165748e-05 0.001106302 0.000118490694 0.0050113485 4.0148707e-06 0.00011460092 2.3554728e-06 0.0002781519
1.5732207e-05 0.00023919159 2.1970685e-05 0.000914713 1.7410735e-05 0.00028465118 3.717554e-05 0.0013475246
1.2578448e-06 5.2146213e-05 1.3634267e-05 0.00037652042 2.4886716e-05 0.00032528944 4.2709067e-05 0.0014707932
3.5112094e-05 0.0007853671 0.00010797213 0.00403313 6.271644e-05 0.0015620484 0.00012337572 0.0061348523
4.9934074e-06 6.412075e-05 2.6153275e-05 0.0005750299 3.9596118e-05 0.0005856357 7.9476784e-05 0.0027659838
2.2876933e-05 0.00054049 7.474876e-05 0.0027963873 4.714081e-07 1.6411102e-05 2.558377e-06 7.585867e-05
1.0080389e-05 0.00024593546 1.4309641e-05 0.0008342021 4.6042103e-05 0.000877142 0.00010963646 0.004160004
5.280772e-06 0.000196055 3.170624e-05 0.001136861 5.300429e-05 0.0010690122 0.00011842145 0.0047987974
1.4316025e-05 0.00041898715 2.2486072e-05 0.0014227283 2.5612775e-07 0.00010469694 1.268877e-06 0.00016787995
1.5580106e-05 0.00019194798 3.5531317e-05 0.001041833 8.16216e-06 6.705129e-05 6.1522933e-06 0.00021467783
1.7477067e-05 0.000253293 3.606857e-05 0.0012222797 1.4723408e-05 0.0003411546 1.836822e-05 0.0011199323
1.1050043e-06 0.00011682857 1.0321213e-06 0.00026741257 8.798202e-06 0.0001877813 4.157417e-06 0.00043144482
1.6950615e-06 7.188177e-05 2.7477475e-07 0.00012437771 1.4014755e-06 2.2257513e-05 6.2409777e-07 5.0565952e-05
1.6031292e-06 0.00010489634 1.8268776e-05 0.0006470895 3.0020883e-05 0.0005882803 8.492938e-05 0.0030382301
7.937956e-06 0.00016832723 6.043187e-06 0.00046783072 4.1625568e-05 0.0007810053 9.413178e-05 0.0036136592
2.475459e-05 0.0005338113 3.8700284e-05 0.001983108 1.2369219e-05 0.00025479493 1.28989395e-05 0.0008005729
5.951049e-06 8.331357e-05 5.135561e-06 0.00026089494 2.258771e-06 3.5315854e-05 3.747697e-07 6.0608825e-05
1.4409596e-06 1.3908589e-05 5.8208167e-07 2.5621148e-05 1.0666304e-05 0.00014542934 9.4029965e-06 0.0004683468
7.0898814e-06 7.7700985e-05 4.77425e-06 0.00022945234 1.074653e-05 0.00023085222 5.010049e-05 0.0015014984
4.56927e-06 0.00011117173 2.6118072e-05 0.00075605925 1.3405159e-05 0.00034583156 1.7419341e-05 0.0011324313
1.2921604e-05 0.00017452541 3.1313088e-05 0.00094345945 3.4919467e-06 2.3681298e-05 1.88953e-05 0.00030923545
1.9020574e-06 0.00018305154 1.7623954e-05 0.00089243555 2.771128e-05 0.00035232122 5.952027e-05 0.0018309748
1.5873216e-05 0.00022594478 2.5583333e-05 0.0009560587 9.134406e-06 0.0002705233 4.416425e-05 0.0015589579
2.4515979e-05 0.0003120364 4.160255e-05 0.0013985379 3.849864e-05 0.0009387494 0.000102622434 0.004340889
2.0497903e-06 6.909615e-05 1.6962576e-05 0.00048194203 8.202565e-06 0.00018853038 4.080838e-05 0.0012363329

exp_avg f4 [64]
00000000: b77e 893e 2ce9 53be 1bfb a63e 3db4 983e
00000010: 2fe8 a13d 4ec8 7fbd 67ca 55be 2f40 523e
00000020: bdee af3d 5593 92be 5cb3 623e 3bbf 033d
00000030: 9ed6 873e 4da6 923e f17b 9ebe 2c54 43be
00000040: eeef acbe 1f59 ac3e 5086 deba 5fea 853e
00000050: a743 4bbe e5be 9fbe 0f32 cebd fa18 9c3e
00000060: 86d7 423e 6940 ee3d 6c3a 963e a0d3 a53e
00000070: c9ea 313c 294f a63e 7b33 96be 059e ddbc
00000080: 582b 8cbe 64f5 38be f82e 39be 8109 a7be
00000090: bba5 1dbe d1d4 0d3e 39f7 c33d 05f9 0e3e
000000a0: a4cc 78bc 489a 7d3e 0aab 5e3e 55b7 af3e
000000b0: 0b30 943e b615 7fbe ba15 84be 20e6 28be
000000c0: af3d 273e e445 753e 6351 443e 3847 0d3e
000000d0: 811c 5dbd aa34 6bbe 9c15 833e e380 a33d
000000e0: cc78 dc3d 2cf7 a33e 09f0 0c3e 17b7 d1bd
000000f0: 3539 883e 3f26 983e 6d69 63bd 4f13 f13d
0.26854488 -0.20694417 0.32613453 0.2982501 0.07905614 -0.062446885 -0.20877992 0.20532297
0.085904576 -0.2862803 0.22138733 0.032164793 0.26530927 0.28642502 -0.30953935 -0.19075078
-0.33776802 0.33661744 -0.0016977284 0.26155373 -0.19850026 -0.31200328 -0.10068142 0.30487806
0.19027528 0.11633379 0.29341447 0.3238802 0.0108592 0.3248227 -0.2933615 -0.027052889
-0.2737682 -0.18062359 -0.18084323 -0.32624438 -0.15395252 0.13850714 0.09568638 0.13962181
-0.015185509 0.24765885 0.21744934 0.3431956 0.28942904 -0.24910626 -0.25797826 -0.16494036
0.16332124 0.23952442 0.19171672 0.13796699 -0.05398226 -0.22969308 0.25602424 0.079835676
0.10765228 0.32024515 0.13763441 -0.1024 0.26606146 0.2971668 -0.055520464 0.11771261

exp_avg_sq f4 [64]
00000000: 7746 4a3b c53e f13a 0cee 903b a31b 803b
00000010: b92c a839 5c03 9939 d17c f43a e2b4 0a3b
00000020: 8e5e 203a 7503 6d3b c88a 0a3b 501c c639
00000030: db72 423b b8b5 683b 1dac 873b 4ee7 e33a
00000040: 0f20 a53b 2445 9d3b b943 8f39 fe50 403b
00000050: a54d 0f3b e921 8b3b 5fad 413a 747d 863b
00000060: fa08 eb3a de0e 683a 1351 803b b41d 953b
00000070: 9d95 253a b4cc 973b 88b9 7b3b 0ff7 2939
00000080: 5c66 4f3b 33a0 bf3a 65dc d23a 5a03 9e3b
00000090: cd16 b33a 0983 593a dc2d 033a 5d77 8c3a
000000a0: 9d34 ab39 36a1 383b 5c43 093b 9d93 a43b
000000b0: fe07 663b 230b 2f3b 6c17 463b 0594 b43a
000000c0: a0cf a73a d664 1e3b 7b04 d53a 2490 8e3a
000000d0: d647 e039 ee79 143b ecbe 323b 78c8 0a3a
000000e0: f82c 843a b3f5 8e3b d9d0 853a 04f3 363a
000000f0: 3663 4c3b ae5d 763b 6fcd 8939 6119 6b3a
0.0030864754 0.0018405548 0.0044229086 0.0039095446 0.00032076778 0.00029184937 0.0018652921 0.0021164943
0.00061176054 0.003616539 0.002113985 0.00037786597 0.002967051 0.0035508703 0.0041403905 0.001738766
0.005039222 0.004799502 0.00027325543 0.002934515 0.0021866348 0.0042459858 0.00073882 0.0041043106
0.0017931752 0.0008852313 0.003915915 0.00455066 0.00063165446 0.004632557 0.0038410146 0.00016209132
0.0031646704 0.0014619887 0.0016087411 0.004822177 0.0013663411 0.0008297419 0.0005004087 0.0010716725
0.00032654862 0.002817226 0.002094469 0.0050224797 0.0035099979 0.002670952 0.0030226363 0.0013777023
0.0012802966 0.002416899 0.0016251946 0.0010876697 0.0004277813 0.0022655684 0.0027274443 0.00052941544
0.0010084203 0.0043627857 0.0010209336 0.0006978961 0.0031187064 0.0037592459 0.00026283736 0.00089683203

exp_avg f4 [64, 64]
00000000: 1fa6 b13b 381e 93bb 5783 7f3a 73e2 37bc
00000010: 0549 c3bc 987d 0f3d 4798 b13b d659 6f3c
00000020: a0af ce39 207e 67bc b717 6e3c 18c0 1abc
00000030: adad 14bc 368c 2a3b 7a91 833a 1d51 4bbc
00000040: efb5 843b 933e fdbb 5f7a 19bd 6368 ec3b
00000050: b2db ab3c 676e 5fbc a2df 9c3c cb81 173b
00000060: a50f eebb e4ec be3c d1f1 acbb 329b f7ba
00000070: 7ad0 0c3d 68f5 1bba 5af0 8d3b b21d 313c
00000080: 0fa4 563b 68cf 4abc c61d e8ba 6cee 1ebc
00000090: f5c6 8f3b 851b 4b3c 22e9 af3c d852 333c
000000a0: 4b8f eabc 8788 21bc 83cf 653c 6b6d 03bb
000000b0: fcbc c43b a512 51bb d094 07b7 12d7 29bc
000000c0: c31f 70bb 8ba5 ac3b 14a4 b13b 31ef d6bc
000000d0: c863 c33c cc8f 5ebc 97fd 22bb 9d49 25bc
000000e0: 143b bc3c 4b91 88bb 2779 0f3c 334d 753c
000000f0: ca9f b13b 1c89 b237 c195 843c 7c74 69bb
00000100: 526b 0e3b 55e0 88ba 1039 14bb 1415 16bc
00000110: d25f 85bc 212d c23c e0f0 813b 8312 fa3b
00000120: 66f1 e739 dcfe bbbb 282b e43b 7fe1 bfbb
00000130: aeca ebbb 2a3e f4ba 26a9 953b 1e65 c6bb
00000140: 9f14 b13b f8fe bdbb 49c7 cfbc 0055 653b
00000150: 914a 873c a0a2 7ebb 6185 5d3c cc77 ccba
00000160: cfa4 b6bb db49 663c ec52 aabb e000 90bb
00000170: 6249 bd3c da47 86bb 702e 893b b2be ef3b
00000180: 5c8c 203b f1e1 ccbb b81e a8ba 3973 19bb
00000190: 1fb5 843b a47a d83b 2257 503c 7405 d73b
000001a0: 470d 99bc ac8f 05bc ba3b ba3b 63e8 71bb
000001b0: 568b fd3a 361f d2b9 718a 093b 5943 98bb
000001c0: 2bd2 69bb 7d75 653a 2477 0e3b b508 9abc
000001d0: ddfa 833c d47a b6bb b153 edba 5ac8 d0bb
000001e0: 3a1a 603c 3f64 85bb bc74 cb3b c556 2d3c
000001f0: f480 093b 33ca d8b9 30ad 333c 3fbb 38bb
00000200: 8cc3 4bbb 704f f93b ec31 74ba a6fd 293c
00000210: eb4d b83c 29ac 0abd 48f0 b1bb 091c 55bc
00000220: 7ae9 c838 7288 803c 6ec6 23bc d44c 433c
00000230: a84a 153c 457f aabb 05f2 d9ba d3cc 6b3c
00000240: 69a7 aeba 97cd b53b be2d 143d 9652 70bb
00000250: 0fe7 b1bc 04d2 2d3c d5b7 a9bc cfe4 fc39
00000260: 7b09 ed3b 1fae b1bc 5528 f53a 748c 1a3b
00000270: 248f 09bd b57d ef3a 2396 e3ba f934 63bc
00000280: fe1b b4bb 0ee6 093c 4d71 49b9 bb6f 2d3c
00000290: 1561 44ba 52c7 6cbc c65d c4bc 6047 20bc
000002a0: 6775 e13c 63c9 223c 2f49 7bbc 66a3 163b
000002b0: 9429 ccbb 574b a43b b190 103b 9a43 433c
000002c0: f949 8a3a 5ac1 dcbb dfb1 a1bb b9b2 da3c
000002d0: 95d2 bebc 2c96 783c 0a5f 203b f9bc 4f3c
000002e0: 31a1 b2bc 5192 eb3b ef01 b3bb 7849 7fbc
000002f0: 736c 46ba 122e 9139 da48 7dbc 57ac 3f3b
00000300: 97ae 06bc d730 3d3c cefc 78bc bbbc 4abc
00000310: 6b73 2ebc 9971 753c 37b3 963b f9d4 13bc
00000320: 7bf5 ef3a 5b81 893c c772 3ebc 2028 34bb
00000330: 5a4d 32bc 468a a9bc 2557 b03c 3bad 1d3c
00000340: 5983 a53c 1bd4 3dbc 489e 6dbc 9013 fcbb
00000350: e88e b03c 696a c93c db26 593c f2e9 90bc
00000360: ded8 b7bb 19e3 2cba 746e 70bc cdf5 89bc
00000370: 37b6 613c c63e aabc 9c46 533c 937d 893b
00000380: 46c8 e63b 567f d13b ba6e 413a 2124 b53c
00000390: 0b8d 243c 72ab acbb a766 e9ba 6cae 63bb
000003a0: 9928 05bc 356c 4bbc 561c 85bc 223a 5cbc
000003b0: 465d 3cbc ad95 4d3c 908b 6f3c 9ca5 143c
000003c0: de38 0cbc 1ce4 7ebc b8c9 25bc 0a98 90bc
000003d0: 9caa 253c 7f8c 7b3c c38f 69bb 3d4c 86bb
000003e0: 3d5e 1bba f86a 57bc 3daa 4f3b c5e5 0e3c
000003f0: d896 1bbc 1f61 63bb d948 c83b 18b0 79ba
0.0054214145 -0.0044896863 0.0009747049 -0.011223423 -0.02383853 0.035031885 0.005419764 0.014608821
0.00039422233 -0.014129192 0.014532021 -0.009445213 -0.009074611 0.0026023514 0.0010037862 -0.012409476
0.0040500085 -0.0077284067 -0.037470218 0.0072145923 0.020978782 -0.013637162 0.019149605 0.0023118134
-0.0072650486 0.023306318 -0.00527785 -0.0018890856 0.034378506 -0.0005949349 0.0043316307 0.010810303
0.0032751595 -0.012378551 -0.0017709068 -0.009700399 0.004387731 0.012396698 0.021473471 0.010945044
-0.02863278 -0.009859211 0.014026525 -0.0020054232 0.006003974 -0.0031901982 -8.081275e-06 -0.010366218
-0.0036640025 0.0052687577 0.005421171 -0.026237102 0.02385129 -0.0135840885 -0.002487039 -0.010088352
0.02297739 -0.004167711 0.008756912 0.014972019 0.0054206597 2.12831e-05 0.01618469 -0.0035622409
0.0021731448 -0.0010442833 -0.002261702 -0.009160299 -0.016281042 0.02370316 0.003965482 0.0076316013
0.0004423961 -0.0057371687 0.0069631524 -0.0058557387 -0.007195792 -0.0018634249 0.004567283 -0.0060545346
0.0054040696 -0.005798217 -0.025363581 0.003499329 0.016515048 -0.0038854256 0.01352057 -0.0015599667
-0.005573846 0.014055694 -0.0051978733 -0.0043946356 0.02310628 -0.004097921 0.004186444 0.007316434
0.0024497723 -0.0062525203 -0.0012826538 -0.0023414625 0.0040499116 0.006606417 0.012716087 0.0065619294
-0.018683089 -0.00815193 0.0056833895 -0.0036912195 0.0019343894 -0.00040077575 0.0020987059 -0.0046467003
-0.0035678248 0.0008753164 0.0021738494 -0.01880298 0.016110832 -0.0055688415 -0.0018106607 -0.00637154
0.013678128 -0.004070788 0.006208984 0.0105797695 0.0020981403 -0.0004134938 0.010966584 -0.002818778
-0.0031091897 0.0076083466 -0.00093153 0.010375416 0.022498092 -0.03385559 -0.005430255 -0.013007172
9.5802316e-05 0.015690062 -0.00999604 0.011920173 0.009112038 -0.00520316 -0.0016627914 0.014392096
-0.0013325039 0.00554819 0.036176436 -0.0036670319 -0.021716623 0.010609154 -0.02071754 0.0004823566
0.007233796 -0.021689473 0.0018704036 0.0023582252 -0.033583775 0.0018271717 -0.001736347 -0.01386761
-0.005496501 0.008416666 -0.00019211062 0.010585721 -0.0007491273 -0.014451819 -0.023970496 -0.009782642
0.027521802 0.00993571 -0.015337273 0.0022985577 -0.0062305424 0.005013864 0.00220589 0.011917973
0.001055061 -0.0067369165 -0.004934534 0.02669655 -0.023293773 0.0151725225 0.002447071 0.012679332
-0.021805378 0.007189073 -0.005462877 -0.015581481 -0.0007569261 0.0002769088 -0.015459264 0.002924701
-0.008220336 0.011547289 -0.015196992 -0.012374098 -0.010647635 0.014980697 0.004599001 -0.009022945
0.0018307412 0.016785314 -0.011624045 -0.0027489737 -0.0108827 -0.020695817 0.021525929 0.009623821
0.020204233 -0.011586214 -0.014503069 -0.0076927617 0.021552518 0.024586873 0.013253893 -0.017689679
-0.0056105694 -0.00065951195 -0.014674772 -0.01684084 0.013776354 -0.020781886 0.012895253 0.004195878
0.0070429174 0.0063933535 0.0007378865 0.022111954 0.010043393 -0.0052694613 -0.0017807082 -0.0034741415
-0.008127355 -0.012415935 -0.016248863 -0.013441594 -0.0114968475 0.0125478925 0.014620677 0.0090726875
-0.00855848 -0.015557315 -0.010118894 -0.017650623 0.010111477 0.015353321 -0.0035638667 -0.004098444
-0.00059268234 -0.013148062 0.0031687163 0.0087217735 -0.009496413 -0.003469534 0.0061121997 -0.0009524836

exp_avg_sq f4 [64, 64]
00000000: 195a ca35 c2c9 4836 af43 c934 7ce7 1a37
00000010: fa62 1c38 69bb a938 5ae0 3236 56cb 6437
00000020: 9fea af34 4eea 6837 2177 2f37 6bc6 0537
00000030: 6614 e236 4532 ce35 7ad3 8e35 b8c8 4537
00000040: 3e40 6135 7feb 4336 f800 c338 55e1 1d36
00000050: 9d40 0f38 5d1c 1737 b55b ed37 d703 7e35
00000060: 6381 a236 7dc4 0f38 bc1b af35 6501 bb35
00000070: c543 a638 643a a335 7846 7c35 fa32 3037
00000080: 796f a935 4265 f936 ff6f 8034 6fea da36
00000090: 7b04 8735 9eed 4337 85aa 0e38 2283 0e37
000000a0: 8b32 6238 36c3 0837 54bd 6037 906f 9435
000000b0: c0a1 1036 52e6 c435 170b f734 a925 1037
000000c0: 0feb 4435 324c 2b36 50b2 3536 d1ee 5238
000000d0: 49cf 2338 d2ae 5637 e0a8 d234 01ba 2237
000000e0: 5cf8 0e38 9b3e 2f36 61c9 7336 eeef 9637
000000f0: 917f ca35 a9f7 6b34 4bea 9a37 0407 cc35
00000100: 85d3 cb34 e4fe be34 a483 9735 d9fc d036
00000110: 258f 8f37 6835 1938 151f c935 b636 5736
00000120: e8f8 2534 8ee6 0936 7d3a 2936 5dec 4736
00000130: e45c 9036 7f4e 9a34 6625 4d36 b0cd 2a36
00000140: f81b d935 7a77 fb35 c8c3 2e38 6fd4 4435
00000150: 68aa b137 4377 eb35 3af4 6937 595a d935
00000160: afb0 3c36 ebc9 4137 cb60 b635 db28 3a36
00000170: 776b 1338 fecb 4a36 c321 7f35 d48b 9d36
00000180: ebab 5135 2542 0536 0a78 1b34 a4f0 0135
00000190: 4984 5e35 764a 4e36 87f0 3d37 f892 3436
000001a0: 5c8c ba37 ac35 bb36 13d0 0436 acc2 0136
000001b0: ff42 a034 e7e3 0934 6d02 a434 0e5f d135
000001c0: 98b6 3c35 2feb 3434 f48c ca34 8902 d937
000001d0: c0a1 9237 e2b6 0236 9889 7234 8b63 8236
000001e0: 69ad 3e37 f14e 1836 44c2 fa35 9b00 1637
000001f0: cb22 5635 26da 8034 11c3 0a37 781e 6635
00000200: d9a8 0535 06e1 de36 b9be 5e34 f972 0e37
00000210: 28c7 1738 ce69 ac38 7110 3636 0442 4937
00000220: 2030 a734 d10a 9c37 711e a036 155e 5d37
00000230: 60f2 f036 2dac 6936 3b27 9e35 9546 8f37
00000240: c31d bb34 0448 b835 bf54 c638 2b2f 3235
00000250: 1c4b 2438 f8a0 ad36 50b7 1538 43ab ac35
00000260: 09e0 a636 54f2 0938 4ddd 0435 3d7f c235
00000270: 276d ad38 e00c d035 9a40 c234 4896 9237
00000280: 02b4 4d36 c1b2 5d36 68d2 9c34 839d 0b37
00000290: 7333 3235 ccf0 8f37 c4d3 3f38 2f70 0037
000002a0: 0561 6538 ab91 1337 b522 9337 08d5 9335
000002b0: d20a 2e36 5904 4736 8ce2 a035 752a 4d37
000002c0: 6d65 d834 c493 8d36 6f01 2736 fab3 6a38
000002d0: eabe 2a38 9cd5 9137 cb05 ef34 c98e 8037
000002e0: 0e0a 0e38 ef40 c936 c846 af35 84c8 ac37
000002f0: 3a9d 8835 dd6f 4734 50f3 9937 f8df 9635
00000300: ea42 2537 6940 1137 ef70 c037 56ee 3437
00000310: 3236 cc36 6c0b 4e37 b158 ca35 141f 4b37
00000320: b922 0434 13c2 ed37 a527 ea37 4027 aa35
00000330: 354d 1737 c64f 0338 b18d 3c38 0584 1837
00000340: 467b d237 9ace d536 a6bc 4437 dcb3 3737
00000350: 0bc9 1038 6c76 a238 c0aa 5737 7893 1938
00000360: 1905 2f36 0f61 9b36 c379 3a37 7707 ed37
00000370: 170c 3337 7ae2 3638 27e3 1137 38e2 5336
00000380: b446 9936 b444 7037 4794 2c35 c534 3a38
00000390: fc71 9e36 8306 8036 3027 4536 e1d3 1c36
000003a0: f57e 9436 6f04 4737 1acf e637 2bbc 9137
000003b0: f63c 5837 e8db 3037 8abd 6637 6816 0e37
000003c0: a7a9 7e36 ebc3 a037 8878 0d37 544a aa37
000003d0: 1583 c436 16d0 cb37 eb2e 5b35 8393 0e36
000003e0: 4ee9 9e36 a2d9 8c37 daa8 7135 d0fb b636
000003f0: d0b0 8737 d972 af35 53fc 1336 fc51 4c34
1.5076395e-06 2.991976e-06 3.7488414e-07 9.233012e-06 3.7285477e-05 8.093456e-05 2.6654657e-06 1.3637202e-05
3.2767e-07 1.3882831e-05 1.045855e-05 7.9736155e-06 6.7376996e-06 1.5362826e-06 1.0641372e-06 1.17888485e-05
8.3912516e-07 2.919434e-06 9.298505e-05 2.3525984e-06 3.4154033e-05 9.006905e-06 2.8295306e-05 9.462796e-07
4.843039e-06 3.427685e-05 1.3046588e-06 1.3932992e-06 7.92812e-05 1.216144e-06 9.397986e-07 1.0502286e-05
1.2623924e-06 7.4325662e-06 2.3923346e-07 6.524198e-06 1.0059588e-06 1.167823e-05 3.4014247e-05 8.494391e-06
5.392967e-05 8.151683e-06 1.3395522e-05 1.1059328e-06 2.1551823e-06 1.467017e-06 4.6015404e-07 8.591837e-06
7.3357745e-07 2.5525337e-06 2.7074893e-06 5.0290317e-05 3.9055278e-05 1.27960975e-05 3.923842e-07 9.69926e-06
3.408674e-05 2.6113473e-06 3.632704e-06 1.799312e-05 1.50873e-06 2.1976179e-07 1.8467332e-05 1.5201226e-06
3.7965597e-07 3.5575715e-07 1.1288689e-06 6.2283184e-06 1.7113585e-05 3.652778e-05 1.4984713e-06 3.2069343e-06
1.5457374e-07 2.0548791e-06 2.5217007e-06 2.9790892e-06 4.3023483e-06 2.874185e-07 3.056915e-06 2.54517e-06
1.61759e-06 1.873573e-06 4.166717e-05 7.332482e-07 2.1179396e-05 1.7543574e-06 1.3944746e-05 1.6194055e-06
2.8117026e-06 1.1550709e-05 1.3588227e-06 2.773994e-06 3.5147616e-05 3.0219085e-06 9.504403e-07 4.6952428e-06
7.810874e-07 1.9857046e-06 1.447917e-07 4.8406423e-07 8.2893945e-07 3.0739734e-06 1.132128e-05 2.6907637e-06
2.2238288e-05 5.5792825e-06 1.9790648e-06 1.9335812e-06 2.9851068e-07 1.284203e-07 3.0549145e-07 1.5599378e-06
7.0301166e-07 1.6849366e-07 3.772799e-07 2.5869596e-05 1.7479877e-05 1.9477961e-06 2.2588063e-07 3.8858902e-06
1.1365258e-05 2.2695715e-06 1.868299e-06 8.940838e-06 7.977184e-07 2.4000582e-07 8.270858e-06 8.5726015e-07
4.9792067e-07 6.6423117e-06 2.0744746e-07 8.490629e-06 3.6186684e-05 8.221307e-05 2.7129684e-06 1.1995904e-05
3.114119e-07 1.8601686e-05 4.7719154e-06 1.3194532e-05 7.1807735e-06 3.4819925e-06 1.1783335e-06 1.7079796e-05
3.485312e-07 1.3730028e-06 9.457161e-05 6.6378806e-07 3.9170598e-05 5.174541e-06 3.569509e-05 1.2864842e-06
4.9732666e-06 3.288903e-05 4.9495867e-07 1.4491158e-06 8.269614e-05 1.5500955e-06 3.618232e-07 1.7474536e-05
3.0652159e-06 3.3035615e-06 2.9210355e-07 8.321719e-06 6.6385036e-07 1.7159058e-05 4.573517e-05 7.655514e-06
5.468821e-05 8.795799e-06 1.7539927e-05 1.1014354e-06 2.5934319e-06 2.9655841e-06 1.1986863e-06 1.22288375e-05
4.0306932e-07 4.2193296e-06 2.4885774e-06 5.5957564e-05 4.070896e-05 1.7384817e-05 4.4521434e-07 1.5325279e-05
3.3864802e-05 5.997826e-06 1.3059116e-06 2.059737e-05 1.0178549e-06 1.8574015e-07 1.8352323e-05 1.1241054e-06
9.850346e-06 8.65767e-06 2.2940772e-05 1.0784328e-05 6.085983e-06 1.2281216e-05 1.5075985e-06 1.2106979e-05
1.230609e-07 2.8342974e-05 2.7913435e-05 1.267741e-06 9.0182775e-06 3.130713e-05 4.4954653e-05 9.090644e-06
2.5091354e-05 6.3719463e-06 1.17264335e-05 1.0949527e-05 3.451951e-05 7.74682e-05 1.28547545e-05 3.6615384e-05
2.608e-06 4.630659e-06 1.1114814e-05 2.8256078e-05 1.0672046e-05 4.3603104e-05 8.6955615e-06 3.1573127e-06
4.5679863e-06 1.4321111e-05 6.4290765e-07 4.4395e-05 4.7220365e-06 3.8154553e-06 2.9378098e-06 2.3369141e-06
4.4255235e-06 1.1862357e-05 2.7514576e-05 1.737297e-05 1.2888797e-05 1.0541618e-05 1.3753199e-05 8.469076e-06
3.79477e-06 1.9164718e-05 8.432318e-06 2.0300191e-05 5.856515e-06 2.4296383e-05 8.165213e-07 2.1245512e-06
4.735927e-06 1.6790644e-05 9.002521e-07 5.4533375e-06 1.6175589e-05 1.3071941e-06 2.205158e-06 1.9028806e-07

exp_avg f4 [64]
00000000: af45 6c3d 6b57 013d 0b26 5fbd 4bd5 04bc
00000010: 9050 0b3c 5d82 1f3c b861 0abc d1e7 3fbc
00000020: e465 8e3c 9ee3 8d3c c948 183c 682f 4fbb
00000030: 2016 f43c eae9 f5bc 6d71 843c 3ecf cb3b
00000040: 5e71 a03c c195 42bd 0695 47bc 2464 c1bc
00000050: af4e cdbc 2936 76bc f013 5539 7c86 f93c
00000060: b369 f9b9 3eaf 0d3c 91ec 4fbb ee14 573c
00000070: 1096 88bc 1c5b f53c 8f29 83bc 94ef 32bd
00000080: e905 f13c 7d5e ecba c4bc 01bd 2ef6 e6bc
00000090: 36ae 83bc 8d30 70bb 8656 95bb 346a f23c
000000a0: 66d7 a03c af29 c23c 0083 8e3b 79ad a0bc
000000b0: e161 b7bc c8b7 bf3c 4c56 b63c f227 603b
000000c0: 659d 083c ebec 913c 6e1b 9f3c be77 553d
000000d0: 8820 19bb 3c17 cf3b 78a2 a3bc cc5b df3b
000000e0: 9c7e 9f3c 5d87 913c 6e35 bfbc eed7 f3bb
000000f0: 3d08 afbc 9563 7a3c 89c4 89bc af90 92bc
0.057683643 0.03157751 -0.05447964 -0.008107494 0.008503094 0.009735671 -0.0084461495 -0.011712984
0.01738257 0.01732045 0.009294697 -0.003161395 0.029795706 -0.030018765 0.016167367 0.0062197736
0.019585308 -0.047506098 -0.012181526 -0.023607321 -0.025061933 -0.015027561 0.0002032069 0.030459635
-0.00047571733 0.008647738 -0.0031726698 0.013127549 -0.016673118 0.02995067 -0.016011028 -0.04368551
0.029421763 -0.0018033531 -0.03167416 -0.02819356 -0.016074281 -0.0036650032 -0.0045574335 0.029591657
0.01963396 0.023701517 0.0043491125 -0.019613968 -0.02238554 0.023403063 0.022257946 0.0034203497
0.008338307 0.017813167 0.01942226 0.05211615 -0.0023365337 0.0063199084 -0.019974932 0.006816363
0.019469552 0.017764742 -0.023340907 -0.0074415123 -0.021366233 0.015282531 -0.016817348 -0.017891256
