hw2/data/sb_rtg_dna_CartPole-v0_16-06-2019_19-06-52/11/model.pkl (torch_old, 66652 bytes, 18 tensors)

weight f4 [64, 4]
00000000: 4770 26be 4d47 42bf a967 55bf cc60 17bf
00000010: 1a42 c4be da15 703e 011b 333f 9847 ff3e
00000020: 6f77 00be 2c46 07bf 4347 44bf f4f6 56bf
00000030: e648 74be 1c16 c3be c647 35bf c59e 5ebf
00000040: 6ecf 233e 1ca3 00bf a79e 3bbf ffc6 6abf
00000050: d45d 3b3d 7a60 1f3e 1f89 6e3f 95ab 583f
00000060: a417 95be e68c 92be 68ab 463f c0e2 ce3e
00000070: 79e1 803e f826 fdbe ee2f e8bd f066 103d
00000080: 9e41 353f 245f 7b3f ebf5 f23e b097 223e
00000090: 9f06 ffbe ef00 973d aaef b43e 6831 193f
000000a0: bf6a f6be b609 06bf 2847 d9be 6d34 813c
000000b0: bc1e d6be 5872 d4be 989a 34bf f6e8 2abf
000000c0: 2a5d 44be 7c66 8ebe 7dac 41bf 1b60 46bf
000000d0: 8d33 c03d f2fa 04bf 421d 38bf 6e8f 45bf
000000e0: a5a5 78be f0b5 033e 5dbc 683f 39ba 4d3f
000000f0: e723 13bf 6724 5dbf e887 1c3f 94c6 e33d
00000100: 2936 a9bd 8ead 903e ccee 223f 9b86 253f
00000110: 4869 343f 51e2 603f 45ca fc3e 6b8f 59bd
00000120: dbd9 c7be a37d 55bd e3ef 55bf 971b 5cbf
00000130: 6540 14be 619e bfbe c26b 20bf 3d08 abbe
00000140: fc18 c03d 6f3e 19bd eb84 113f 36c9 573f
00000150: 5fd1 543e d043 35be 1977 cf3e 3015 573f
00000160: d0e4 653d 4b1b b5bc 1607 403f 1e57 413f
00000170: 554e d3be 343b ccbe 37e1 56bf f9d4 3ebf
00000180: 4c90 a6be f204 ac3c e7a0 40bf b11e 17bf
00000190: 5e9a 33be a54a 913e 6978 d23e 9a15 433f
000001a0: 5164 003e 0fec d3bd de40 71bf 31bf fabe
000001b0: 9c85 d0bd 1ecc 9cbe 25b6 0cbf b986 61bf
000001c0: b5c5 53be 787d 50be 69ea 4d3f 8082 313f
000001d0: 16f6 043e c75e bebd f20c 42bf 1649 4abf
000001e0: b7ac 24bf a8fe 5ebf 2ff5 293f 5c92 903e
000001f0: 8b33 de3e 0f75 363f 21d1 283f 08a2 4d3e
00000200: 5c21 d73c bad2 333f 0592 e03e fe98 1e3f
00000210: 12a1 113f 7067 293f de6b f83e f3c3 09be
00000220: a8df b13e 8e07 283f 0c0e 4d3f 2974 103f
00000230: 73c4 a4be ac59 72be b63b 3f3f 5bd2 f03e
00000240: ee06 94bd 0d96 c33d 17ac 3e3f 6922 f23e
00000250: 8ec9 a03e 2b92 8c3d adef 53bf 52a7 96be
00000260: 7161 743f 86a9 0b3f 770c a8be 71a0 dcbd
00000270: 4959 2f3e 8607 113e 5159 903d 5029 0a3f
00000280: f8c9 3a3e 2f60 bbbd 40d6 0bbf 2b3a 44bf
00000290: 33bb 463e 250c 0cbe adc4 3abf eed4 35bf
000002a0: 6e79 983e def2 663d 68fe bdbe dc31 fdbe
000002b0: 9ff6 2ebe e200 91be 9788 0fbf e8d6 49bf
000002c0: d602 a33e 4a3b f33e 2d2b d2be 0c97 f6be
000002d0: a2fe 5cbf 2c5a 53bf 5695 933e 2bd2 9f3e
000002e0: 9c10 9bbe f710 b23c 20b9 1c3f 5ae3 a83e
000002f0: a34f 5ebe eea4 0a3f 8a64 073f 2497 0a3e
00000300: 65c1 bc3d 31a2 07bf 0f0e 19bf 4f9c 3ebf
00000310: beef 9e3e 1c94 443e 8d17 40bf b2ac a8be
00000320: f460 4fbd 82ce 16bf 81ca b5be e17b 09bf
00000330: ba63 cf3d b29a c33d 210b eabe d83c 48bf
00000340: 815a 0abe d59a dd3c 8c42 613f d46e 2b3f
00000350: 7db8 10bf 3025 313d 04a6 a53e 9450 203f
00000360: 9736 d0bd 3057 4ebf cff3 5abf 4103 3ebf
00000370: 17fe d6be 3a1e babd ae89 abbe 3c5c 25bf
00000380: cbb0 d1be a9d7 0bbf 2136 ec3e be95 103f
00000390: 2ef9 c2bd dcb2 aabe 14cd 4fbf e0fc 0fbf
000003a0: 2401 fb3e 0e95 7f3e 17cc 1ebe 2c70 ca3c
000003b0: 7698 233e 6f8d 54be 3531 df3e 6a14 1b3f
000003c0: 591b dabe c388 dbbe d824 5ebe d827 a6be
000003d0: fab6 733f fc63 6e3f 068e e6be c4ac a8be
000003e0: 07cc f9bd 87d7 8e3e 3fc6 073f a0dd 453f
000003f0: 223b 68be 6024 8ebe 6513 13bf 7a3c 32bf
-0.16253768 -0.75890046 -0.833613 -0.59132075 -0.3833168 0.23445836 0.6996308 0.4985931
-0.1254556 -0.5284145 -0.76671237 -0.8397057 -0.23855934 -0.38102806 -0.7081264 -0.86961013
0.15997097 -0.50248885 -0.7328896 -0.91709894 0.04574378 0.15564147 0.9317798 0.84636813
-0.291196 -0.28623122 0.77605295 0.40407372 0.25172022 -0.49443793 -0.11337267 0.03525442
0.7080325 0.9819205 0.47453246 0.15878177 -0.4980974 0.07373225 0.353391 0.5984101
-0.48128316 -0.5235857 -0.424371 0.015772069 -0.41820323 -0.41493487 -0.7054839 -0.6676172
-0.19176164 -0.27812564 -0.7565382 -0.77490395 0.093848325 -0.5194541 -0.71919644 -0.7717198
-0.24281938 0.12862372 0.9091242 0.8036228 -0.5747666 -0.8638367 0.61144876 0.1112186
-0.08262283 0.28257412 0.63645625 0.64658517 0.70473146 0.8784533 0.4937307 -0.05311529
-0.39033398 -0.05212177 -0.83569163 -0.859796 -0.1447769 -0.3742552 -0.62664425 -0.33404723
0.093797654 -0.037413057 0.5684344 0.842914 0.20782994 -0.1770165 0.40520552 0.84016705
0.056126416 -0.02210774 0.7501081 0.75523555 -0.412707 -0.39888918 -0.839374 -0.7454372
-0.32531965 0.020998452 -0.7524552 -0.59031206 -0.17539355 0.28377262 0.4110749 0.76204836
0.12538268 -0.10347759 -0.94239604 -0.48973992 -0.10181734 -0.3062448 -0.5496543 -0.88096195
-0.20680888 -0.20360363 0.80435807 0.6933975 0.129845 -0.09295421 -0.75801 -0.7901777
-0.6432604 -0.87107325 0.66389745 0.28236663 0.433987 0.7127237 0.65944105 0.20081341
0.026261024 0.7024342 0.43861404 0.619522 0.568864 0.6617346 0.48519796 -0.13453655
0.3474095 0.6563653 0.8009956 0.56427246 -0.3218113 -0.2366702 0.74700487 0.47035488
-0.07227884 0.09550104 0.7448134 0.47291878 0.31403774 0.06863817 -0.8278759 -0.2942453
0.95461184 0.5455555 -0.3282201 -0.10772789 0.17123903 0.14163026 0.07048286 0.5396929
0.18241107 -0.09149205 -0.54623795 -0.7665126 0.19407348 -0.13676508 -0.72956353 -0.7102803
0.29780143 0.05638396 -0.3710816 -0.49452102 -0.17086266 -0.28320986 -0.56067795 -0.78843546
0.318381 0.4750617 -0.41048566 -0.48162115 -0.8632604 -0.82559466 0.28824872 0.31215033
-0.3028611 0.021736605 0.6121998 0.32985955 -0.21710066 0.5415791 0.52887785 0.13534218
0.092165746 -0.5298186 -0.59787077 -0.7445726 0.31042284 0.19197124 -0.75035936 -0.32944256
-0.05062957 -0.58908856 -0.3550606 -0.5370465 0.10126443 0.0955099 -0.45711616 -0.7821784
-0.13511087 0.027051369 0.8799217 0.66965985 -0.56531507 0.043248355 0.32353222 0.6262295
-0.10166662 -0.8060179 -0.8552827 -0.74223715 -0.4199073 -0.090877965 -0.3350348 -0.64593863
-0.40955195 -0.54625946 0.46135047 0.5647849 -0.095201835 -0.33339584 -0.811723 -0.5624523
0.49024308 0.24959204 -0.15507542 0.02471169 0.15976128 -0.20757078 0.4359223 0.60578024
-0.4259899 -0.42877778 -0.21693742 -0.32452273 0.95201075 0.93121314 -0.4503023 -0.3294431
-0.12197118 0.2789881 0.53036875 0.772913 -0.22678807 -0.27762127 -0.5745147 -0.6962353

bias f4 [64]
00000000: 1d16 81bd 0856 343e 16af 8e3d 4067 80bb
00000010: 28a5 ffba 8a06 8a3d 06e1 c1be dbfd dfbc
00000020: acf8 5b3e 0ce3 b7be 20cd ae3d a62f 73bc
00000030: 5d5a 5ebd aa00 4fbc e96a 5fbe 51ec 3ebe
00000040: e35e 313d e609 743e 5e4f 58bd c843 06be
00000050: 6c5b 563c 69f1 c5be 097d 7cbd 12c6 243d
00000060: 6eff 553d 5e15 cdbc 0f1d 4bbe 3333 083e
00000070: 2700 d83d 4149 023e cc35 11be ae00 933e
00000080: f73f 023e f81e fd3d d8c2 b93d b2e2 92be
00000090: 917a 47be 420c 49be 8857 1d3e e0ef 27be
000000a0: c911 fe3c ba71 86bd ae8f 2c3e 481c cd3d
000000b0: 1f05 213e a232 763d 4430 8f3d d93f e13d
000000c0: 2c54 67be b4b9 6fbd eff6 03be 9e14 dc3c
000000d0: 96ac 1c3c 7b35 afbe a582 4b3d 2079 613d
000000e0: 4551 b73d 370f fabd 07b3 97be f410 21be
000000f0: 1ffa 04be 113e ad3e 3929 30be 2d41 013e
-0.06303046 0.17610943 0.06966989 -0.0039185584 -0.0019504176 0.067395285 -0.37866992 -0.027342727
0.2148158 -0.3591541 0.08535218 -0.014842903 -0.054285396 -0.012634436 -0.21818127 -0.18644835
0.04330338 0.23831901 -0.052810065 -0.13111794 0.01308332 -0.38660744 -0.06164268 0.040227957
0.05224555 -0.025034603 -0.19835304 0.13300781 0.10546904 0.12723257 -0.14180678 0.28711456
0.12719713 0.123594224 0.090703666 -0.2868858 -0.19480349 -0.19633582 0.15365422 -0.16400099
0.03101434 -0.0656466 0.16851684 0.1001516 0.1572461 0.06010688 0.06991628 0.10998506
-0.22590703 -0.05852671 -0.12887166 0.0268653 0.009562632 -0.3422049 0.04968514 0.055047154
0.08951048 -0.12209933 -0.29628775 -0.15729123 -0.12986039 0.33836415 -0.17203225 0.12622519

weight f4 [64, 64]
00000000: 23bb 223f 049d dfbd 2924 3f3f 28c8 433f
00000010: e120 ec3e 32db 15be b1b2 2b3c 1306 d13e
00000020: 4bcd 13bf 713a 9ebe 3c86 3d3f c902 3a3e
00000030: 01e8 103f ea98 fd3e c41e f3be 42c3 18bc
00000040: 8f9c ecbe 3ebe 9abe c953 21be ba5e 2d3f
00000050: a977 00bf b412 2dbf c089 2bbe b847 043f
00000060: 3916 ec3d f3b6 ad3e bae2 3d3e 46f1 2d3f
00000070: b09b b43e d2f3 033f 3ec9 da3e baff 00bf
00000080: 538c d0be d253 d4be 00b6 07bf 062b f4be
00000090: a000 28be c52e 443e 0e68 a83c 8fae ea3e
000000a0: 03a1 8dbe 28b4 af3e 43d3 8a3e aa82 403f
000000b0: ca39 173e 3bb9 433e 6bcc 0d3e 8231 07bf
000000c0: 5503 083e e432 9f3d 46db f13e be51 783e
000000d0: 047e 203c f341 05bf 378d 083f 61ce 05be
000000e0: f886 f23e cb16 fa3e 0576 90be 80c8 c33d
000000f0: 987c 113f bed9 41be d1e9 a6bc 746b 063f
00000100: bf81 3c3f 6a3a 88be e22a 103f 9df0 093f
00000110: cac3 823e c6a7 033b 0f76 6a3e 7ddd 1e3f
00000120: 62d5 0abf f208 2dbf a952 343f c634 bd3d
00000130: 6735 d53e 8444 b23e 4d11 30bf 1cfa 52be
00000140: 2613 1dbf d860 85be b7d2 ac3c 53a5 b93e
00000150: da62 0bbf 134a ecbe a8ab 83be c7ba 223f
00000160: c93a f73e 1e54 983e dead 133c 553b 383f
00000170: f8a2 ca3d 2e85 2e3f f108 6a3d 4d4d 5abe
00000180: 00e1 d5be 99a7 f5be 8cd2 2bbf eb6a e3be
00000190: cb2e c6be 8426 7b3e 7176 873d 947d f13d
000001a0: f89f 65be 08f3 d93d 972a b73e 908c 363f
000001b0: bd4d d83e aacc d53e 2bf5 91be 90b6 74be
000001c0: 9651 143e ba29 533e 5347 233f 3631 ce3d
000001d0: 7356 c23e 5cbe 30bf 3425 293f 424e c4be
000001e0: 618a d53e f090 f23e dc6b 9abe 81b2 abbc
000001f0: b189 b03e 0dcf febd fb8c fdbc 7ed9 413f
00000200: 1a35 47bf 24dc 9e3e edee 1fbf 1c3a 2dbf
00000210: b9db 1fbf 86d0 c53e a1ef 32be 6b52 dbbe
00000220: ec4f 543f da30 093f ff56 d5be 1aeb 32bf
00000230: 6d2d 27bf 3fbd 2bbf 7822 073f 6457 6bbd
00000240: 5286 d63e 377b ec3e 4bee e6bd 9b38 18bf
00000250: 69e0 0b3f db3a af3e 50ac 863e 410c 31bf
00000260: 38bd dfbe 6f7d d4be 1477 21bd 6e7e f2be
00000270: 5d25 59be 37c5 a5be 4c67 5abe b675 1c3f
00000280: 5204 173f 74ad 2f3f 7b01 dc3e a5b4 f83e
00000290: 0d06 393e c8a7 b63c 615d b53d 2612 bbbe
000002a0: a254 203e 4898 95be 8141 c7be 923e 3bbf
000002b0: 71ba b7be f1d9 afbe d596 033e dfc7 7b3e
000002c0: 97df 2bbe e593 0ebe 11f3 a9be 6f55 1fbe
000002d0: 5256 143e cd08 c33e ee8d 15bf 7e5d 59be
000002e0: 02a3 e0be 570a e8be 9cc3 883e 16da e33d
000002f0: 6d6b 2fbf cce2 693e 4718 c73e 4074 f9be
00000300: 272a 0a3f 5567 3abe 3c08 0a3f eb33 253f
00000310: 6bef b53e e61a 02bf 1201 843e 94f0 983e
00000320: 4c34 e9be 8f09 edbe 4399 e53e 1a61 023f
00000330: fabf b83e 3268 e83e cd2d 0bbf 3c20 4d3e
00000340: 7382 84be 1df5 33bf 4f46 d13e a26c bb3e
00000350: 5c00 30bf ae96 16bf c9a9 1ebf b14d 333f
00000360: ac94 e83e 4cc8 0b3e 9296 c13e 1c41 203f
00000370: fb00 c0bd ea6f 323f f9ba 673e 4bfa 02bf
00000380: a459 bbbe 631b 29bf ea4c 4bbf 0ff1 85be
00000390: 101c 89be 543f 4a3e 0876 143d 586d 003e
000003a0: 0c40 8e3d f57a 253f dbab c13e 224c 1a3f
000003b0: df11 b73e 66d9 a23d becb ddbd d55b b3be
000003c0: 056a 883e 05a7 d63e 9076 9d3e b0d3 e53e
000003d0: 3ad2 63be 8112 a7be 0e94 e23e 9cba 073e
000003e0: 49a9 193f 3a98 b33e 7dcc 87be 651a 61bd
000003f0: f05c dd3e d8fe 01bf 7686 dcbe 0a2b 273f
0.635668 -0.1091862 0.7466455 0.7647729 0.46118835 -0.14634398 0.010479615 0.40824947
-0.5773513 -0.30903962 0.7403295 0.18165125 0.5660401 0.49530727 -0.4748441 -0.009323897
-0.46213195 -0.30223268 -0.15754618 0.67722666 -0.50182587 -0.67606664 -0.16751766 0.51671934
0.11527676 0.33928642 0.1854352 0.6794628 0.3527503 0.51543915 0.4273166 -0.5039021
-0.4073206 -0.414702 -0.53012085 -0.47689074 -0.16406488 0.19158466 0.02055743 0.45836303
-0.27661905 0.34317136 0.27114305 0.7519938 0.14768139 0.19113629 0.1384751 -0.5280992
0.13282521 0.077733785 0.47237605 0.24249932 0.0097956695 -0.52053756 0.53340477 -0.13067009
0.47368598 0.48845515 -0.28215042 0.09559727 0.5683074 -0.18930718 -0.020375164 0.5250771
0.73635477 -0.26607066 0.56315434 0.5388277 0.2554 0.0020089014 0.22896598 0.62056714
-0.54231846 -0.67591774 0.7043863 0.09238581 0.41642305 0.34817898 -0.687764 -0.20603222
-0.61357343 -0.26050448 0.02109657 0.36258945 -0.5444771 -0.46150264 -0.257169 0.6356625
0.48287037 0.29751676 0.009013621 0.71965533 0.09894365 0.68171966 0.057137433 -0.2131855
-0.41773224 -0.4797943 -0.67118144 -0.4441751 -0.38707575 0.24526411 0.06614388 0.1179153
-0.22424304 0.10642058 0.3577468 0.7130823 0.4224681 0.4175771 -0.2850736 -0.23897767
0.14484248 0.20621386 0.6378071 0.1006798 0.3795658 -0.69040465 0.6607239 -0.38340956
0.41707137 0.47376204 -0.30160415 -0.02095914 0.3448005 -0.124418356 -0.030951014 0.7572249
-0.778154 0.3102733 -0.62473947 -0.6766679 -0.62444645 0.38635653 -0.17474224 -0.42836317
0.8293445 0.53590167 -0.41667935 -0.69889987 -0.6530369 -0.6708564 0.5278697 -0.05745639
0.41899353 0.46187755 -0.112759195 -0.59461373 0.546393 0.3422459 0.2630334 -0.6915932
-0.4369905 -0.41501948 -0.039420202 -0.47362083 -0.21205659 -0.32377025 -0.21328467 0.6111711
0.5899097 0.68624043 0.4296988 0.4857532 0.18068714 0.022296801 0.08855701 -0.36537284
0.15657285 -0.29217744 -0.38917163 -0.7314235 -0.3588443 -0.34345964 0.12850507 0.24587964
-0.16784512 -0.13923605 -0.33193257 -0.15559934 0.14486054 0.38092652 -0.5841969 -0.2122707
-0.43874365 -0.4532039 0.26711738 0.11125581 -0.68523294 0.22840422 0.3888571 -0.48721504
0.5397057 -0.1820348 0.53918815 0.64532346 0.35534224 -0.50822294 0.25782067 0.29871047
-0.45547712 -0.46296355 0.44843492 0.50929415 0.36083966 0.45391995 -0.5436676 0.20031828
-0.25880775 -0.7029589 0.40873954 0.36606318 -0.6875055 -0.5882367 -0.6197782 0.7004042
0.45425928 0.13650626 0.3781019 0.6259935 -0.09375187 0.6970202 0.22629918 -0.51163167
-0.36591828 -0.66057414 -0.79414237 -0.26160476 -0.26779222 0.1975072 0.036245376 0.12541711
0.0694581 0.6464074 0.37826428 0.6027242 0.35755822 0.07951622 -0.10829876 -0.35031
0.26643386 0.419243 0.30754519 0.44888067 -0.22248164 -0.32631305 0.44253582 0.1325478
0.60023934 0.35077077 -0.265232 -0.054956812 0.43234968 -0.50779486 -0.43071336 0.6530005

bias f4 [64]
00000000: 99d6 1d3f 31bf ed3e 4ce1 f2be 9659 953e
00000010: 26af 9a3e 8b38 fcbe fbed 9cbd 4421 dfbe
00000020: 4183 413e 7246 edbe 5708 cf3e 108d a7be
00000030: c726 023f e5a8 bcbe b3b0 e5bd 9bfb 283e
00000040: ce9d e93e ea8d efbe c59a d43e 6ef4 c7be
00000050: b77a edbe b014 d1be df73 d83e 184a f43e
00000060: a1df c9be 716f e7be 39a3 11bf b56a 64be
00000070: a19f c23e 6643 1b3f 4c19 ab3e fdeb 06bf
00000080: 0ffa e1be a3f8 d4be 3f43 13bf 7edf 333e
00000090: f7bb cabe 71d6 e53e 1732 973e fe90 a13e
000000a0: 1854 96be 277f a5be 2487 83bc 7505 aebe
000000b0: aa94 bd3e 4b1e bcbe 9d64 c4be 56e1 083a
000000c0: 8616 88be 6227 dabe 4ed9 9abe 821a 203f
000000d0: 6ff4 cdbe 6d0b 93be b931 af3e df43 b43e
000000e0: 17dd dfbe 5bfd 02bf ac83 d73e e7fd fa3e
000000f0: 2e3e b03e 589f b0be ec7f 303e a830 943e
0.61655575 0.4643493 -0.47437513 0.2916991 0.30211753 -0.4926189 -0.07662579 -0.43580067
0.18897726 -0.46342808 0.4043605 -0.3272481 0.5084042 -0.36847606 -0.11215343 0.1650223
0.45628208 -0.4678796 0.4152433 -0.39053673 -0.46382686 -0.40836096 0.42275903 0.4771278
-0.39428428 -0.4520221 -0.56889683 -0.2230633 0.38012412 0.60649717 0.33417737 -0.5270384
-0.44136092 -0.41595945 -0.57524484 0.17565724 -0.3959653 0.44890168 0.29530403 0.31555933
-0.29361033 -0.32323572 -0.016055651 -0.33988538 0.37027484 -0.36741862 -0.38358012 0.0005221566
-0.26579684 -0.42608172 -0.30243915 0.6254045 -0.4022555 -0.28719655 0.34217623 0.35208032
-0.43723366 -0.5116784 0.42092645 0.49021837 0.3442244 -0.3449657 0.17236298 0.28943372

weight f4 [2, 64]
00000000: c674 983d fd91 de3d cf96 863c 5652 9b3e
00000010: 987d ab3d d95d a03e a079 323f 1cc4 3f3f
00000020: 26e3 18bf ed35 bbbe f49a 1ebf 8f2f abbe
00000030: 6cd3 b1be cddf 1fbe af2d e8be 2de4 073d
00000040: 21b3 2cbf 6d66 823c 5486 713c 6400 1b3f
00000050: 0d8f 213f 3179 a2be 5e5a fcbe 0e87 173e
00000060: 897c e5be 6ff1 843e 78fb 243e 5c7a 5d3e
00000070: b6d7 0abf be04 38bf a967 43bd 04ff 363e
00000080: b909 c03e dbb6 a13e 4f57 1c3f b20f 12bf
00000090: b851 213f a7ce a63e 8a53 4abf 445b 0fbd
000000a0: c170 d13e 7567 d33e c80d dbbe 22b9 63be
000000b0: cdb7 26be 3f16 2d3f 68be 553f aa1c 503e
000000c0: 9b36 e5be 569d 433f eedd b03e ae57 b1bc
000000d0: bc38 b23e 8af3 41bd 8193 34bf b33e 08bf
000000e0: dc54 7a3f c802 033f ed1e 48bf e453 5ebe
000000f0: 1db3 32bf a0f8 c83e 704e 42bf 7c99 99be
00000100: 63e1 46bf 87f5 37bf ac97 3d3f 9680 15bf
00000110: 4821 05bf 853d 83be 11dd ccbe 8278 1cbe
00000120: f91a 383e 5e23 393f 9e79 833e 631f 243f
00000130: a121 c7be b307 2a3f f2c9 f03e ba43 e8be
00000140: b433 b83d c034 3b3f 20eb cbbe ca4d 8dbc
00000150: 754a 15be 5498 193f cda1 783e 4836 33bf
00000160: 6394 3f3f 7e28 2f3e 75e0 153f 15ad b93e
00000170: e36a d43c 035f 093e 0abe 2a3e 717a db3e
00000180: 8abe c3be 0f2f 09be 9e31 a8bc c1bc db3e
00000190: 0839 88bd 7864 26bf e4fc 3f3e cae7 78be
000001a0: 1ff1 9ebe b59d f3be 6626 ab3e a8b5 153f
000001b0: ca35 b13e d686 74be 2d2c 41be dcc6 603c
000001c0: 315b 303f c320 84be 7cb7 1ebd 8714 33bf
000001d0: 0114 9d3e 491d e53e 9194 c23e 36c1 963e
000001e0: 2ca7 52bd ca7d d4be f0e2 b23e 308e ad3d
000001f0: 9710 c83e 5d8b 64be 5306 4d3e 9af1 a03e
0.07444148 0.10867689 0.016429333 0.30336255 0.083735645 0.313216 0.69716835 0.74908614
-0.597216 -0.3656458 -0.6195519 -0.33434722 -0.34731615 -0.15612717 -0.45347354 0.03317659
-0.6746083 0.015917981 0.014741499 0.6054747 0.63108903 -0.31733087 -0.49287695 0.14797613
-0.44821575 0.2596545 0.16111553 0.21628708 -0.542354 -0.71882236 -0.04770628 0.17870718
0.37507418 0.3158482 0.6107072 -0.570552 0.6301532 0.32579538 -0.7903372 -0.034999147
0.40906337 0.4128987 -0.42783952 -0.22238591 -0.16281052 0.6761207 0.8349366 0.20323434
-0.44768223 0.7641195 0.3454432 -0.021648254 0.3480891 -0.047351398 -0.70537573 -0.5322067
0.97785735 0.5117612 -0.7817219 -0.21711689 -0.69804555 0.39252186 -0.75900936 -0.29999912
-0.7768766 -0.7185902 0.7405956 -0.5839933 -0.5200391 -0.25632873 -0.4001241 -0.15280345
0.17979039 0.7231959 0.25678724 0.6411039 -0.38892844 0.66418 0.47029072 -0.4536417
0.089942366 0.73127365 -0.39827824 -0.017249007 -0.14579184 0.5999806 0.24280472 -0.700047
0.74835795 0.1710529 0.5854562 0.36264864 0.025929874 0.1341515 0.16674057 0.42866853
-0.38231307 -0.13396858 -0.020531472 0.42917445 -0.06651503 -0.64997053 0.18748814 -0.2430717
-0.31043336 -0.47581258 0.33427733 0.5848031 0.3461135 -0.23879561 -0.18864508 0.013719287
0.6888915 -0.25806245 -0.038749203 -0.699532 0.30679324 0.44748905 0.38003972 0.29444283
-0.05142896 -0.4150222 0.34938765 0.08474386 0.39075157 -0.22318788 0.20021944 0.31434327

bias f4 [2]
00000000: b000 a93d f683 b6be
0.08252084 -0.35647553

exp_avg f4 [64, 4]
00000000: 8580 9340 cc05 4140 1fb7 593f 6bf0 3540
00000010: 9c1e 9dbd 8fb9 98bf 26cc b1be d6d6 6cbe
00000020: 5f30 9940 91fd 6240 5a05 823f e624 4940
00000030: 00af bf40 a51d 8840 0114 b13f e1d2 9240
00000040: f4b4 a040 a18a 5440 ddfd 4b3f 9ddb 3d40
00000050: b1ce 98c0 8393 45c0 8d49 33bf 5e0a 2bc0
00000060: e6d4 833f ff4a 23bf 0374 1abf da13 57bf
00000070: 77b2 45bf c876 223f c014 853d 4310 7bbf
00000080: 90ec 94c0 625a 41c0 1fdc 06bf 0006 edbf
00000090: 6f56 6d3d 109d 4ebf 6e87 f8be a7a1 6dbf
000000a0: aade b03f e2f2 0a40 8b9e c03e e5e4 093d
000000b0: 31a4 9040 8d03 3140 d64d 323f 05f0 2e40
000000c0: 0d16 af40 853b 7840 7d2c 923f 0c30 7140
000000d0: 9faf 1e40 2dae 1a40 2f70 203f 7e04 b63f
000000e0: 8d32 85c0 42e9 5bc0 5a25 a4bf a5a7 7bc0
000000f0: bca6 3140 5ce7 643f a54e 7a3c d5da 793f
00000100: d7da b2bf 864f 0dc0 6755 22bf af9e 68bf
00000110: 6e01 9fc0 8cf6 2dc0 6ef0 a5be 7329 e3bf
00000120: 1215 8040 7660 2040 ed10 183f 272d 1a40
00000130: c04f 4d3f 5132 e53f e842 e43e a3ab 2d3e
00000140: 4b54 98c0 d9cc 76c0 0a42 abbf e744 83c0
00000150: b239 ecbf bfbf 00c0 9d6a 8bbf 35cc 4cc0
00000160: 4192 79c0 ddc9 3ec0 0cd4 4abf 42b9 1fc0
00000170: 9944 7b40 a8df 5a40 04aa 823f 5736 3140
00000180: d1fb 6b40 0a9b 5c40 fed9 9e3f 2bd8 6340
00000190: 1364 05c0 c91b 1cbf 39a9 44be 09fb d3bf
000001a0: bb8f b73f 6a10 0f40 b85c 2b3f 71ea a13f
000001b0: b60f 8f40 538d 7340 8391 9b3f 9e9e 5d40
000001c0: ddc7 23c0 6ba1 e0bf de24 30bf e00b 27c0
000001d0: 3715 7e40 0fae 6740 d66b 983f 603c 4c40
000001e0: 837b 6240 04ba bc3f 261b 10be c0f4 a03e
000001f0: 6c4f a6c0 b0e5 5cc0 adec 1abf a1fa ffbf
00000200: e304 99c0 7876 58c0 93d5 5dbf 8b18 33c0
00000210: cd61 7ac0 dfad 5cc0 8315 0bbf ac11 63bf
00000220: 9d62 adc0 b629 50c0 56dc 68bf 824b 5cc0
00000230: 0270 bd3e 8239 43bf 5f4b d6be 8ae7 eebe
00000240: 0dbb bebe aec8 87bf 1062 b3be b11c 12bf
00000250: 3c97 98bf 2410 4f3e ea73 083e 4120 ffbe
00000260: 2252 06c0 3878 5dbf 256d 08be b922 85bf
00000270: 998f ebbf b8a7 d5be 7854 9fbd 7f80 9dbf
00000280: 6096 3e40 c808 da3f 84c0 0b3f ab80 1e40
00000290: 8aa3 7940 9ab1 6940 8631 923f ca65 4340
000002a0: 34b4 94bf 79bf aa3e 74a1 6a3e d94f 6dbe
000002b0: b226 6b40 163d 5540 1a46 7c3f 8438 2140
000002c0: 62e4 b9bf 27d0 c73a e78b f03e ba48 333f
000002d0: b92f 0e40 9885 2e3f 4373 8cbd 2f2b 0d3f
000002e0: cf67 6b3f ae76 2abf 9a94 16be 9956 303f
000002f0: 730c 7fbc 3c39 66bf b749 d3bd 132a 133f
00000300: 73a0 6f40 3a03 2a40 0204 193f d1f2 0340
00000310: 11d3 b5bf f3e8 a53e e031 593e fe41 edbe
00000320: da4d 283f bbf6 aa3f 0fdb a93e 908a 4b3e
00000330: db8c 7240 3dc3 4240 db3a 7c3f ff66 4640
00000340: 1c2d 63c0 dfbe 29c0 d8ae 36bf 8fe4 1cc0
00000350: c768 033f 1190 b8be 7942 cebe cebc 48bf
00000360: b99a a840 65a4 4840 6f01 4d3f 1993 4a40
00000370: b805 e33f c613 ca3f 6a1a e83e dfc7 a83f
00000380: c362 cbbe 0b68 813e bf0c c3be ebd3 edbf
00000390: 032d 9740 d0bf 7240 1ed8 853f fbf3 3d40
000003a0: 86c4 33c0 2cfd 81bf 6a42 b43c c507 97bf
000003b0: 5ba8 edbf 5353 f1bf 4526 56bf f226 1dc0
000003c0: e855 ce3f ac79 0e40 c076 083f 0487 0d3f
000003d0: de69 80c0 393d 02c0 95be 3d3e 05bc 75bd
000003e0: 9c0e 8dc0 899e 34c0 38da 2fbf e179 2cc0
000003f0: 21a1 9c40 70ac 6d40 89a1 8d3f d5f5 6340
4.6094384 3.0159788 0.85045046 2.842799 -0.07671854 -1.1931628 -0.34726065 -0.23128828
4.7871547 3.5467265 1.0157883 3.142877 5.9901123 4.2536187 1.383423 4.588242
5.022089 3.3209612 0.7968424 2.9665291 -4.775231 -3.0871284 -0.70034105 -2.6725078
1.0299346 -0.6378631 -0.6033327 -0.84014666 -0.7722544 0.63462496 0.064980984 -0.9807169
-4.6538773 -3.0211415 -0.5267963 -1.8517456 0.057943758 -0.8070841 -0.48540825 -0.92824787
1.3817952 2.1710744 0.3762096 0.033665556 4.520043 2.7658417 0.6965002 2.7333996
5.4714417 3.8786328 1.1419827 3.7685575 2.479469 2.4168808 0.6267118 1.4220121
-4.1624207 -3.436112 -1.2823899 -3.9321072 2.7758017 0.89415526 0.015277539 0.97599536
-1.3973035 -2.2079787 -0.63411564 -0.9086713 -4.9689245 -2.718173 -0.32409996 -1.7747024
4.002572 2.5058875 0.59400827 2.4090059 0.80199814 1.790598 0.44582295 0.16960005
-4.7602897 -3.856253 -1.3379529 -4.102161 -1.8455107 -2.0117033 -1.0891911 -3.1999638
-3.8995516 -2.9810708 -0.7922981 -2.4956822 3.9260619 3.419901 1.0208135 2.7689416
3.6872447 3.4469628 1.2410276 3.5600688 -2.084233 -0.60979897 -0.19205178 -1.6560985
1.4340738 2.2353768 0.6693835 1.2649671 4.470668 3.8055007 1.2153782 3.4628062
-2.5590737 -1.7549261 -0.68806255 -2.6100998 3.9700449 3.6199987 1.1907909 3.191185
3.5387886 1.4744267 -0.14072856 0.3143673 -5.197195 -3.451519 -0.6051739 -1.9998361
-4.7818465 -3.3822308 -0.86654013 -2.798373 -3.9122193 -3.4481122 -0.543297 -0.8869884
-5.4182878 -3.2525458 -0.90961206 -3.4421086 0.36999518 -0.76259625 -0.4185438 -0.46661025
-0.37252083 -1.0608118 -0.35035753 -0.5707503 -1.1921153 0.20221001 0.13325468 -0.49829295
-2.098763 -0.86511564 -0.13322885 -1.0401222 -1.8403198 -0.41729522 -0.07779783 -1.2304839
2.9779282 1.703393 0.5459063 2.4766033 3.9006066 3.651465 1.1421363 3.0530877
-1.1617494 0.33349207 0.22913152 -0.2317499 3.6742368 3.3318534 0.98544466 2.5190744
-1.4522822 0.0015244529 0.46981737 0.70032847 2.2216628 0.681726 -0.06857922 0.5514402
0.91955274 -0.6658734 -0.14705124 0.6888214 -0.015566933 -0.8993108 -0.10316794 0.57486075
3.744168 2.656447 0.5977174 2.0616953 -1.4205037 0.3240429 0.21210432 -0.4633941
0.6574379 1.3356546 0.3317494 0.19877076 3.7898471 3.0431664 0.98527306 3.1000364
-3.5496283 -2.6522748 -0.7136054 -2.45145 0.5133175 -0.36047414 -0.4028509 -0.78413093
5.268887 3.1350338 0.8008031 3.1652281 1.773612 1.5787284 0.45332652 1.3185996
-0.39723787 0.2527469 -0.38095662 -1.8580297 4.7242446 3.7929573 1.0456579 2.9680164
-2.8088698 -1.0155387 0.022004325 -1.1799246 -1.8567003 -1.8853554 -0.83652145 -2.455502
1.6119967 2.2261763 0.533062 0.5528414 -4.0129232 -2.0349867 0.18529733 -0.059993763
-4.4080334 -2.8221762 -0.6869235 -2.694939 4.894669 3.7136497 1.1064922 3.5618794

exp_avg_sq f4 [64, 4]
00000000: 1529 1a3f bf16 bf3e f146 d63c eab2 4b3e
00000010: 8c81 a93a f689 593d 8128 1c3c 2fe1 823d
00000020: eb81 263f 8286 fa3e 2bb4 463d c194 ab3e
00000030: 1bfe 813f 1095 2d3f fd97 af3d 3756 403f
00000040: 413d 363f ac6e d73e 0792 de3c 3b35 833e
00000050: c644 243f ac9b b13e a1aa aa3c 0132 5a3e
00000060: 6a87 fd3c eade 933c dc3a a43c e8bf 233e
00000070: bfef 8d3c 02d1 8b3c d511 963a fb34 df3c
00000080: 5831 1c3f f83a af3e fbe8 1f3c 8ba8 ad3d
00000090: 7077 c73a 8b0f 003d 32f3 873c e327 1d3e
000000a0: c08b 643d 8795 433e a357 e53b b57b ae3b
000000b0: 1bb9 133f bfad 993e ba05 9f3c 9159 493e
000000c0: ef90 583f 8337 0f3f dac5 603d a404 e93e
000000d0: 321b 343e 2ff4 683e 177a a23c ecdf b43d
000000e0: 3668 fb3e f1b2 de3e e46a b33d 5d77 503f
000000f0: 0a0d 5d3e 740f f83c 06d0 023a a789 213d
00000100: d235 6a3d e5b6 393e 4a27 a33c 8575 893d
00000110: e290 313f 419e 8c3e 2b1a 903b 5647 ae3d
00000120: e405 e73e 54c0 633e 276b 803c eb6e 413e
00000130: b44e a43c 3810 023e 3c92 3b3c fe5b 7f3c
00000140: 43ee 233f e28c 083f 2c0a be3d 8260 553f
00000150: 4cdd cd3d 89b1 283e 5dcd 953d 2214 403f
00000160: bac1 db3e 9fa7 a43e 45dc fd3c b9bb 793e
00000170: d09f e03e a58f ed3e 34c1 3e3d 9ba8 803e
00000180: e02e c63e 196e df3e 5ed5 a53d 9c5d 313f
00000190: 6fbf f83d 2ea9 7c3c 841b 073b 3d06 ac3d
000001a0: 3de4 743d 272a 3a3e cd90 c33c 924d 153e
000001b0: 9263 113f 62e2 093f d19a 973d 842e 0b3f
000001c0: e22a 3c3e f7f3 ea3d ce92 c83c 1e98 a13e
000001d0: 3aa4 e43e 17c6 f33e 0de0 913d 34cd 003f
000001e0: b1ab b33e cfe9 b53d 6d93 763b 2fb6 ec3d
000001f0: 2ba2 433f 0080 ea3e e376 5d3c f87c d13d
00000200: 75d7 253f 1610 ea3e df6d e73c 56ad 493e
00000210: 4483 dd3e 91b7 f13e cea1 263c 9fa8 8c3d
00000220: 8368 543f c094 da3e 97d5 023d fddc 9b3e
00000230: 881a a63b 3e02 dd3c 749e 313c 9083 993d
00000240: e32e ac3b 1337 383d 794c d53b 370f 8c3d
00000250: 6503 243d 699c 103b 893f 153b a96b ea3c
00000260: 57f6 fc3d 52a4 0f3d 113c 2d3a 2b98 243d
00000270: 7857 c23d 7a0a e93b cd31 9839 34b9 263d
00000280: b2e6 7e3e f348 dd3d f9a5 7b3c b557 773e
00000290: 6ee9 db3e 8d79 f93e a3ee 7f3d 7e74 d33e
000002a0: b94d 1e3d 5dc6 f23b c51f a43b 3a86 353d
000002b0: 531f c53e 774d d73e c110 413d 26c0 8d3e
000002c0: ab5d 743d 9601 b83b cbc1 813c 1065 283e
000002d0: 9f76 0d3e 6ceb a83c 6388 1b3b 6e16 633d
000002e0: d5fc c93c 5614 973c 8fc0 223b 23ff ca3c
000002f0: e3b7 563a 5a59 eb3c 4b16 803a 3904 203c
00000300: d8a4 ca3e eb42 893e 190f 4c3c 3a8d dc3d
00000310: 7321 6b3d 5d56 da3b 4920 9b3b 59ca 143d
00000320: 76bf 603c d2bb 923d 363a f13b b410 9d3c
00000330: d939 cf3e 02c4 a93e 14ce 4a3d d23f e73e
00000340: 5b49 b53e 4b70 833e dac1 ce3c d72f 713e
00000350: d2bf 093c eca8 3e3c b0b4 4b3c e621 093e
00000360: cc28 493f 050e cc3e a8d3 e23c f6ed 893e
00000370: b102 b73d e929 bd3d 249f 343c 48b2 9c3d
00000380: e7e8 9f3b cc2f 163c bab4 fb3b ffaf 3d3e
00000390: 46bc 213f 7dfc 0f3f dc88 383d 8400 803e
000003a0: e235 633e 0f52 3d3d 4335 963a fcf5 223d
000003b0: 86b1 ca3d b672 073e 0e6b 253d 7627 d83e
000003c0: 1d9d 9a3d ebf0 4e3e 8a56 513c 4346 443c
000003d0: 79e2 e63e ab49 2a3e dfc9 103c 99b5 633e
000003e0: a523 0c3f 9c4d 953e f625 ab3c b791 733e
000003f0: d207 2e3f 646b 043f 86cf 7c3d c485 083f
0.60218936 0.3732204 0.026156874 0.19892469 0.0012932285 0.053110085 0.009531141 0.063906066
0.6504199 0.48930746 0.048511665 0.33511928 1.0155672 0.67805576 0.08573911 0.75131553
0.71187216 0.42076623 0.02716924 0.2562655 0.6416744 0.3468908 0.020833315 0.21308137
0.03094836 0.01805063 0.020047598 0.15991175 0.017326234 0.017067436 0.0011449406 0.027246943
0.6101279 0.34224677 0.009760137 0.08479413 0.001521809 0.031264823 0.016595457 0.15347247
0.05579734 0.19100009 0.0069989725 0.0053248056 0.57704324 0.3001537 0.01941191 0.19663073
0.8459615 0.5594408 0.054876186 0.45511353 0.17588499 0.22749399 0.019833608 0.08831772
0.49102944 0.43495896 0.08760622 0.81432134 0.21587005 0.030280806 0.00049901044 0.039437916
0.057180233 0.18136175 0.019916195 0.06711868 0.693617 0.27464488 0.0043976507 0.085097
0.45121682 0.22241336 0.015676094 0.18889968 0.02005706 0.127015 0.011448439 0.0155858975
0.64035434 0.5333997 0.09279284 0.83350384 0.10051975 0.16473974 0.073145606 0.7503072
0.4292124 0.32159135 0.030988822 0.24388017 0.43871927 0.46398655 0.04657097 0.25128636
0.38707638 0.43638685 0.08097337 0.6928346 0.12145888 0.015421195 0.0020615766 0.08399627
0.059787977 0.18180142 0.023872757 0.14580372 0.5679256 0.5386106 0.07402576 0.5436785
0.18375733 0.11472314 0.024484064 0.3156137 0.44656545 0.47612068 0.071228124 0.50313115
0.35091928 0.08882486 0.0037624494 0.11558186 0.76419324 0.4580078 0.013517114 0.10228914
0.64781886 0.45715398 0.028250633 0.19695029 0.4326421 0.47210363 0.010170413 0.068680994
0.8297197 0.42691612 0.031941976 0.30442038 0.0050690807 0.026978608 0.010841001 0.07495797
0.005254613 0.044974398 0.0065093604 0.068388395 0.0400423 0.0022065884 0.0022773466 0.02861579
0.12351673 0.035068817 0.0006608377 0.04018418 0.094893396 0.0071118446 0.00029028804 0.040703967
0.24892691 0.108049296 0.015359395 0.24154551 0.4295153 0.48725548 0.06248344 0.41299814
0.03864834 0.0074089007 0.00500867 0.04431746 0.3850046 0.42051288 0.04713512 0.2768566
0.05965964 0.0056154234 0.015839478 0.16444802 0.13814782 0.02062007 0.0023732416 0.055441312
0.024656693 0.018442314 0.0024834012 0.024779862 0.00081908534 0.02872913 0.0009772269 0.009766632
0.3957889 0.26808867 0.012454771 0.10769124 0.057404947 0.0066631273 0.0047340733 0.036325786
0.013717523 0.0716473 0.0073616756 0.019173004 0.40473822 0.33157355 0.049512938 0.4516588
0.35407528 0.2567161 0.02523892 0.23553406 0.00840755 0.011636954 0.012433216 0.13391837
0.78577876 0.39854446 0.027688816 0.26939362 0.0893606 0.09236509 0.01102427 0.07651192
0.004880059 0.009166669 0.0076814564 0.18524168 0.6317791 0.5624464 0.045052394 0.25000393
0.22188523 0.046220835 0.0011459965 0.03978537 0.09897141 0.13227352 0.0403853 0.42217606
0.07549498 0.2020909 0.01277698 0.011979642 0.4509466 0.16629665 0.008837192 0.22237243
0.5474189 0.29160774 0.020892125 0.23786055 0.6798068 0.51726365 0.061721347 0.5332911

exp_avg f4 [64]
00000000: cc92 20c0 25ad bcbf 3b44 00c0 5797 67c0
00000010: e9f3 57c0 e33e 4b40 8fe8 823e 7af8 a43f
00000020: ec45 3f40 38b9 97be 6202 69bd ef7b 3bc0
00000030: b0d7 5bc0 cbdf fc3c 6448 f13f 63a1 bdbf
00000040: ad72 35be 4708 3140 39e9 46c0 3a5a 0d3f
00000050: 3727 f03f 906f f13e d34f 1c40 a7f7 a3bf
00000060: 85c1 acbf 8e63 db3f b3ca 433f 6e33 e9bf
00000070: 3c01 a83f 640a a6bf 3961 e5bf 3bfa 6b40
00000080: c41f 4040 0030 c33f b064 6c40 57d0 aebe
00000090: 16e3 aabd 34b4 f93f cae6 bd3f 189e ba3f
000000a0: b80b 10c0 11c7 8cbf 8e39 9b3f b3ab 92bf
000000b0: e587 7c3f 6f73 e9bf 79d0 aabf d9eb 35bf
000000c0: 20e5 efbf b3d4 e63f 91ec 1e3f 9ccc 09c0
000000d0: b3bf c93f af75 cabe cda6 5fc0 e973 17bf
000000e0: cbaa a33e 6381 1ac0 a78e 1940 873e 673f
000000f0: 1f3c a2be 226f cd3f f21e 4040 00f9 26c0
-2.5089598 -1.474034 -2.0041645 -3.618612 -3.374262 3.1757133 0.25568053 1.2888329
2.9886427 -0.29633498 -0.056887038 -2.9294393 -3.4350395 0.030868432 1.8850217 -1.4814876
-0.17719527 2.7661302 -3.1079848 0.552158 1.8761967 0.47155428 2.442372 -1.2809952
-1.3496557 1.7139757 0.7648117 -1.821882 1.3125377 -1.2971921 -1.7920295 3.6871479
3.0019388 1.5249023 3.6936455 -0.34143326 -0.083440945 1.9508119 1.4836056 1.4579496
-2.2507153 -1.099825 1.2126939 -1.1458648 0.9864486 -1.8238353 -1.3344871 -0.71063
-1.8741798 1.8033661 0.6207972 -2.1531134 1.5761627 -0.3954291 -3.4945557 -0.5916124
0.31966242 -2.4141471 2.3993318 0.90329784 -0.31686494 1.604954 3.0018888 -2.6089478

exp_avg_sq f4 [64]
00000000: cfa2 bd3e 8e86 a93d 3aa4 933e 0011 123f
00000010: 8007 ce3e 72ff be3e f2d7 b23d 2b8f a83d
00000020: 3ab5 bd3e b609 dc3c 50e0 253d 3eee a23e
00000030: 235c f53e 9d4e de3d 2182 6d3e cdf0 f23d
00000040: 1329 5f3d 7bd4 a23e 7fc8 a83e 4305 343d
00000050: a6ee 9a3e 5871 a23d 8896 763e 7507 6a3e
00000060: 8f91 3e3e 41e5 043e de3f a03d 733d 7c3e
00000070: 75b2 2d3e 5236 553e 4c97 2c3e 85a2 e73e
00000080: 8e4e c73e 7065 883e d9a1 073f cd4b dd3c
00000090: 438c 5d3c e049 023e 11b0 c73d 42a4 eb3d
000000a0: b9d7 6a3e 33bc 553e 34cb 8e3d c0e2 213e
000000b0: 736b 703d c0cd 073e b2bc 933d 97c2 1f3d
000000c0: aa0f 673e f551 f23d 42bf 343d c9d4 7d3e
000000d0: 832e 333e 31c6 e33c d972 e03e 3fa8 343d
000000e0: 5bc0 a23d 9fd1 b13e 99de 3f3e 1729 d93d
000000f0: 8669 7e3d 88c3 803e ab14 a73e 06c1 9a3e
0.37038276 0.082776174 0.28836232 0.5705719 0.40240097 0.37304264 0.087325945 0.08230432
0.37052327 0.0268601 0.040497124 0.3182239 0.47921857 0.10854838 0.23194171 0.11862335
0.05448253 0.31802735 0.32965466 0.04395033 0.302602 0.07931775 0.2408086 0.22854407
0.18610214 0.12978078 0.07824682 0.24632816 0.16962607 0.20821503 0.1685459 0.4524118
0.3892712 0.2663989 0.52981335 0.027013684 0.0135222105 0.12723494 0.09750379 0.11505939
0.22933854 0.20872574 0.06972352 0.15809155 0.05869622 0.13262081 0.07213725 0.039003935
0.22564569 0.11832038 0.04412771 0.24788202 0.17498212 0.027804466 0.43837622 0.044105764
0.07946845 0.3473024 0.18737258 0.106035404 0.062112354 0.25149179 0.32632956 0.3022539

exp_avg f4 [64, 64]
00000000: 903c 23be 2bc3 7cbd 001c 5bbe 1a43 07be
00000010: 8c94 ce3c b22b a2bd 346f acbc f551 d9bd
00000020: a8f5 313e 40e2 da3d 23a8 89be fb42 85bd
00000030: c171 ccbc c36b 14be f26d fe3d 9498 96bd
00000040: 969a cd3c 050d eb3d bc72 083c 8a42 43bd
00000050: 7825 bd3c 61ad 953e fe0a 68bd 7135 8cbe
00000060: b6ef a4bc 2126 28be 4451 d23d 2a3b 40be
00000070: 8834 6fbe fc49 cdbd 94cc 0dbe 0576 f43c
00000080: 11e4 243c 249e 633e 76d1 bc3d ed32 ce3d
00000090: e407 6ebc c7c7 803c 7406 d63d 68f5 28bc
000000a0: e58a 293e dad0 923d 4e5a 0fbe 0268 17be
000000b0: c7df d9bc 2ce7 71be 425b 0fbd 335e 0b3d
000000c0: 0229 823d fcb1 a83c 8d1e a9bd 219e fa3d
000000d0: 8483 12be fdea 0f3e ffbc 11be 9e8a 8cbb
000000e0: 650f 99be 006b 2d3b ccc7 cb3d c350 86bd
000000f0: 85f0 d7bd 65d7 383e 22b7 44bd ccdb 6fbd
00000100: 5515 29be 4404 1ebd c67f 6cbe 00a1 02be
00000110: 0bd4 143d d242 d3bd e41d 14bc d37b 0abe
00000120: aea2 243e 62de 223e 4c41 98be 5160 3cbd
00000130: c9c5 7dbc d43a 34be e41c 223e 097f 42bd
00000140: 4888 443d cb51 c33d 0c22 2f3d 021b 6fbd
00000150: c302 c63c 707c af3e 3a46 84bd b9fc 92be
00000160: a10b 91bc 9c15 3fbe d54f b93d 5810 55be
00000170: accd 81be 4559 05be 31df 02be 38e8 013b
00000180: b1c4 a33b c412 6e3e be7c a23d 7cec 123e
00000190: 27b9 a73b d6b8 283b a785 913d eebe 96bc
000001a0: c303 3b3e dd81 823d 1871 37be 5684 28be
000001b0: 6467 43bd d097 62be 5162 a7bc 679f 723d
000001c0: e9f9 823d bbc0 e039 d254 cbbd 4eee 023e
000001d0: 2595 1bbe 09b7 3f3e 2dd5 10be b197 e13b
000001e0: 2708 a4be 842f 7f3b 6743 d93d 9aa7 88bd
000001f0: df95 debd b07d 243e f861 40bd 2ab4 6cbd
00000200: 17ad 673e d7dd 483d c525 8c3e 6151 463e
00000210: 831a 753d df0a 17bc f791 3a3d 2e92 f13d
00000220: bc6d 5ebe d7fd b6bd 945c 993e 0f22 d33d
00000230: 0e4c a23d c2b3 3f3e d683 47be dc38 ce3d
00000240: f6af 5bbd 2466 18be d4f0 8a3d 7f74 a73d
00000250: a9c5 d1bd 9ab5 a2be 5a13 51bc e38a ab3e
00000260: 6d48 e33c ea85 013e 6e91 a1bd 49c6 773e
00000270: e45d 223e b599 273e 87ca 1d3e 7592 09be
00000280: 40a9 a7bd 992d 91be 0317 08be f863 c2bd
00000290: 3980 c53c 8900 c2bc cae3 0fbe cdaa 863c
000002a0: 2582 dabd fdff 5abc 14ad fa3d 4611 3c3e
000002b0: c1ef 593b 6218 723e 62ee ad3c 2be4 56bd
000002c0: 454d dbbb 9ed3 a3bc 43b7 dd3d 105d 54bd
000002d0: 4fc8 b23d 8a5f fdbd 0189 4b3e 1014 8a3c
000002e0: 6528 8d3e 8a40 913d bbd9 a7bd 5e9f 5b3d
000002f0: 1583 183e d479 50be c5d7 373c 9d0d 853d
00000300: a8aa a6be fb2e 2abd 9747 d3be 8960 a2be
00000310: f0ab 16be 2f56 a13d a30b 90bd 4dff 20be
00000320: c425 a53e 636c ed3d 13d8 cbbe 722b 17be
00000330: 5472 1abe 284c 95be 8283 a43e c43b 0fbe
00000340: 5f9e c93d e766 553e 3899 1dbe 30f5 c9bd
00000350: c226 4d3e d62d ef3e 6826 893d 4b9a f4be
00000360: d712 51bd 3e18 08be 3af0 993d e473 c0be
00000370: 051a 20be 48b2 8abe c1f5 5fbe 972e 6c3e
00000380: d8ce 053e 726c d23e d9aa 383e 26d1 0c3e
00000390: 79dc 44bc e507 5d3c 882e 503e 1c5d 44bb
000003a0: 2681 bf3d f63b c9bc a89b 33be 4a0d 90be
000003b0: 8166 103c d66c 9dbe 87fa 1e3c 57bf c03d
000003c0: 3f9d 64bd 9aae 303c 1ef1 1abe d833 973c
000003d0: e392 99bd c94e 2a3e 99c7 97be f841 00bd
000003e0: 902f b3be 20a8 e9bd cd32 143e 88ac 66bd
000003f0: a4d0 48be 4eef 973e fd01 ac3c 7ff0 d1bd
-0.15941072 -0.061709564 -0.213974 -0.13209191 0.025217317 -0.079184905 -0.02104912 -0.10611335
0.17378867 0.10687685 -0.2688609 -0.06506916 -0.024956586 -0.14494233 0.12423314 -0.07353321
0.025098126 0.11477093 0.008328136 -0.04767088 0.023089156 0.2923384 -0.056651108 -0.27384523
-0.020133834 -0.16420795 0.102694064 -0.1877257 -0.23359883 -0.10023877 -0.13847572 0.029841432
0.010064141 0.22228295 0.09219639 0.10068307 -0.014528248 0.015720261 0.104504496 -0.010312416
0.1655689 0.071687415 -0.13999292 -0.1478577 -0.026595963 -0.23623341 -0.03499914 0.034025382
0.06355478 0.020592682 -0.0825778 0.12237192 -0.14307982 0.14054485 -0.14232253 -0.0042889854
-0.29894558 0.0026461482 0.099502176 -0.06558373 -0.10543922 0.18050916 -0.04802621 -0.058559224
-0.16512044 -0.038578287 -0.23095617 -0.12756729 0.036335032 -0.10315479 -0.00904033 -0.13523798
0.16077682 0.15905145 -0.29737318 -0.045990292 -0.01548905 -0.17600566 0.15831333 -0.04748443
0.04798153 0.09537085 0.04275708 -0.058375366 0.024171239 0.34274626 -0.06458707 -0.28708437
-0.01770574 -0.18660587 0.0904843 -0.20807016 -0.25352228 -0.13022335 -0.12780453 0.001982225
0.0049978127 0.23249346 0.07933949 0.14348024 0.0051185074 0.0025744936 0.0710557 -0.01840159
0.18263154 0.06372426 -0.17914236 -0.16456732 -0.047706023 -0.22128224 -0.020432623 0.05923405
0.06395323 0.00042868205 -0.099282876 0.12786219 -0.15193613 0.18722166 -0.1414382 0.006884538
-0.3203747 0.0038938234 0.10608559 -0.066725925 -0.108684294 0.16063571 -0.04696843 -0.057789005
0.22624622 0.049039688 0.27372566 0.19366981 0.059839737 -0.0092189 0.04554936 0.1179546
-0.21721548 -0.08935135 0.29953444 0.103092305 0.079246625 0.18720916 -0.19483885 0.10069439
-0.053634606 -0.14882714 0.067842156 0.08176517 -0.10242779 -0.31779176 -0.012760961 0.335044
0.027744496 0.1264874 -0.07889067 0.24196734 0.15856129 0.16367228 0.1540929 -0.13434775
-0.08186579 -0.283551 -0.13290028 -0.09491724 0.024108993 -0.023681896 -0.14051738 0.016438866
-0.10669354 -0.013366696 0.12240043 0.18365964 0.0033254477 0.23642114 0.021231834 -0.05246369
-0.006692561 -0.019998368 0.1082597 -0.051846564 0.08729612 -0.12371738 0.19876482 0.01685527
0.2756988 0.07092388 -0.08195826 0.05361878 0.14893754 -0.20358974 0.011220877 0.06496737
-0.32552075 -0.04154871 -0.41265556 -0.31714275 -0.14714026 0.07877766 -0.070334695 -0.1572239
0.32255375 0.11592939 -0.3981329 -0.14762667 -0.15082675 -0.29159665 0.32131582 -0.13987643
0.0984466 0.20840035 -0.1539048 -0.09861219 0.20034316 0.46714658 0.066967785 -0.47773966
-0.051043358 -0.13290498 0.07516523 -0.37588418 -0.15634926 -0.27089143 -0.21871091 0.23064648
0.13067186 0.41098362 0.18033923 0.13751659 -0.012015455 0.013490652 0.2033025 -0.0029962724
0.09350805 -0.024564724 -0.17539847 -0.2813514 0.008813501 -0.30747098 0.009703285 0.09411495
-0.055814024 0.010783816 -0.15131041 0.018457338 -0.074987195 0.16631617 -0.29644468 -0.031312913
-0.34997225 -0.114090204 0.14472504 -0.056316882 -0.1961084 0.29674762 0.020997042 -0.10250949

exp_avg_sq f4 [64, 64]
00000000: ed1c cc3a cc60 8739 2f1c 263b 3b79 833a
00000010: 7d89 9339 1793 fc39 01e6 f638 95c7 433a
00000020: 0c0f 9e3a fbb0 8d3a dc06 583b 1a33 2439
00000030: 2e23 3d39 bda6 df3a d94e 0e3b e12f af39
00000040: 4fab b039 e775 153a ee38 9b39 ef36 8a39
00000050: 5cf2 1c3a 85f1 933b 06fc c839 9b9d 633b
00000060: 374b 6c38 bb28 8f3a 6bee c539 9b04 0b3b
00000070: 985e 053b 8a32 cd3a fdb0 463a ffe8 9639
00000080: 480d 3039 89f5 263b 05dc c139 a8c4 733a
00000090: 5ade 1a38 d222 b738 d466 033a 9ae7 9438
000000a0: 9529 8d3a d366 d639 b074 8b3a a808 9a3a
000000b0: 715b 1439 494e f73a 7377 0b39 87d3 bb39
000000c0: 956b 6339 9041 3339 34be fd39 9cbd 493a
000000d0: 36fa 533a e54a a93a 9608 8b3a 620a 0539
000000e0: 2e6e 593b ef95 7b39 eecb a639 8add a739
000000f0: bfab 173a 5402 a23a f70d 2739 fefa ef38
00000100: 6a78 e43a 8064 9a39 985c 493b 32bd 853a
00000110: e579 8039 5c1e 123a eced 8b38 a008 9b3a
00000120: 1b9a 843a 194e f83a e2a3 873b 179f b438
00000130: b116 3239 0a35 1e3b 2999 3f3b 6439 8c39
00000140: 793c 0e3a 9f24 c639 6540 a939 106e c339
00000150: b142 243a c7c3 cf3b 7c86 be39 69c8 833b
00000160: 8f0c 5538 30d6 bc3a 9c69 b739 d537 2e3b
00000170: e9f3 173b 338a 0c3b c637 223a 219f 4239
00000180: 11d1 3439 7cc0 3d3b d477 9539 8401 d63a
00000190: 8fcf 1d38 7a43 2339 bcb2 bf39 00e4 ec38
000001a0: a5f3 a43a 4607 d339 5ec2 e93a 6e9d c43a
000001b0: eea1 8039 2505 d83a bd6a 2f39 7190 213a
000001c0: d713 8b39 2c9a 8b39 7ae0 353a dcd9 453a
000001d0: d8fc 603a 6baf 0b3b f95f 8d3a a40d 1839
000001e0: 8c00 7f3b de4f 9839 3d9c c039 2723 9a39
000001f0: 92d7 2f3a fb98 733a eb35 0739 a015 f238
00000200: 6582 503b 033c 9339 384c 993b 24d9 1a3b
00000210: 5626 653a fdbb 323a 773f 5f39 1e8a 903a
00000220: ee32 fb3a c248 a93a 5350 a03b c8b7 e639
00000230: cb47 303a c65c 423b 77d6 9f3b 63b5 143a
00000240: 379d 443a 6b5e 763a 478c 3a3a 4758 3f3a
00000250: 9ac3 093b 80d9 ed3b f205 4a3a 2fdf cd3b
00000260: 3947 f838 7497 463a 0a8a a039 a2a7 883b
00000270: 02e6 9e3a 6062 753b cac1 793a a4d9 c53a
00000280: f2e8 483a d49d 963b 57f8 503a 4ad8 c13a
00000290: 5a2e 8838 f1a7 f638 4e22 593a 0376 e038
000002a0: baf6 1f3a 05b4 3b3a ba55 a33a 527b 133b
000002b0: 408f 7939 ede4 fd3a ada3 4a39 39cc 113a
000002c0: c2a0 8139 7c75 a239 0ae0 623a 9ebc 533a
000002d0: 52d8 0a3a 6c4f bf3a dde4 083b 15e2 c938
000002e0: b39e 403b 4b2e 873a 9ddd 6939 6b64 9a39
000002f0: 05af b93a d355 d33a 62ad 5339 d037 3439
00000300: 9ba3 eb3b 58ed 683a f120 413c 7865 da3b
00000310: 594d 4d3b 8cad 0a3b 6115 ba39 9807 213b
00000320: 26c0 853b ffef 573b 1dfc 1a3c 6fea 713a
00000330: bde9 0c3b cf01 063c 9cde 583c 6a4c 9a3a
00000340: 147c 163b 4aca d33a 074b 173b 5ad5 b53a
00000350: 13ac ba3b 3487 8f3c 1fc4 ff3a 2b70 653c
00000360: d180 9839 7779 9e3a 42f0 2b3a 6fa0 303c
00000370: 0835 d53a 5be8 233c d4ea da3a 353a 813b
00000380: 8c78 f43a a4ca 253c d554 c63a b0e3 823b
00000390: 47ae 3839 8938 f839 2d5d e33a ac7a 9239
000003a0: 98a3 693a cb5d fd3a 2e04 5f3b f59e bc3b
000003b0: 47c9 1b3a 7406 4b3b 6e63 363a 79c3 ef3a
000003c0: f017 af3a 3ed7 7a3a 49de 033b 4af9 cb3a
000003d0: de56 623a 047c 6f3b d12f a63b 3bf9 4a39
000003e0: cb55 a03b e581 203b 9535 3a3a ff4f bd39
000003f0: a4a9 2a3b a779 453b be25 1a3a 4b0d 023a
0.0015572585 0.00025821326 0.0025346389 0.0010030636 0.00028140462 0.00048174776 0.00011773036 0.00074683997
0.0012058928 0.001081019 0.0032963073 0.00015659296 0.0001803755 0.0017063242 0.0021714477 0.00033414274
0.0003369697 0.0005701468 0.0002960632 0.0002636234 0.0005987042 0.0045148754 0.00038334745 0.0034731391
5.6336834e-05 0.0010922173 0.00037752403 0.0021212462 0.0020350572 0.0015655321 0.0007579474 0.00028783825
0.00016789616 0.002547594 0.00036975756 0.00092990184 3.6923542e-05 8.732606e-05 0.0005012576 7.100329e-05
0.0010769839 0.0004089387 0.0010639634 0.0011751847 0.00014148444 0.0018867935 0.00013300571 0.0003582502
0.00021688484 0.00017095194 0.00048397633 0.00076957955 0.00080862956 0.0012915997 0.0010607417 0.00012687736
0.0033177244 0.0002399308 0.00031813927 0.00032017782 0.0005785785 0.0012360313 0.00015931563 0.00011443159
0.0017430906 0.00029448047 0.0030725356 0.0010203479 0.0002450488 0.0005573982 6.672353e-05 0.0011828132
0.0010116728 0.0018944173 0.0041394094 8.612702e-05 0.00016983856 0.00241405 0.0029235578 0.0002674564
0.0005425881 0.00037792788 0.0003228217 0.000372753 0.00062660413 0.006340477 0.00036339823 0.0040216935
5.0794853e-05 0.0014407095 0.00034983165 0.0026583571 0.0023186153 0.0021444678 0.00061881205 0.00018560562
0.00017244021 0.002895384 0.00028508774 0.0016327356 3.762502e-05 0.00015570028 0.00036563526 0.00011295825
0.0012584819 0.00040250475 0.0017834415 0.0015000531 0.0002453471 0.0016481025 0.00016729064 0.0006163186
0.00026526928 0.00026627013 0.00069380517 0.0007547417 0.00085825985 0.0021314274 0.0010786048 0.00014500931
0.0038910238 0.00029051205 0.000367375 0.0002939936 0.00067078427 0.000929251 0.0001289469 0.00011543487
0.0031816002 0.00028082737 0.0046782754 0.002362796 0.0008741369 0.00068181736 0.0002129058 0.001102749
0.0019164959 0.001291536 0.004892388 0.00044005946 0.0006724565 0.0029657348 0.004877861 0.00056727807
0.00075002335 0.00093982246 0.000711624 0.0007299226 0.0021021129 0.007258594 0.00077065744 0.006282709
0.00011838828 0.0007575669 0.00030620425 0.004170374 0.0012122991 0.003744267 0.0009527473 0.0015094769
0.0007664106 0.0045964513 0.0007971576 0.0014789191 6.493619e-05 0.000117614756 0.0008283005 0.00010703134
0.0006102134 0.0007160309 0.0012461462 0.0022503925 0.00023799855 0.0019370593 0.00019325195 0.00055617426
0.0002472457 0.0003098658 0.00086546 0.00080771174 0.00052965165 0.0014595813 0.0020888366 9.626538e-05
0.0029391467 0.0010313479 0.00022303169 0.00029447986 0.001416654 0.00161236 0.00020187118 0.0001718693
0.007191134 0.00088854646 0.011787639 0.006664928 0.003132662 0.002116057 0.00035492613 0.0024571177
0.004081744 0.0032949445 0.009459523 0.0009228354 0.0021501624 0.008179142 0.013236668 0.0011772041
0.002296214 0.0016158309 0.0023085491 0.0013872788 0.0056967824 0.017520525 0.0019513405 0.014003794
0.00029087675 0.0012090643 0.00065589335 0.010780438 0.0016266415 0.010004128 0.0016702064 0.0039437064
0.0018651648 0.010119114 0.0015131483 0.0039944276 0.00017612531 0.00047344368 0.0017346494 0.00027938688
0.0008912622 0.0019330321 0.003402959 0.005756254 0.00059427734 0.0030979188 0.0006957565 0.0018292508
0.0013358574 0.0009568817 0.0020121506 0.0015561965 0.000863416 0.0036542425 0.005071618 0.00019357067
0.00489304 0.0024491486 0.0007103321 0.0003610849 0.0026041055 0.0030132325 0.0005880258 0.0004961087

exp_avg f4 [64]
00000000: f4a7 19bf b5db 36bf ab11 023f 571d 20bf
00000010: 9dcf 4dbf 1579 cf3e b0d1 bf3e b8f2 1e3e
00000020: 8b10 803e 819d 4f3f 869c 96be af4b 0d3f
00000030: aed5 1fbf 8148 023f 2b11 263e b468 95bd
00000040: 151f efbd 1d30 163f 404d a3be 471d 0a3f
00000050: b10a 033f 04a5 933e d112 fdbe 568d e9be
00000060: 90bf 503f 1296 083f 1cec 0b3f b9a2 4e3e
00000070: d654 733d 5aa8 3dbe 3803 52bf 9960 243f
00000080: 96ea 023f befd 0b3f 5763 173f d247 0a3e
00000090: c8e2 44bc 3738 23bf d742 31bf f54f 76be
000000a0: e195 d23e eb67 eb3a 8171 563c 95b4 863e
000000b0: 4e41 a7be b7c4 03bf fb44 09be d7da d9bc
000000c0: 6057 293f 6a55 c3be cd55 053f 2343 e0be
000000d0: db75 c839 c859 963e 23b4 cdbe b12a 08be
000000e0: ad80 f43d d775 163c d3f0 5c3d c09f 8cbe
000000f0: 4f38 763d 2861 fe3c 9f3d 193f c42a 0bbf
-0.600219 -0.71428996 0.5080821 -0.6254477 -0.8039492 0.40522066 0.37464666 0.15522277
0.2501262 0.81099707 -0.29416293 0.5519361 -0.62435424 0.5089188 0.16217487 -0.07295361
-0.1167585 0.58667165 -0.31894875 0.53950924 0.5118819 0.28836834 -0.49428418 -0.45615643
0.815423 0.5335399 0.5465715 0.20179261 0.059407078 -0.18521252 -0.8203616 0.64209896
0.511392 0.54684055 0.59135956 0.1350396 -0.0120169595 -0.6375765 -0.69242615 -0.24053939
0.41129974 0.0017960047 0.013088585 0.26309648 -0.3266701 -0.5147204 -0.1340522 -0.026593609
0.6614895 -0.38151103 0.52084047 -0.4380122 0.00038234782 0.29365373 -0.40176496 -0.13297535
0.119386055 0.009183369 0.053940605 -0.2746563 0.060112294 0.031052187 0.5985965 -0.5436213

exp_avg_sq f4 [64]
00000000: 106b 793c e096 b33c fec1 543c 049d c63c
00000010: b3cb 313d 2cb9 bd3c 8481 4c3c 74c1 d53b
00000020: 27b4 943b 9783 523d 1da4 303c 6e20 d23c
00000030: 5e47 b73c ffcf 733c 9485 093c e5ee ed3a
00000040: 8a15 2b3b 9308 983c a09b 2c3c d9c9 963c
00000050: b63c b13c c83e 9f3b 7d94 ec3c d705 fa3b
00000060: 3ce3 493d cafc 923c 24e2 863c 3fd5 4b3b
00000070: 9533 db39 79e3 eb3b e148 913d 3ff4 933c
00000080: 679f 113d 1435 f83c a3d6 ba3c 9982 a73b
00000090: 7db1 483a 5b73 d53c 5f57 0e3d 2717 533b
000000a0: 2ea0 b53c 48d1 243b af40 193a a412 3e3b
000000b0: 4a2d 8e3c 762f 063c 7dfb b23c b1d2 293a
000000c0: f7a8 183d d2c4 663c 3744 673c 09f8 0b3c
000000d0: 7a47 713a 9fbe d43b 050c 863c 1e3b 4c3b
000000e0: 955e b43c 2b41 ed3a ae46 203c 690a 743b
000000f0: 5013 0c3c d737 923a b5b2 753c d78c 243d
0.01522328 0.021922529 0.0129857045 0.024244793 0.043407153 0.023159586 0.012482051 0.0065233056
0.0045380774 0.051395025 0.010781315 0.02565023 0.022372898 0.014881133 0.008393664 0.0018152861
0.0026105368 0.018558776 0.010535151 0.018406795 0.021635395 0.004859779 0.028879398 0.0076300907
0.049288973 0.017942805 0.016465254 0.0031102446 0.00041809367 0.0071987477 0.07093979 0.018060802
0.03555241 0.030298747 0.022807425 0.005112004 0.00076558423 0.026055982 0.034751292 0.0032209845
0.022171106 0.0025149155 0.00058461254 0.002900281 0.01735558 0.0081900265 0.021848435 0.0006478234
0.037270512 0.014085012 0.014115385 0.008543023 0.0009204071 0.0064924504 0.016363153 0.0031163166
0.022017756 0.0018101087 0.009782476 0.003723765 0.008549526 0.0011155558 0.01499622 0.040173378
