hw2/data/sb_rtg_na_CartPole-v0_16-06-2019_20-34-21/41/model.pkl (torch_old, 40470 bytes, 24 tensors)

weight f4 [32, 4]
0.76320887 0.3038208 -0.28230393 -0.5635784 0.5083089 0.8548553 -1.0502015 -0.76191
-0.16886404 -0.7207348 0.645819 0.8834689 -0.5607366 -0.15830357 0.5062384 0.88922334
-0.78511524 -0.4114283 0.81643033 0.81597066 0.21549553 0.6598808 -0.52552295 -0.8929228
-0.5988647 -0.4693724 0.8645606 0.9032441 -0.8030782 -0.76012146 0.9485395 0.9062851
0.22600557 0.9120148 -0.8880033 -0.8597212 -0.381818 -0.48632032 0.80397636 0.92145896
0.6194684 0.7901117 -0.79793876 -0.5639789 -0.07072452 -0.34473002 -0.1937557 0.08135252
-0.75389045 -0.26270452 0.8098334 0.6779732 -0.9866774 -0.6379854 0.90956837 0.97992975
0.28580913 0.4472428 -1.0520021 -0.84282744 0.59717786 0.5849646 -0.81099796 -0.8353566
-0.8303159 -0.7487715 0.43880028 0.66141367 0.37312466 0.9861382 -0.20344767 -0.19641308
0.6862897 0.5176462 -0.73878837 -0.8827976 -0.34615785 -0.9406683 -0.7660978 -0.12840389
0.83006257 0.41502833 -0.8139179 -0.9366059 -0.88923043 -0.41130024 0.13567741 0.29705375
-0.48809546 -0.67133754 0.7351306 0.98824316 0.30997846 0.40073675 -0.5623393 -0.8952696
-0.7010058 -0.91433674 0.7773159 0.8587088 -0.267619 -0.31589913 0.2688545 0.96349174
-0.3531688 -0.29169837 0.2467017 0.560454 -0.98273635 -0.45686552 0.4386512 0.9952752
0.36981565 -0.35462418 -0.17834656 -0.68381876 0.46400395 0.06162685 -0.48104426 -0.4584973
-0.83958113 0.12770428 0.4332673 0.55446637 0.51356906 0.6963343 -0.54006237 -0.751239
00000000: a861 433f 668e 9b3e 248a 90be ad46 10bf
00000010: 8820 023f ccd7 5a3f 016d 86bf 890c 43bf
00000020: b2ea 2cbe 1382 38bf 6554 253f 052b 623f
00000030: 6f8c 0fbf 551a 22be d798 013f 24a4 633f
00000040: 50fd 48bf bba6 d2be 9401 513f 74e3 503f
00000050: dcaa 5c3e f3ed 283f ac88 06bf 9796 64bf
00000060: 324f 19bf 9451 f0be d853 5d3f 013b 673f
00000070: 8896 4dbf 5297 42bf 7cd3 723f 4d02 683f
00000080: 016e 673e cd79 693f 2f54 63bf b016 5cbf
00000090: a67d c3be fafe f8be 65d1 4d3f bce4 6b3f
000000a0: 7b95 1e3f c344 4a3f b745 4cbf ec60 10bf
000000b0: 04d8 90bd 7480 b0be e567 46be 269c a63d
000000c0: f7fe 40bf 3581 86be 3e51 4f3f a78f 2d3f
000000d0: e496 7cbf 0353 23bf 79d9 683f addc 7a3f
000000e0: 9355 923e 02fd e43e 01a8 86bf 8ac3 57bf
000000f0: a6e0 183f 3dc0 153f 909d 4fbf eed9 55bf
00000100: 958f 54bf 7daf 3fbf 6eaa e03e 6852 293f
00000110: 320a bf3e 8e73 7c3f 9654 50be 8320 49be
00000120: afb0 2f3f 7684 043f 3c21 3dbf 06ff 61bf
00000130: 9a3b b1be a3cf 70bf fc1e 44bf 4f7c 03be
00000140: fb7e 543f 987e d43e ec5c 50bf 67c5 6fbf
00000150: 9ba4 63bf f295 d2be 05ef 0a3e 6e17 983e
00000160: a6e7 f9be c7dc 2bbf 8531 3c3f 81fd 7c3f
00000170: 7fb5 9e3e 5e2d cd3e 78f5 0fbf 6330 65bf
00000180: 1e75 33bf f911 6abf 2dfe 463f 57d4 5b3f
00000190: 5c05 89be 88bd a1be 4ca7 893e 65a7 763f
000001a0: 8ad2 b4be 7d59 95be 5f9f 7c3e ea79 0f3f
000001b0: 9c94 7bbf 47ea e9be e496 e03e 5bca 7e3f
000001c0: 7a58 bd3e 4d91 b5be 7ba0 36be bf0e 2fbf
000001d0: ed91 ed3e 706c 7c3d 6f4b f6be 28c0 eabe
000001e0: caee 56bf e9c4 023e 36d5 dd3e 82f1 0d3f
000001f0: 4379 033f f742 323f 8741 0abf 3351 40bf

bias f4 [32]
0.17238991 -0.42594975 0.12219748 0.1859496 -0.04580553 -0.14182577 0.1976525 0.3551357
-0.18443467 0.19867043 0.17144234 -0.15384191 -0.10662243 0.2313946 -0.15128908 -0.18816392
0.019376226 0.014948248 -0.37089702 0.19719253 -0.14654739 0.0019533169 0.024664287 -0.23311876
0.1076151 0.15419841 -0.072858915 0.08293769 -0.12069339 -0.19893426 -0.30348647 -0.078297384
00000000: fb86 303e 1616 dabe ac42 fa3d 9269 3e3e
00000010: 949e 3bbd c63a 11be 6b65 4a3e 59d4 b53e
00000020: 71dc 3cbe 4370 4b3e 958e 2f3e bc88 1dbe
00000030: dc5c dabd b5f2 6c3e 86eb 1abe 0bae 40be
00000040: e4ba 9e3c 7fe9 743c 37e6 bdbe d7ec 493e
00000050: 8510 16be 3803 003b c20c ca3c afb6 6ebe
00000060: 4e65 dc3d 30e6 1d3e 0e37 95bd 3cdb a93d
00000070: 192e f7bd 6cb5 4bbe 9462 9bbe 615a a0bd

weight f4 [32, 32]
0.28899178 0.8223896 -0.7722032 -0.5586514 -0.49614507 0.6917582 -0.6660179 -0.39834803
0.811569 -0.25049606 0.817694 0.3510244 -0.76862097 -0.3429021 0.55943745 0.7307862
-0.3712992 -0.22077647 0.43764624 0.26241472 0.38160667 -0.004248522 -0.22226107 0.7785631
-0.79140013 -0.24871302 -0.25334343 -0.63853663 0.6797408 0.15083915 -0.5697222 0.33421105
0.31495816 -0.84832525 0.31680998 -0.64701444 -0.2300306 -0.8271283 0.74169666 0.5479776
-0.27719635 0.7286074 -0.8716342 -0.14520133 0.3121675 0.72659415 0.18455958 -0.22060986
0.40691805 0.559504 -0.78470516 -0.49730104 -0.02473671 0.5149409 0.39277503 -0.16209415
0.56392944 0.33893126 0.80643445 0.06015275 0.3431534 0.490683 0.769787 -0.3362781
-0.27143744 -0.29380637 0.18025112 0.16577236 0.5341796 0.107371315 0.13754222 0.6420173
-0.44592446 -0.16244173 -0.015393037 -0.6833912 -0.41272524 0.08162692 -0.45722005 -0.6906385
-0.20166369 0.03227862 0.3891193 0.64795774 -0.68366617 -0.012202917 0.60005057 -0.1909297
0.2502014 0.4590223 -0.6005845 0.4593312 -0.11547233 -0.14211442 -0.22763096 -0.04072702
-0.23558293 0.5573044 -0.51493925 -0.09540642 -0.23102848 0.435194 -0.832207 -0.74086255
0.81379765 -0.3833992 0.39721188 0.4880311 -0.37597495 -0.5949273 0.46823186 0.51878476
-0.68691766 -0.541207 0.7637984 0.57707137 0.7381042 -0.3514057 -0.745117 0.44735065
-0.6461281 -0.7654161 -0.5350777 -0.44658062 0.031943563 0.322465 -0.57082343 0.2560078
0.5860947 -0.42133397 0.42836466 -0.35032403 -0.5959925 -0.50416595 0.72576255 0.6664975
-0.47400978 0.30978954 -0.24809484 -0.16734448 0.22736694 0.7904735 0.47314206 0.19939615
0.47590217 0.48901328 -0.6528088 -0.7604286 0.5872384 0.32176805 -0.01802003 0.6574576
0.70433456 0.6780561 0.37816 0.003900955 0.3008421 0.27908212 0.6610216 -0.7842461
0.7382647 0.22659442 0.37153512 -0.5617986 -0.34734616 0.6563073 -0.30183613 -0.23947115
0.22755383 -0.29243514 -0.4413327 0.51530915 0.30280283 0.29484913 0.4580185 0.3655555
0.24602745 0.7391142 -0.58641475 -0.4853782 0.37578908 0.7465415 -0.3631042 0.50519305
-0.31870452 -0.24421792 0.30797532 -0.6148581 0.56077415 0.23186731 0.39379302 -0.6211167
-0.007466114 -0.5936971 0.6975556 0.17349206 0.54541516 -0.3530424 0.26486266 0.61314064
-0.81625885 0.5171433 -0.26672482 -0.28334194 0.3508661 0.62935364 -0.11117797 -0.7335908
0.4980984 0.35047844 -0.44522366 -0.65020126 -0.41190693 0.20912312 0.5711676 -0.6819531
0.46229416 0.80869216 0.5053069 0.4197628 -0.45052654 -0.35502207 0.79403776 -0.7717884
0.45672196 -0.36024597 0.23648468 -0.6113891 -0.106197774 -0.20586559 0.34587267 0.70546955
-0.5907311 0.41101542 -0.2902339 0.31561357 0.3040068 0.66517127 0.18068087 0.5803958
0.3361033 0.6889674 -0.6226586 -0.23161502 -0.17232832 0.43044236 0.59152085 -0.1595314
0.35190722 0.21408257 0.31519228 0.2337963 -0.3196921 0.26344323 0.28483215 -0.3632319
00000000: bbf6 933e 2088 523f 1caf 45bf c703 0fbf
00000010: ba06 febe 1117 313f 2680 2abf 46f4 cbbe
00000020: fcc2 4f3f 0541 80be 6554 513f 78b9 b33e
00000030: 58c4 44bf dd90 afbe 4b37 0f3f ce14 3b3f
00000040: ee1a bebe 3a13 62be 2b13 e03e 395b 863e
00000050: f361 c33e 3037 8bbb 6898 63be e94f 473f
00000060: 3399 4abf a0ae 7ebe 3bb6 81be 2377 23bf
00000070: 7e03 2e3f 9475 1a3e 50d9 11bf b61d ab3e
00000080: 3242 a13e d82b 59bf eb34 a23e bda2 25bf
00000090: 248d 6bbe aebe 53bf d5df 3d3f 4348 0c3f
000000a0: aeec 8dbe 0486 3a3f 6b23 5fbf a8af 14be
000000b0: 6bd4 9f3e 1302 3a3f 30fd 3c3e 8de7 61be
000000c0: 9057 d03e a73b 0f3f 70e2 48bf 3e9e febe
000000d0: a4a4 cabc 2bd3 033f cf19 c93e 02fc 25be
000000e0: ae5d 103f 6688 ad3e 7d72 4e3f bb62 763d
000000f0: cdb1 af3e cd3a fb3e c310 453f a52c acbe
00000100: d9f9 8abe ca6d 96be c093 383e 3bc0 293e
00000110: ffbf 083f 7ee5 db3d ded7 0c3e 3f5b 243f
00000120: 3650 e4be 2057 26be 1433 7cbc baf2 2ebf
00000130: b950 d3be 042c a73d bf18 eabe afcd 30bf
00000140: ed80 4ebe 9636 043d a53a c73e 8fe0 253f
00000150: bf04 2fbf beee 47bc ea9c 193f 1383 43be
00000160: 661a 803e f904 eb3e e8bf 19bf 762d eb3e
00000170: c27c ecbd 7186 11be 1718 69be 60d1 26bd
00000180: a73c 71be 80ab 0e3f 0fd3 03bf 7164 c3bd
00000190: bb92 6cbe bfd1 de3e 850b 55bf 2ba9 3dbf
000001a0: 0b55 503f e64c c4be 5b5f cb3e 36df f93e
000001b0: ca7f c0be 284d 18bf 16bc ef3e 14cf 043f
000001c0: d6d9 2fbf 8b8c 0abf 4b88 433f f3ba 133f
000001d0: 66f4 3c3f 73eb b3be fdbf 3ebf 250b e53e
000001e0: a768 25bf 4ff2 43bf dafa 08bf 37a6 e4be
000001f0: 41d7 023d 221a a53e 7c21 12bf 7413 833e
00000200: 4d0a 163f 16b9 d7be 9d52 db3e ac5d b3be
00000210: f792 18bf 0511 01bf 93cb 393f 959f 2a3f
00000220: 69b1 f2be bc9c 9e3e 930c 7ebe 5a5c 2bbe
00000230: e1d2 683e 795c 4a3f ad3f f23e 812e 4c3e
00000240: 73a9 f33e f35f fa3e 7a1e 27bf 73ab 42bf
00000250: 4155 163f c8be a43e be9e 93bc 244f 283f
00000260: 454f 343f 1695 2d3f 309e c13e 2aa7 7f3b
00000270: fa07 9a3e dae3 8e3e b638 293f 5ac4 48bf
00000280: eafe 3c3f 5e08 683e da39 be3e 08d2 0fbf
00000290: 5bd7 b1be c103 283f 448a 9abe ed37 75be
000002a0: df03 693e 0fba 95be 5cf6 e1be 4deb 033f
000002b0: f908 9b3e 77f6 963e 6781 ea3e 172a bb3e
000002c0: 9fee 7b3e 9736 3d3f 471f 16bf 7e83 f8be
000002d0: 6d67 c03e 581d 3f3f cbe8 b9be 5554 013f
000002e0: 3d2d a3be 4314 7abe f1ae 9d3e 5767 1dbf
000002f0: e58e 0f3f a06e 6d3e 3d9f c93e 8101 1fbf
00000300: 4ea6 f4bb 88fc 17bf 0193 323f e7a7 313e
00000310: 54a0 0b3f f9c1 b4be 149c 873e c9f6 1c3f
00000320: 57f6 50bf 8163 043f 2890 88be 3212 91be
00000330: b9a4 b33e 521d 213f 47b1 e3bd 9bcc 3bbf
00000340: c106 ff3e e971 b33e 5bf4 e3be 9773 26bf
00000350: 77e5 d2be 5f24 563e 0a38 123f 7a94 2ebf
00000360: d2b1 ec3e 7306 4f3f cb5b 013f 26eb d63e
00000370: 6aab e6be 74c5 b5be 0f46 4b3f ed93 45bf
00000380: 76d7 e93e 2972 b8be 0a29 723e ff83 1cbf
00000390: 387e d9bd 6ece 52be 3916 b13e a799 343f
000003a0: 273a 17bf 9d70 d23e 8a99 94be 1a98 a13e
000003b0: c7a6 9b3e aa48 2a3f 6804 393e d294 143f
000003c0: bb15 ac3e 2b60 303f 8e66 1fbf 7d2c 6dbe
000003d0: d676 30be f162 dc3e e96d 173f 335c 23be
000003e0: 2f2d b43e 7638 5b3e e260 a13e 4c68 6f3e
000003f0: afae a3be 08e2 863e 85d5 913e 88f9 b9be

bias f4 [32]
-0.3809093 0.3829912 -0.13606404 -0.36989745 0.32594797 0.4659806 0.2901146 0.49648407
0.56880325 0.4121449 0.15305263 0.22110088 -0.19375092 0.33128995 -0.1298808 -0.45507917
-0.31325567 0.1240093 0.13006546 0.052280672 0.50527155 -0.026173428 0.11715833 0.2837003
-0.14260402 -0.32635435 -0.50062144 0.15286876 0.09656961 0.38043985 0.1557658 -0.2960506
00000000: 8b06 c3be 6c17 c43e 5f54 0bbe 3363 bdbe
00000010: a7e2 a63e 0295 ee3e e789 943e 2933 fe3e
00000020: 179d 113f a804 d33e d4b9 1c3e 4568 623e
00000030: a466 46be d69e a93e 79ff 04be 2300 e9be
00000040: 0c63 a0be 96f8 fd3d e12f 053e 4224 563d
00000050: 7a59 013f a869 d6bc b5f0 ef3d 2a41 913e
00000060: ca06 12be eb17 a7be ba28 00bf a189 1c3e
00000070: 4ac6 c53d 03c9 c23e 1281 1f3e f293 97be

weight f4 [32, 32]
0.5560996 -0.35321376 -0.11502244 0.6211603 -0.5561172 -0.31681544 -0.764223 0.534439
-0.24660352 0.3187334 0.09131078 0.44546065 0.35461187 -0.36858904 0.44747436 0.0039999536
-0.2439163 0.3929324 -0.71506953 0.3913518 -0.52051556 0.5726066 -0.7808248 -0.800325
0.64373046 0.07782113 0.5388842 -0.6616626 0.34147578 -0.132598 -0.4022114 -0.5194378
0.80047196 -0.21414293 0.34443527 0.3041819 -0.31398046 -0.09405036 -0.48317152 0.69383913
-0.63510376 -0.27663267 -0.53005445 0.0012176556 0.67291003 -0.23213708 0.74362844 0.47914866
-0.23574561 0.2612425 -0.696936 0.9399946 -0.18973538 0.65432984 -0.73618335 -0.5105623
-0.33575955 0.22400124 0.37493983 -0.6314802 0.21317871 -0.56936204 -0.61246735 0.039222438
0.44441512 -0.42435247 -0.10766838 0.69021595 -0.6980078 -0.26273373 -0.7088276 0.25953242
-0.657752 0.48655105 0.3065694 0.4283458 0.3563869 -0.3400469 0.50028145 0.30779773
-0.7457719 0.47142982 -0.7147081 0.33682323 -0.2461577 0.50571704 -0.31199446 -0.4015759
0.1744089 -0.110638425 0.65352964 -0.64732945 0.31603596 0.1621543 -0.71467084 -0.55442333
-0.7997757 0.27816173 0.06318217 -0.6615503 0.34075367 0.018810077 0.7748495 -0.16022322
0.10144976 -0.013240606 0.033304676 -0.1247478 -0.7368809 0.29398957 -0.946939 -0.046658225
0.38018534 -0.495212 0.4157728 -0.6683886 0.53574026 -0.43513927 0.8850477 0.4046769
0.07307072 -0.49875516 -0.64455533 0.60777766 0.12271505 0.3482644 0.60382223 -0.12728469
0.22659087 -0.037790667 -0.4067029 0.18211012 0.10375172 0.58622646 -0.39403182 0.50649226
-0.10036439 0.71142226 0.3038152 0.6606231 0.7577513 0.33142743 0.45641837 0.13314909
-0.7719997 0.52077824 -0.5508507 0.4804436 0.3104608 0.48793733 -0.30114245 -0.29915154
0.42166215 -0.34159258 -0.1421854 -0.48990583 0.46835694 0.28544402 -0.5511317 -0.6585813
-0.8135288 0.7491553 0.488064 -0.7614139 0.5980689 0.3173053 0.8133934 -0.25427568
0.40137208 0.20606127 -0.56491184 -0.27350655 -0.28196234 0.54563725 -0.7944227 -0.4128878
0.042510692 -0.6455195 0.42912686 -0.7946661 0.13456234 -0.25040793 0.79729766 0.61929065
-0.38310388 -0.27659798 -0.5988093 0.7711872 -0.12190977 0.06818943 0.69274724 0.22859627
-0.36360052 0.17618485 0.5877464 -0.5042165 0.5104621 -0.4734164 0.40570953 -0.58032656
0.32325438 -0.39855078 -0.20905724 -0.22517602 -0.54010147 0.034902524 -0.42206833 -0.115784764
0.7470968 -0.5493255 0.51764435 -0.33772027 0.059318732 -0.7105476 0.31678444 0.7699942
-0.07336809 0.016344476 -0.49656212 0.2558812 -0.37152317 -0.2110675 0.590053 0.34131938
0.83054024 -0.25852463 -0.27390978 0.76048625 -0.5062266 0.039108958 -0.6644782 0.20479433
-0.28003848 0.20278637 0.3040597 0.34427503 0.24767873 -0.46881714 0.36579284 0.23105957
-0.63899565 0.7672423 -0.25679472 0.64146304 -0.3887857 0.69363487 -0.6782149 -0.51782906
0.4027977 0.08684668 0.07070947 -0.49311322 0.67331696 -0.001869729 -0.61472315 -0.09221077
00000000: 8b5c 0e3f 6fd8 b4be e390 ebbd 5d04 1f3f
00000010: b25d 0ebf a235 a2be 1ea4 43bf ffd0 083f
00000020: a285 7cbe 0631 a33e 2501 bb3d 6b13 e43e
00000030: b08f b53e b4b7 bcbe 5c1b e53e 0b12 833b
00000040: 32c5 79be 6f2e c93e cc0e 37bf 435f c83e
00000050: 8240 05bf 5996 123f 22e4 47bf 19e2 4cbf
00000060: 85cb 243f af60 9f3d 51f4 093f b862 29bf
00000070: ead5 ae3e c5c7 07be a7ee cdbe e0f9 04bf
00000080: bbeb 4c3f 4948 5bbe d259 b03e bbbd 9b3e
00000090: 0cc2 a0be 7a9d c0bd 4262 f7be 719f 313f
000000a0: 2996 22bf cca2 8dbe a6b1 07bf be99 9f3a
000000b0: d543 2c3f 58b5 6dbe 6f5e 3e3f f952 f53e
000000c0: 4c67 71be 94c1 853e 666a 32bf 7ca3 703f
000000d0: fe49 42be 2982 273f 8376 3cbf 36b4 02bf
000000e0: ade8 abbe 9560 653e 1df8 bf3e b0a8 21bf
000000f0: 854b 5a3e b6c1 11bf a9ca 1cbf b5a7 203d
00000100: 618a e33e ba44 d9be 3d81 dcbd feb1 303f
00000110: a4b0 32bf 0985 86be ba75 35bf 6fe1 843e
00000120: 6f62 28bf 381d f93e aaf6 9c3e 2450 db3e
00000130: 5878 b63e a11a aebe 7212 003f aa97 9d3e
00000140: e8ea 3ebf 405f f13e 1cf7 36bf 1874 ac3e
00000150: c410 7cbe ac76 013f bdbd 9fbe 5b9b cdbe
00000160: 3f98 323e 6696 e2bd b84d 273f 62b7 25bf
00000170: 77cf a13e c70b 263e abf4 36bf b0ee 0dbf
00000180: 1abe 4cbf 376b 8e3e a765 813d 5c5b 29bf
00000190: 4477 ae3e 9717 9a3c 895c 463f 8e11 24be
000001a0: e4c4 cf3d 20ef 58bc 7c6a 083d c67b ffbd
000001b0: 3aa4 3cbf cd85 963e 986a 72bf b21c 3fbd
000001c0: a7a7 c23e 6d8c fdbe 2ce0 d43e 841b 2bbf
000001d0: 4626 093f 93ca debe 7c92 623f d031 cf3e
000001e0: 1aa6 953d d65c ffbe 9401 25bf 5197 1b3f
000001f0: 0752 fb3d b64f b23e 1894 1a3f eb56 02be
00000200: 7007 683e 63ca 1abd 5d3b d0be 137b 3a3e
00000210: c87b d43d f012 163f 8abe c9be 7aa9 013f
00000220: d88b cdbd c51f 363f aa8d 9b3e 981e 293f
00000230: fdfb 413f dbb0 a93e abaf e93e 3c58 083e
00000240: c6a1 45bf b951 053f 8d04 0dbf b4fc f53e
00000250: b8f4 9e3e ecd2 f93e 582f 9abe 642a 99be
00000260: 1ae4 d73e 39e5 aebe 0d99 11be f0d4 fabe
00000270: 7bcc ef3e b825 923e f816 0dbf c998 28bf
00000280: 6c43 50bf a4c8 3f3f 86e3 f93e 05ec 42bf
00000290: 0b1b 193f d775 a23e 8d3a 503f 6c30 82be
000002a0: a480 cd3e ba01 533e 109e 10bf 0d09 8cbe
000002b0: 5e5d 90be e2ae 0b3f 495f 4bbf 0866 d3be
000002c0: b11f 2e3d c440 25bf 84b6 db3e 3d6f 4bbf
000002d0: b6ca 093e 7835 80be b31b 4c3f d589 1e3f
000002e0: 3126 c4be 409e 8dbe 914b 19bf 866c 453f
000002f0: d4ab f9bd e6a6 8b3d e257 313f 2415 6a3e
00000300: d929 babe cd69 343e 8c76 163f 5514 01bf
00000310: a5ad 023f a263 f2be 29b9 cf3e 4890 14bf
00000320: 9981 a53e d90e ccbe 1a13 56be 8b94 66be
00000330: 1744 0abf f3f5 0e3d 5719 d8be 9020 edbd
00000340: bc41 3f3f 99a0 0cbf 5784 043f ace9 acbe
00000350: 33f8 723d 73e6 35bf 9231 a23e 571e 453f
00000360: 0242 96bd dae4 853c 643d febe dc02 833e
00000370: 4938 bebe 1422 58be b70d 173f 6ac1 ae3e
00000380: 499e 543f 575d 84be e73d 8cbe 3aaf 423f
00000390: 1198 01bf b730 203d 3e1b 2abf 9bb5 513e
000003a0: 3461 8fbe 3ba7 4f3e b7ad 9b3e d144 b03e
000003b0: 7e9f 7d3e cd08 f0be 3349 bb3e e19a 6c3e
000003c0: 3895 23bf fe69 443f 997a 83be ec36 243f
000003d0: eb0e c7be 0e92 313f 7e9f 2dbf 7290 04bf
000003e0: 803b ce3e acdc b13d 20d0 903d 5679 fcbe
000003f0: 805e 2c3f b211 f5ba 7f5e 1dbf 00d9 bcbd

bias f4 [32]
0.049137417 0.30363262 -0.16984057 -0.15439907 0.055162046 0.41330534 -0.04039449 -0.2973414
-0.066985555 -0.14496851 -0.19760853 0.38522968 0.39795837 0.15255187 -0.4041606 -0.25734332
-0.05568535 -0.036620826 0.22827528 0.28413746 -0.39835668 -0.035350896 0.27109587 0.24430877
0.17731637 -0.015701476 -0.1738475 -0.14038938 -0.37564224 0.4140613 -0.20283401 -0.078705184
00000000: 5144 493d bc75 9b3e b0ea 2dbe ca1a 1ebe
00000010: 99f1 613d c29c d33e b174 25bd 223d 98be
00000020: b92f 89bd a072 14be e459 4abe d33c c53e
00000030: 33c1 cb3e 8f36 1c3e 23ee cebe 81c2 83be
00000040: 5216 64bd b8ff 15bd ffc0 693e 777a 913e
00000050: 68f5 cbbe 1acc 10bd 14cd 8a3e 142c 7a3e
00000060: 6c92 353e 62a0 80bc 1405 32be 3cc2 0fbe
00000070: 2e54 c0be d8ff d33e b8b3 4fbe 2f30 a1bd

weight f4 [2, 32]
-0.0399992 -0.37275082 0.11785078 -0.38783437 -0.28537697 -0.6037378 0.47973615 -0.20118889
0.4431539 0.8991841 0.32032442 0.56779665 -0.23633325 -0.12423039 0.68212336 -0.17170992
0.7690027 -0.056271326 0.37581998 -0.49673492 -0.17510971 0.66488886 0.14815162 -0.8002101
0.24950008 -0.7521669 0.75032854 -0.58629256 -0.1387603 0.7415336 -0.23432487 -0.72025824
-0.28612798 -0.33718017 -0.033550628 0.6328411 0.57898825 0.7856464 -0.084703684 0.008924123
-1.0133883 -0.91742325 -0.16161866 -0.14206153 0.62544453 0.17473593 -0.5226727 -0.011361139
-0.6335487 0.051407203 -0.30502164 0.51391697 0.08181601 -0.7531222 -0.9076874 0.69635
-0.6036887 0.2746423 -0.21050023 0.61538756 0.65131325 -0.21511304 0.30647558 -0.010148619
00000000: 33d6 23bd 32d9 bebe c05b f13d 3a92 c6be
00000010: ee1c 92be 8f8e 1abf fa9f f53e 7604 4ebe
00000020: 11e5 e23e ee30 663f 9001 a43e 1f5b 113f
00000030: 5801 72be 816c febd a39f 2e3f bad4 2fbe
00000040: 5cdd 443f c37c 66bd 7a6b c03e 0a54 febe
00000050: f64f 33be 2836 2a3f 0fb5 173e 92da 4cbf
00000060: f37c 7f3e 038e 40bf 8815 403f 4517 16bf
00000070: 2e17 0ebe 25d5 3d3f dcf2 6fbe d862 38bf
00000080: 5e7f 92be e1a2 acbe 626c 09bd e001 223f
00000090: 9338 143f 1f20 493f 2079 adbd 7c36 123c
000000a0: b5b6 81bf 40dc 6abf 5d7f 25be 9478 11be
000000b0: 221d 203f faed 323e e1cd 05bf 1224 3abc
000000c0: 3f30 22bf 5c90 523d cc2b 9cbe 1090 033f
000000d0: 278f a73d 9ecc 40bf 345e 68bf fe43 323f
000000e0: 588b 1abf ea9d 8c3e 5f8d 57be 0a8a 1d3f
000000f0: 77bc 263f 9846 5cbe 5eea 9c3e 6546 26bc

bias f4 [2]
-0.17526425 -0.0042584864
00000000: 7978 33be c68a 8bbb

exp_avg f4 [32, 4]
-0.008482118 -0.0057864045 0.010557551 0.037435837 -0.029793967 -0.021099104 0.07594256 0.24909474
0.043681923 0.048523985 -0.107245006 -0.37035903 0.018957475 0.028032947 -0.040211555 -0.15378849
0.018118283 0.015485998 -0.038163245 -0.13010345 -0.03187837 -0.017587466 0.0735667 0.23443107
0.031083431 0.023062212 -0.07847156 -0.25989112 0.041552555 0.04054164 -0.100910164 -0.3450785
-0.04998691 -0.072373636 0.119649746 0.43987995 0.038005047 0.022418387 -0.085309364 -0.27361932
-0.023303995 -0.017752763 0.062154666 0.20023538 -8.487759e-05 0.014189556 0.01479585 0.03067717
0.011477556 -0.0065431725 -0.037648734 -0.10066376 0.032657683 0.04648288 -0.08862845 -0.31459433
-0.019499844 -0.016770264 0.047852807 0.16364855 -0.023208452 -0.032384004 0.055838484 0.20538843
0.035571817 0.034177084 -0.082750335 -0.27507365 -0.0038982297 -0.043844182 -0.01074903 0.018956747
-0.013414851 -0.012604174 0.050822936 0.16661084 -0.00370611 0.010463807 0.017773567 0.035982385
-0.026320837 -0.023388455 0.06222483 0.21161447 0.0046172384 0.042522486 -0.013083937 -0.08635803
0.040140983 0.060657065 -0.088984795 -0.33316368 -0.027771324 -0.03638919 0.063184835 0.22858688
0.03408305 0.022872232 -0.08000296 -0.2635398 0.039725583 0.038667787 -0.08654023 -0.29582068
0.0074860863 0.022776006 -0.024043225 -0.09447132 0.017566852 0.010378438 -0.04266644 -0.13967353
-0.016125051 0.007336407 0.031757466 0.08398435 -0.006976407 0.012402091 0.024567047 0.06440392
0.0095826825 -0.0051011126 -0.029615315 -0.07688409 -0.03343748 -0.03948274 0.086756065 0.29813555
00000000: 95f8 0abc e19b bdbb 94f9 2c3c 5256 193d
00000010: 7a12 f4bc 07d8 acbc c687 9b3d b112 7f3e
00000020: d1eb 323d 16c1 463d 45a3 dbbd b39f bdbe
00000030: b54c 9b3c 5aa5 e53c dfb4 24bd bb7a 1dbe
00000040: cb6c 943c fcb8 7d3c 1051 1cbd d739 05be
00000050: e592 02bd 9713 90bc 23aa 963d b30e 703e
00000060: aea2 fe3c f7ec bc3c b2b5 a0bd 7310 85be
00000070: 0333 2a3d fe0e 263d fda9 cebd 21ae b0be
00000080: 13bf 4cbd a138 94bd ed0a f53d f237 e13e
00000090: 2eab 1b3d c4a6 b73c adb6 aebd d517 8cbe
000000a0: 05e8 bebc 3e6e 91bc e495 7e3d 810a 4d3e
000000b0: 4f00 b2b8 507b 683c 4b6a 723c b04e fb3c
000000c0: 5c0c 3c3c 1c68 d6bb 8f35 1abd cd28 cebd
000000d0: 10c4 053d d564 3e3d d582 b5bd 8212 a1be
000000e0: 23be 9fbc cb61 89bc 4e01 443d 7c93 273e
000000f0: a71f bebc 17a5 04bd e5b6 643d 5851 523e
00000100: c1b3 113d 45fd 0b3d 0279 a9bd 74d6 8cbe
00000110: 7179 7fbb f595 33bd b31c 30bc 2e4b 9b3c
00000120: f7c9 5bbc bd81 4ebc b62b 503d 089c 2a3e
00000130: 35e2 72bb 6370 2b3c df99 913c 4462 133d
00000140: cc9e d7bc 2599 bfbc 77df 7e3d 77b1 583e
00000150: 344c 973b 0f2c 2e3d 025e 56bc 7bdc b0bd
00000160: df6a 243d 8b73 783d a93d b6bd 6e94 aabe
00000170: b080 e3bc d50c 15bd 0d67 813d ae12 6a3e
00000180: ab9a 0b3d 8c5e bb3c 98d8 a3bd b0ee 86be
00000190: 4bb7 223d 1d62 1e3d 013c b1bd cf75 97be
000001a0: d84d f53b bf94 ba3c 4cf6 c4bc 2e7a c1bd
000001b0: 5ce8 8f3c 530a 2a3c 01c3 2ebd 9406 0fbe
000001c0: af18 84bc 3e66 f03b 1e14 023d fdff ab3d
000001d0: 589a e4bb 2432 4b3c d540 c93c 34e6 833d
000001e0: af00 1d3c 3c27 a7bb d19b f2bc 6875 9dbd
000001f0: bdf5 08bd a7b8 21bd 2aad b13d 39a5 983e

exp_avg_sq f4 [32, 4]
4.6522787e-06 3.4998504e-06 1.0223161e-05 0.00011984651 4.6246885e-05 9.271294e-05 0.00018600177 0.0024557023
0.00011745108 0.0003308712 0.00046033782 0.006644288 1.9714864e-05 8.735196e-05 7.081917e-05 0.0012799007
1.8549956e-05 3.3707016e-05 5.886219e-05 0.0008133609 5.490415e-05 6.186078e-05 0.00019074739 0.0022602684
5.1885545e-05 9.838265e-05 0.00021198457 0.0028174545 9.3137984e-05 0.00023944459 0.00037399106 0.0053736363
0.00014278755 0.0006224227 0.0005985644 0.010015157 7.977191e-05 9.135795e-05 0.00026308853 0.0031568445
3.0457688e-05 7.634406e-05 0.00012524097 0.0016246712 1.8223684e-06 7.691353e-06 5.4627776e-06 2.561481e-05
9.094427e-06 9.327018e-06 3.456418e-05 0.0002705999 6.3579144e-05 0.00030201196 0.00028249394 0.0045636953
1.8553294e-05 5.359931e-05 8.038519e-05 0.0012024363 2.9319803e-05 0.00013967017 0.00011852422 0.0020711748
7.2932584e-05 0.00017500775 0.00025494638 0.0034343824 4.762233e-06 0.00010481764 1.0523371e-05 0.00030963344
1.3173071e-05 5.5026914e-05 7.2250696e-05 0.0010097285 1.7757817e-06 7.788832e-06 6.5885006e-06 2.7963479e-05
3.848248e-05 8.782383e-05 0.00014836155 0.0021002255 2.9376251e-06 0.00015611752 1.5117777e-05 0.0006623443
9.676212e-05 0.00038724326 0.00035931214 0.006042501 4.128686e-05 0.00017299959 0.00015515994 0.002603839
6.330802e-05 9.695124e-05 0.00023612149 0.0030510344 8.626356e-05 0.00018990554 0.0002816348 0.0039776973
4.9046344e-06 6.0005732e-05 2.104232e-05 0.00045480026 1.631227e-05 2.619558e-05 6.1465566e-05 0.00080003735
1.238916e-05 6.812156e-06 3.7767084e-05 0.00029465163 2.3229768e-06 7.3647316e-06 1.5420323e-05 0.00012337395
6.3520165e-06 4.1683224e-06 2.2919347e-05 0.00015730635 6.946962e-05 0.00022778231 0.0002827864 0.00413154
00000000: c51a 9c36 f9de 6a36 2484 2b37 1b56 fb38
00000010: 37f9 4138 e16e c238 7809 4339 d9ef 203b
00000020: 1250 f638 c878 ad39 7f59 f139 54b8 d93b
00000030: 5961 a537 ba30 b738 c184 9438 57c2 a73a
00000040: ba9b 9b37 a260 0d38 cce2 7638 ba37 553a
00000050: e248 6638 41bb 8138 5d03 4839 0321 143b
00000060: ae9f 5938 c852 ce38 2d48 5e39 0ba5 383b
00000070: 1353 c338 6b13 7b39 3b14 c439 5415 b03b
00000080: 3eb9 1539 152a 233a fae8 1c3a 9d16 243c
00000090: 384b a738 6d97 bf38 25ef 8939 10e3 4e3b
000000a0: 637f ff37 e81a a038 1e53 0339 ebf2 d43a
000000b0: 1a98 f435 1c0a 0137 e74c b736 63df d637
000000c0: 4494 1837 3d7b 1c37 01f9 1038 4edf 8d39
000000d0: cb55 8538 5c57 9e39 b21b 9439 0d8b 953b
000000e0: e5a2 9b37 d2cf 6038 7894 a838 119b 9d3a
000000f0: ccf3 f537 6d74 1239 3590 f838 8cbc 073b
00000100: 62f3 9838 4982 3739 53aa 8539 6013 613b
00000110: 45cb 9f36 8bd1 db38 898d 3037 4c56 a239
00000120: e901 5d37 b3cc 6638 4c85 9738 de58 843a
00000130: 6557 ee35 c7ac 0237 ca12 dd36 1d93 ea37
00000140: 4068 2138 0f2e b838 8091 1b39 f0a3 093b
00000150: 0424 4536 7ab3 2339 5ca2 7d37 2ca1 2d3a
00000160: c5ec ca38 e906 cb39 0f62 bc39 2c00 c63b
00000170: 6e2b 2d38 3967 3539 6eb2 2239 2ba5 2a3b
00000180: 3cc4 8438 4d52 cb38 6197 7739 ddf3 473b
00000190: 65e8 b438 6121 4739 62a8 9339 5857 823b
000001a0: 7d92 a436 aaae 7b38 0a84 b037 4272 ee39
000001b0: 55d6 8837 94be db37 13e7 8038 99b9 513a
000001c0: 09db 4f37 f993 e436 1968 1e38 797b 9a39
000001d0: 70e4 1b36 901e f736 e45a 8137 f15d 0139
000001e0: 6823 d536 9edd 8b36 ec42 c037 9af2 2439
000001f0: 38b0 9138 d9d8 6e39 f342 9439 df61 873b

exp_avg f4 [32]
0.16391829 -0.1392238 0.27343163 -0.17774738 -0.07932707 -0.10832821 0.032311898 0.060936898
0.032664184 0.05944774 -0.34248537 -0.15784816 0.33266833 0.35965353 0.13030058 0.06957946
0.33025602 0.3019887 -0.3029579 -0.2832225 0.10191284 0.16867384 -0.15151823 0.054114923
-0.0325287 0.072390094 0.28107598 -0.015522109 0.12764709 0.13991047 0.30478212 -0.35079485
00000000: 32da 273e af90 0ebe 3bff 8b3e 6903 36be
00000010: 3b76 a2bd 2edb ddbd 7b59 043d f898 793d
00000020: e1ca 053d 797f 733d 3e5a afbe f3a2 21be
00000030: 8153 aa3e 8224 b83e 846d 053e ad7f 8e3d
00000040: 5117 a93e 439e 9a3e 4c1d 9bbe 8a02 91be
00000050: aeb7 d03d d6b8 2c3e 9827 1bbe 9ca7 5d3d
00000060: d03c 05bd 4241 943d 31e9 8f3e 7250 7ebc
00000070: ebb5 023e b144 0f3e 670c 9c3e 629b b3be

exp_avg_sq f4 [32]
0.0012005548 0.0032136475 0.0036169908 0.004113755 0.0018237692 0.0026020082 0.00468366 0.005915577
0.00825191 0.0042208876 0.0028811088 0.00058247487 0.0028050926 0.0033954424 0.005406189 0.0035900075
0.0033776884 0.0020109715 0.0019695899 0.0020309507 0.0048468276 0.0014670258 0.0071868086 0.0036127341
0.0053341105 0.003646983 0.0025645716 0.0018423155 0.0026651118 0.004605451 0.0024718735 0.0035184058
00000000: ef5b 9d3a 0f9c 523b 090b 6d3b aecc 863b
00000010: 8a0b ef3a 7486 2a3b 6379 993b 75d7 c13b
00000020: 0533 073c 5f4f 8a3b fcd0 3c3b 3ab1 183a
00000030: a5d5 373b 1286 5e3b 6626 b13b 5546 6b3b
00000040: 355c 5d3b 81ca 033b 3c14 013b b319 053b
00000050: 23d2 9e3b 3849 c03a 527f eb3b 9fc3 6c3b
00000060: c3c9 ae3b 3902 6f3b 5f12 283b da79 f13a
00000070: 28a9 2e3b 53e9 963b 28ff 213b 0e95 663b

exp_avg f4 [32, 32]
-0.019764557 -0.06239254 0.06948429 0.025271831 0.041383598 -0.06615747 0.053464126 0.08618907
-0.07396225 0.07259536 -0.03500672 -0.00948721 0.07342477 0.09968413 -0.049538463 -0.053533595
0.044294924 0.043050192 -0.06705272 -0.030217666 -0.057420693 -0.012951868 0.07032039 -0.039939042
0.06745023 0.03293463 0.0065132296 0.05579982 -0.023824675 -0.035135597 0.0322705 -0.048866358
-0.011542877 0.022078527 -0.03938196 0.0067338264 -0.004599356 0.024194375 -0.01198274 -0.029027725
0.017149772 -0.027760172 0.03242778 -0.0039685764 -0.053766087 -0.059226774 0.0010941013 0.0042132786
-0.03580207 -0.03668878 0.043148004 0.039040577 0.009402292 -0.029000102 -0.012990878 0.0032185225
-0.014179703 -0.010651689 -0.03728618 -0.01008423 -0.008320715 -0.011751748 -0.036567144 0.03905353
-0.00068020413 0.010501247 -0.0022901352 -0.017702533 -0.0055344184 -0.00010296756 -0.013044893 -0.014891864
0.013635945 -0.0026978296 -0.0021999555 0.012782641 0.004112734 -0.008138828 0.021022376 0.019398008
0.0032155772 0.0019805403 0.0058760564 -0.011144532 0.01686642 0.0065404554 -0.014431527 0.013824418
-0.011647922 -0.0033458865 0.0077149253 -0.011698145 -0.0007746781 0.016964598 0.009289513 -0.00058669806
-0.0066043 -0.034272473 0.051438916 0.0023520705 0.022476522 -0.04358363 0.026838703 0.048730876
-0.038084447 0.048127487 -0.035166238 0.004703314 0.06503152 0.073658675 -0.016519023 -0.019964114
0.039922796 0.039514683 -0.04890691 -0.040975932 -0.026674582 0.010912237 0.036114696 -0.014962584
0.034654915 0.019787688 0.025662404 0.027897993 -0.007821271 -0.0030003656 0.040125873 -0.04278204
-0.008943423 0.020369794 -0.03513856 0.014729065 -0.0015276358 0.027148833 -0.0063859434 -0.023554979
0.012887163 -0.028454881 0.025703859 -0.0061727962 -0.0473882 -0.0496247 -0.008603333 -0.003852331
-0.032179642 -0.035684217 0.039331935 0.037307024 0.00093273685 -0.021014975 -0.0060327416 -0.00131253
-0.009575857 -0.009614536 -0.02987998 -0.004295419 -0.0015642982 -0.013949904 -0.031065406 0.03429742
-0.012932379 -0.0032661993 -0.0040920926 0.0147170285 0.011052075 -0.0018224573 0.009524131 0.0071364283
-0.01120681 0.0022342852 0.0074269385 -0.0047907876 -0.011709992 -0.006970915 -0.016887007 -0.015528056
-0.008204039 -0.013239539 0.008477004 0.017282099 -0.0137009965 -0.018021427 0.014544183 -0.010794313
0.012047209 0.0032934342 -0.01856204 0.012102578 -0.008424424 -0.017190002 -0.011859773 0.009224752
0.0067021055 0.041299004 -0.05475537 -0.009203451 -0.025002886 0.046438634 -0.033184502 -0.0574835
0.046038978 -0.05161039 0.03462372 0.0006233702 -0.06503034 -0.079556696 0.025459634 0.028834336
-0.040171016 -0.039784852 0.053776305 0.036362097 0.03413611 -0.0071358434 -0.043234654 0.021520387
-0.041482862 -0.022194862 -0.021924166 -0.033776704 0.009123811 0.011045795 -0.03631466 0.044044144
-0.008601264 0.032489747 -0.0378676 0.023638746 0.0032514369 0.0377122 -0.0050327545 -0.03284341
0.018835032 -0.035907246 0.016181376 0.0014505418 -0.04627461 -0.05306743 -0.014992949 -0.005721744
-0.03215009 -0.043164223 0.04826474 0.03252643 -0.0039413283 -0.0058975406 -0.0032396328 -0.0026454732
-0.014299505 -0.008559393 -0.013725772 -0.0030534768 0.009340764 -0.0039808024 -0.020723397 0.032384288
00000000: 48e9 a1bc 528f 7fbd c84d 8e3d df06 cf3c
00000010: d981 293d 917d 87bd 33fd 5a3d e583 b03d
00000020: 8579 97bd e0ac 943d 3563 0fbd 3e70 1bbc
00000030: ba5f 963d 3127 cc3d d8e8 4abd 0b46 5bbd
00000040: 986e 353d 6655 303d f052 89bd 0a8b f7bc
00000050: f631 6bbd 1234 54bc 2304 903d 1f97 23bd
00000060: 5923 8a3d 76e6 063d ee6c d53b 5a8e 643d
00000070: f72b c3bc 58ea 0fbd 122e 043d 1728 48bd
00000080: 561e 3dbc 07de b43c fa4e 21bd 6ea7 dc3b
00000090: 32b6 96bb 4833 c63c 4153 44bc 8dcb edbc
000000a0: ae7d 8c3c 4d69 e3bc fed2 043d d50a 82bb
000000b0: d439 5cbd c697 72bd f367 8f3a 8b0f 8a3b
000000c0: 31a5 12bd f946 16bd f6bb 303d 03e9 1f3d
000000d0: 120c 1a3c 9f91 edbc b1d7 54bc d9ed 523b
000000e0: fc51 68bc 6c84 2ebc 65b9 18bd 5438 25bc
000000f0: 9c53 08bc 678a 40bc 6ec7 15bd 98f6 1f3d
00000100: ba4f 32ba 6c0d 2c3c 1816 16bb e704 91bc
00000110: 115a b5bb 4af0 d7b8 3fba 55bc 01fd 73bc
00000120: 4c69 5f3c 12ce 30bb 212d 10bb 486e 513c
00000130: 1dc4 863b b858 05bc 1e37 ac3c 92e8 9e3c
00000140: 6fbc 523b f4cb 013b ef8b c03b 8e97 36bc
00000150: 722b 8a3c 5151 d63b 3672 6cbc d07f 623c
00000160: edd6 3ebc a946 5bbb 7ccd fc3b 94a9 3fbc
00000170: c413 4bba 57f9 8a3c 0b33 183c a4cc 19ba
00000180: e268 d8bb 4b61 0cbd 9db1 523d 3225 1a3b
00000190: af20 b83c c084 32bd d7dc db3c 079a 473d
000001a0: 70fe 1bbd 5421 453d 790a 10bd 421e 9a3b
000001b0: 3f2f 853d 5cda 963d e752 87bc c88b a3bc
000001c0: 1686 233d 26da 213d 9d52 48bd 61d6 27bd
000001d0: a784 dabc 3dc9 323c 01ed 133d a025 75bc
000001e0: 50f2 0d3d ca19 a23c f639 d23c 558a e43c
000001f0: ca24 00bc c8a1 44bb 075b 243d 383c 2fbd
00000200: 6f87 12bc 8ede a63c 73ed 0fbd 2d52 713c
00000210: f43a c8ba 3b67 de3c 2d41 d1bb 5ff6 c0bc
00000220: ae24 533c 361a e9bc e690 d23c 2b45 cabb
00000230: 211a 42bd 4543 4bbd fef4 0cbc 6477 7cbb
00000240: cdce 03bd 9d29 12bd 861a 213d 40cf 183d
00000250: e982 743a 9927 acbc 4eae c5bb 3309 acba
00000260: 0ee4 1cbc 4986 1dbc dcc6 f4bc 96c0 8cbb
00000270: 2309 cdba 238e 64bc e17c febc 747b 0c3d
00000280: 54e2 53bc bb0d 56bb f616 86bb b11f 713c
00000290: c313 353c 85df eeba 1a0b 1c3c b3d8 e93b
000002a0: c59c 37bc 166d 123b ad5d f33b 0afc 9cbb
000002b0: 44db 3fbc 466c e4bb 9f56 8abc 6369 7ebc
000002c0: 3c6a 06bc a7ea 58bc 22e3 0a3c 3093 8d3c
000002d0: 257a 60bc aca1 93bc ba4a 6e3c a1da 30bc
000002e0: a861 453c a8d6 573b 6b0f 98bc e449 463c
000002f0: 9806 0abc 0cd2 8cbc 7e4f 42bc 6a23 173c
00000300: 569d db3b 2529 293d 2b47 60bd 12ca 16bc
00000310: dad2 ccbc 7036 3e3d 79ec 07bd d273 6bbd
00000320: 5e93 3c3d 6b65 53bd 9ad1 0d3d aa69 233a
00000330: a02e 85bd 9fee a2bd b990 d03c fc35 ec3c
00000340: 5d8a 24bd 71f5 22bd 8b44 5c3d 6cf0 143d
00000350: 4ed2 0b3d cbd3 e9bb d216 31bd 864b b03c
00000360: efe9 29bd 00d2 b5bc 4f9a b3bc 7159 0abd
00000370: 097c 153c 6cf9 343c aebe 14bd a267 343d
00000380: 51ec 0cbc f813 053d 0e1b 1bbd 0ba6 c13c
00000390: 0f16 553b 1c78 1a3d cee9 a4bb d086 06bd
000003a0: ed4b 9a3c 7a13 13bd ce8e 843c 1b20 be3a
000003b0: 728a 3dbd 3c5d 59bd fca4 75bc 787d bbbb
000003c0: d0af 03bd f8cc 30bd 3fb1 453d 6f3a 053d
000003d0: 4226 81bb 2840 c1bb 0550 54bb ad5f 2dbb
000003e0: 7948 6abc b23c 0cbc 0fe2 60bc d71c 48bb
000003f0: 010a 193c 6471 82bb 1dc4 a9bc 63a5 043d

exp_avg_sq f4 [32, 32]
7.653172e-05 0.0003425911 0.00034814837 5.690346e-05 0.00013645609 0.00035294716 0.00021625856 0.0005961655
0.00043862077 0.0004061636 6.5307635e-05 2.0541598e-05 0.000346744 0.0007252501 0.00019127733 0.00023097076
0.00013878166 0.00015967533 0.00038360545 5.648749e-05 0.00024615068 7.499341e-05 0.0003731009 0.00012975407
0.00036607636 8.06323e-05 3.7518374e-05 0.00024045579 7.3414725e-05 0.00014167014 4.600181e-05 0.00016972567
5.3233285e-05 6.27011e-05 0.00010142489 1.05814215e-05 1.0060382e-05 3.7195743e-05 5.898773e-06 7.065149e-05
1.5341502e-05 4.7701833e-05 4.4236487e-05 6.7410024e-06 0.00016192107 0.00026063944 3.435793e-06 8.620561e-07
8.177256e-05 0.00014015142 0.0002003983 8.746058e-05 2.471284e-06 6.214533e-05 5.3229023e-06 4.808411e-07
7.608871e-06 4.957135e-06 8.206069e-05 3.305578e-06 1.0210304e-05 7.860276e-06 4.9425784e-05 0.000105000545
1.4995951e-05 7.2397606e-06 3.7939521e-06 3.4836357e-05 1.2278766e-05 5.848187e-07 1.5337868e-05 1.4720561e-05
1.7013943e-05 1.0879269e-06 2.8086602e-06 9.584501e-06 1.1770182e-05 1.3694438e-05 4.6236375e-05 3.6687306e-05
7.219945e-06 1.8036857e-05 1.5199813e-05 2.3743023e-05 2.9582954e-05 2.0891966e-05 2.7526183e-05 1.7971573e-05
1.575837e-05 1.322811e-06 2.1356882e-05 1.7567465e-05 3.9308006e-06 3.1868512e-05 1.0352739e-05 8.063124e-06
1.7529177e-05 0.00013745061 0.00019349155 4.782696e-06 1.8993798e-05 0.00014330234 4.422932e-05 0.00020489255
0.00010188227 0.00016773437 5.9785143e-05 6.237102e-06 0.000267351 0.00043090933 1.3347912e-05 2.3964363e-05
0.00011441318 0.00016599243 0.00026711635 0.00010086056 3.5016077e-05 1.655175e-05 6.1322055e-05 1.5314692e-05
7.3671814e-05 2.3481198e-05 4.1216077e-05 3.8851907e-05 7.748064e-06 5.97813e-06 6.723705e-05 0.00013886366
2.5119234e-05 4.639285e-05 9.359885e-05 2.9499886e-05 4.438938e-06 5.396093e-05 1.4519854e-06 4.820682e-05
8.917038e-06 5.894224e-05 3.8346127e-05 1.026052e-06 0.00016479014 0.00020876293 1.5686148e-05 4.7882536e-06
8.048538e-05 0.00013796166 0.00016341473 0.0001082813 2.086663e-06 3.936506e-05 1.7369955e-06 1.314785e-06
3.3834947e-06 4.4462554e-06 6.635381e-05 1.0164916e-06 1.2559933e-06 1.5982092e-05 5.5619766e-05 9.451823e-05
2.5062567e-05 2.9105553e-07 1.5340324e-06 2.205552e-05 1.7738657e-05 5.3419836e-07 8.960605e-06 3.021456e-06
1.2017066e-05 7.293072e-07 3.3262993e-06 6.260734e-07 1.0108485e-05 6.635486e-06 2.9629044e-05 2.277087e-05
6.441494e-06 2.0087049e-05 1.2541887e-05 2.1632468e-05 1.9864015e-05 3.2303793e-05 2.5673957e-05 1.088937e-05
1.4979788e-05 1.5045139e-06 2.9261448e-05 1.639038e-05 8.672295e-06 2.4985815e-05 7.659074e-06 8.520765e-06
2.376989e-05 0.00017418298 0.00021199297 7.8798985e-06 3.2946024e-05 0.0001636319 7.347564e-05 0.0002717302
0.00015557375 0.00019351408 5.73038e-05 1.0492271e-05 0.00025939336 0.0004750628 3.9935054e-05 5.7821235e-05
0.00011068822 0.00015317323 0.00028554912 7.5254335e-05 6.926824e-05 1.917551e-05 0.00010754604 3.45758e-05
0.00011751917 3.175465e-05 3.298074e-05 6.8893714e-05 1.4814091e-05 2.263452e-05 5.279735e-05 0.00013901778
5.501677e-06 9.454547e-05 0.00015714971 4.389853e-05 2.2832246e-06 0.00014964973 5.856031e-06 0.00010946747
4.28287e-05 0.00013992701 4.0246527e-05 1.1961496e-06 0.00024064044 0.00029586616 1.5118623e-05 2.0537893e-06
0.00011412393 0.00016492217 0.00021316478 0.00011620904 1.1658987e-06 7.947346e-06 7.960656e-06 5.784932e-07
2.9342847e-05 1.14498525e-05 2.9109367e-05 5.489467e-06 1.0098107e-05 3.4583982e-06 6.320358e-05 0.00011491581
00000000: a87f a038 cd9d b339 af87 b639 a0ab 6e38
00000010: a715 0f39 c40b b939 77c3 6239 fd47 1c3a
00000020: aff6 e539 5bf2 d439 c5f5 8838 bf50 ac37
00000030: 31cb b539 b61e 3e3a 9e91 4839 be30 7239
00000040: eb85 1139 856e 2739 a71e c939 fbec 6c38
00000050: c90d 8139 c845 9d38 c19c c339 980e 0839
00000060: f0ed bf39 2319 a938 0c5d 1d38 dc22 7c39
00000070: 3bf6 9938 4a8d 1439 11f2 4038 63f8 3139
00000080: ce46 5f38 667e 8338 13b4 d438 dc86 3137
00000090: 03c9 2837 a002 1c38 13ee c536 bb2a 9438
000000a0: a0b1 8037 7413 4838 918a 3938 c530 e236
000000b0: 5bc9 2939 6fa6 8839 7992 6636 0b68 6735
000000c0: 4f7d ab38 9cf5 1239 0222 5239 0b6b b738
000000d0: 56d8 2536 0554 8238 629b b236 2613 0135
000000e0: b44f ff36 7755 a636 ff17 ac38 66d5 5d36
000000f0: ec4c 2b37 a1df 0337 884e 4f38 bd33 dc38
00000100: 1e97 7b37 12ed f236 9a9b 7e36 411d 1238
00000110: e600 4e37 6ffc 1c35 d2a9 8037 54f8 7637
00000120: 2ab9 8e37 e204 9235 6a7c 3c36 1ecd 2037
00000130: 8c78 4537 2ac1 6537 eeed 4138 b2e0 1938
00000140: db42 f236 db4d 9737 b302 7f37 c12b c737
00000150: e928 f837 2841 af37 07e8 e637 a9c1 9637
00000160: d830 8437 718b b135 8e27 b337 d85d 9337
00000170: 52e5 8336 8eaa 0538 adb0 2d37 db46 0737
00000180: 9f0b 9337 9e20 1039 fee3 4a39 0c7b a036
00000190: df54 9f37 6e43 1639 df82 3938 6dd8 5639
000001a0: a1a9 d538 dae1 2f39 cfc1 7a38 4c48 d136
000001b0: 3e2b 8c39 aceb e139 d8f0 5f37 1407 c937
000001c0: 1cf1 ef38 410e 2e39 c00b 8c39 1a85 d338
000001d0: 3ade 1238 9dd8 8a37 079a 8038 0d78 8037
000001e0: 4180 9a38 7df9 c437 6ddf 2c38 ebf4 2238
000001f0: aefd 0137 bf97 c836 9e01 8d38 ee9b 1139
00000200: 25b7 d237 f295 4238 804a c438 8676 f737
00000210: 30f2 9436 1b54 6238 d7e1 c235 ae31 4a38
00000220: 639a 1537 c038 7738 d7d5 2038 e1b6 8935
00000230: 84cb 2c39 5fe7 5a39 bf95 8337 c9aa a036
00000240: 42ca a838 cda9 1039 4f5a 2b39 1515 e338
00000250: 9908 0c36 e91b 2538 b622 e935 ab77 b035
00000260: ff0f 6336 0b31 9536 6e27 8b38 636e 8835
00000270: 9a93 a835 4811 8637 4549 6938 1738 c638
00000280: 743d d237 5e42 9c34 f4e4 cd35 de03 b937
00000290: 7acd 9437 d565 0f35 8155 1637 38c4 4a36
000002a0: e89c 4937 9cc5 4335 6339 5f36 700f 2835
000002b0: 9d97 2937 64a6 de36 e38b f837 1204 bf37
000002c0: 0324 d836 9c80 a837 ff6a 5237 5f77 b537
000002d0: a6a1 a637 ef7d 0738 675e d737 7db1 3637
000002e0: b351 7b37 b4ee c935 7b76 f537 137e 8937
000002f0: 397f 1137 a198 d137 797f 0037 68f4 0e37
00000300: 7365 c737 e3a4 3639 6e4a 5e39 e833 0437
00000310: 862f 0a38 9b94 2b39 ef16 9a38 0377 8e39
00000320: 8321 2339 0aea 4a39 7d59 7038 f607 3037
00000330: 30ff 8739 da11 f939 f07f 2738 1485 7238
00000340: 4921 e838 209d 2039 c1b5 9539 ddd1 9d38
00000350: 1a44 9138 18db a037 578a e138 7c05 1138
00000360: a074 f638 4c30 0538 cd54 0a38 087b 9038
00000370: 098a 7837 43df bd37 b972 5d38 4dc5 1139
00000380: 0c9b b836 b646 c638 8ec8 2439 b01f 3838
00000390: 8039 1936 4beb 1c39 ec7e c436 e791 e538
000003a0: f7a2 3338 5fb9 1239 61ce 2838 638b a035
000003b0: 6d54 7c39 7c1e 9b39 fea5 7d37 d5d3 0936
000003c0: d255 ef38 f5ee 2c39 fc84 5f39 41b5 f338
000003d0: f97b 9c35 9755 0537 c28e 0537 c049 1b35
000003e0: 4925 f637 be18 4037 e42f f437 2a32 b836
000003f0: 0a6b 2937 d416 6836 2a8c 8438 f5fe f038

exp_avg f4 [32]
0.016877685 -0.037089318 0.0077827494 0.022641923 -0.04815326 -0.02600185 -0.023116078 -0.0790321
-0.072379775 -0.017191961 0.014496243 -0.028852325 0.02650703 -0.07647316 -0.02654185 0.07496423
0.0013698138 0.004906959 -0.0195696 0.017310804 0.00961589 -0.003968142 0.01608563 -0.025535397
0.0031525346 0.027634498 0.017029312 -0.03502217 -0.005040862 -0.018857766 -0.012845759 -0.0032080254
00000000: 1243 8a3c f8ea 17bd 6f06 ff3b 8e7b b93c
00000010: 5a3c 45bd d501 d5bc ee5d bdbc 95db a1bd
00000020: d93b 94bd 28d6 8cbc a681 6d3c b65b ecbc
00000030: 4525 d93c f69d 9cbd 4b6e d9bc d986 993d
00000040: 538b b33a 8eca a03b 6d50 a0bc 63cf 8d3c
00000050: f78b 1d3c 3007 82bb 03c6 833c 9c2f d1bc
00000060: c19a 4e3b be61 e23c 0e81 8b3c 6873 0fbd
00000070: d12d a5bb 9a7b 9abc 0577 52bc bc3d 52bb

exp_avg_sq f4 [32]
0.0002464903 0.00043128373 9.904791e-05 0.0003294566 0.0004085717 0.00011806513 0.00028555168 0.00045736672
0.00037607815 0.00012874654 9.259745e-05 0.00017939245 0.00037637565 0.0006176006 0.0003087032 0.00051530125
1.6302498e-05 9.647822e-05 0.00015049093 0.000483035 0.00014066303 9.765396e-05 0.0003620407 0.00044577304
9.918442e-05 0.00018428404 0.00017159221 0.00037381126 6.032239e-05 0.00014432495 0.00018797719 8.523774e-05
00000000: 5e3b 8139 ec1d e239 f1b7 cf38 ebba ac39
00000010: 9135 d639 bc99 f738 19b6 9539 b9ca ef39
00000020: 5b2c c539 2300 0739 e130 c238 4b1b 3c39
00000030: 4954 c539 7ae6 213a 71d9 a139 4815 073a
00000040: 59c1 8837 5a54 ca38 1acd 1d39 dc3f fd39
00000050: f27e 1339 92cb cc38 48d0 bd39 a5b6 e939
00000060: 3b01 d038 5f3c 4139 6fed 3339 19fc c339
00000070: ac02 7d38 ef55 1739 be1b 4539 aac1 b238

exp_avg f4 [32, 32]
-0.020708136 0.022029439 0.013614333 -0.042326797 0.030556405 0.009957278 0.011048307 -0.040664237
0.021200828 -7.612551e-05 -0.005292503 -0.004449158 -0.07461011 0.016738005 -0.037416898 -0.0077465503
0.013590021 -0.016187558 0.021852463 -0.017372822 0.010310782 -0.016771438 0.01544189 0.018181734
-0.018231615 -0.009679396 -0.02378859 0.034835223 -0.03233787 0.003835846 0.041999184 0.008661855
-0.009850583 0.0075711827 -0.0031157732 -0.019649506 0.010389778 0.0054358244 0.008039251 -0.007588875
0.0037647397 0.0039610155 0.0010180189 -0.0022190805 -0.020150736 0.0054399734 -0.00857414 0.00034187952
0.0056257327 -0.005185406 0.007658556 -0.008091461 0.010019475 -0.0049032443 0.00789305 0.009085536
-0.0017178416 -0.005454394 -0.010863329 0.010663581 -0.00599374 0.007300133 0.015642026 -0.0010300566
-0.01245932 0.011964245 0.010404983 -0.021953605 0.01508372 0.002816256 0.0064172465 -0.024316194
0.010929747 -0.0038582738 -0.004906195 -0.0033520248 -0.043604903 0.007495541 -0.02272185 -0.004084993
0.010266612 -0.011802194 0.014629874 -0.01133348 0.004936523 -0.011177924 0.009314494 0.011116343
-0.01150292 -0.003316824 -0.012421206 0.02124646 -0.020615136 -0.00034693212 0.023308568 0.008516853
0.027809175 -0.0056226407 -0.0032369455 0.030521259 -0.0033676294 0.0024891736 -0.02305457 0.003654308
0.020372925 0.0075600427 0.014810453 0.02423127 0.02895674 0.0059609558 0.022916386 -0.020699799
-0.00974538 0.017052725 -0.020154517 0.024455763 -0.020712787 0.014526571 -0.020879306 -0.023301022
0.018001309 -0.0029778918 0.0026843383 -0.025374582 0.011570597 0.00085765263 -0.029552175 -0.012871764
-0.004445592 0.0015431963 0.009583677 -0.004494774 0.00077642436 -0.0049513746 0.0013730587 -0.01441699
0.002735872 -0.007108978 -0.004603069 -0.0023842133 -0.019156802 -0.001557122 -0.010058264 -0.0005988052
0.008754353 -0.0076867915 0.0074567334 -0.004887944 -0.0014641427 -0.0066824094 0.0031909044 0.004165011
-0.006111322 0.004089647 -0.0008329387 0.009764709 -0.013340822 -0.005714467 0.00781765 0.0078177955
0.020515801 -0.022819266 -0.005193031 0.037235186 -0.029362412 -0.01597776 -0.0141957905 0.013521089
-0.007456403 -0.0044204686 0.008582229 0.011479963 0.047507703 -0.017736044 0.03253641 9.313391e-05
0.0054610646 0.006962355 -0.013325108 0.015319016 -0.014598932 0.009413301 -0.015450679 -0.015839381
0.022361834 0.014307494 0.018140916 -0.02566042 0.0129423225 -0.0066093216 -0.036027815 -0.004554399
0.008316196 -0.006378051 -0.0128547875 0.016462633 -0.008972077 0.002458795 -0.003167879 0.028170059
-0.011302612 0.004775785 0.004358049 0.0018543322 0.039967842 -0.0029318833 0.018410677 0.0038919097
-0.013106159 0.010763255 -0.011607069 0.0074567012 -0.00024447803 0.010719259 -0.006007204 -0.0076432675
0.009445766 -0.0018355759 0.007098812 -0.018220317 0.023335045 0.0043210657 -0.019212898 -0.0075901104
-0.023323223 0.023262758 0.021605927 -0.043711822 0.03015408 0.0060028723 0.01172336 -0.047257353
0.019997213 -0.005689512 -0.011443578 -0.008980003 -0.08488938 0.016312685 -0.046141706 -0.006591266
0.017711446 -0.021477355 0.025254907 -0.020606568 0.00817633 -0.020525882 0.018072294 0.020680835
-0.02699683 -0.0075227306 -0.021511147 0.04113616 -0.041869175 -0.0019213597 0.046600923 0.015462629
00000000: 1ca4 a9bc 1577 b43c a70e 5f3c dd5e 2dbd
00000010: 6d51 fa3c da23 233c f503 353c 8b8f 26bd
00000020: 5cad ad3c 92a5 9fb8 bc6c adbb 3eca 91bb
00000030: 2fcd 98bd 241e 893c 7642 19bd c6d6 fdbb
00000040: aea8 5e3c c59b 84bc f003 b33c 7351 8ebc
00000050: 8eee 283c 4164 89bc fbff 7c3c dcf1 943c
00000060: 785a 95bc 5496 1ebc 4ae0 c2bc 61af 0e3d
00000070: b774 04bd d162 7b3b 5607 2c3d 74ea 0d3c
00000080: 5764 21bc af17 f83b 0032 4cbb 00f8 a0bc
00000090: e339 2a3c 001f b23b 10b7 033c 19ac f8bb
000000a0: dab9 763b 68cb 813b 0c6f 853a fe6d 11bb
000000b0: 2813 a5bc ce41 b23b 8d7a 0cbc 4b3e b339
000000c0: 1158 b83b 57ea a9bb a0f4 fa3b 0c92 04bc
000000d0: b928 243c 65ab a0bb da51 013c 80db 143c
000000e0: 3329 e1ba c6ba b2bb 1bfc 31bc 4db6 2e3c
000000f0: 2367 c4bb f435 ef3b b523 803c f702 87ba
00000100: 2d22 4cbc ae05 443c a979 2a3c 0cd8 b3bc
00000110: b521 773c ef90 383b c447 d23b c132 c7bc
00000120: ae12 333c 18db 7cbb 26c4 a0bb a5ad 5bbb
00000130: 0e9b 32bd 289d f53b 2c23 babc 68db 85bb
00000140: 4b35 283c fd5d 41bc 24b2 6f3c 0fb0 39bc
00000150: 8ec2 a13b 9d23 37bc d29b 183c 5221 363c
00000160: be76 3cbc 135f 59bb 5082 4bbc 0e0d ae3c
00000170: 13e1 a8bc 71e4 b5b9 9cf1 be3c 458a 0b3c
00000180: 11d0 e33c 213e b8bb ef22 54bb b807 fa3c
00000190: 72b3 5cbb 6721 233b f0dc bcbc 1d7d 6f3b
000001a0: 1fe5 a63c 3cba f73b 8ba7 723c a880 c63c
000001b0: af36 ed3c 1f54 c33b 25bb bb3c a092 a9bc
000001c0: 16ab 1fbc 28b2 8b3c 161b a5bc 7457 c83c
000001d0: ddad a9bc db00 6e3c 140b abbc c9e1 bebc
000001e0: 7b77 933c bc28 43bb b9eb 2f3b 5bde cfbc
000001f0: 9a92 3d3c 18d4 603a 6717 f2bc 17e4 52bc
00000200: 54ac 91bb 1345 ca3a db04 1d3c e648 93bb
00000210: f588 4b3a 243f a2bb 34f8 b33a 3d35 6cbc
00000220: 514c 333b 6ef2 e8bb 57d5 96bb 7640 1cbb
00000230: baee 9cbc 5818 ccba 6bcb 24bc 23f9 1cba
00000240: 6b6e 0f3c 7be1 fbbb 9d57 f43b 0c2b a0bb
00000250: 7ae8 bfba 1df8 dabb 7e1e 513b a57a 883b
00000260: 7c41 c8bb 7202 863b 9259 5aba 28fc 1f3c
00000270: 7793 5abc 6c40 bbbb 9a15 003c 3616 003c
00000280: c110 a83c 78ef babc 4d2a aabb ec83 183d
00000290: 7189 f0bc cbe3 82bc 7695 68bc 8f87 5d3c
000002a0: d854 f4bb 94d9 90bb 7a9c 0c3c 7416 3c3c
000002b0: 7097 423d 2e4b 91bc e644 053d e350 c338
000002c0: bbf2 b23b 7824 e43b 8e51 5abc 9cfc 7a3c
000002d0: 5c30 6fbc 3f3a 1a3c d824 7dbc 97c1 81bc
000002e0: 2a30 b73c fb69 6a3c 429c 943c cd35 d2bc
000002f0: 090c 543c 0293 d8bb e791 13bd 113d 95bb
00000300: a740 083c f8fe d0bb e39c 52bc a5dc 863c
00000310: 9eff 12bc bc23 213b 319c 4fbb e5c4 e63c
00000320: 972e 39bc 307e 9c3b f7cd 8e3b 100d f33a
00000330: 52b5 233d d724 40bb fdd1 963c 690f 7f3b
00000340: 37bb 56bc 5d58 303c 932b 3ebc 5857 f43b
00000350: 492d 80b9 d59f 2f3c 14d8 c4bb 6074 fabb
00000360: 6ac2 1a3c b597 f0ba 279d e83b c642 95bc
00000370: 2329 bf3c ba97 8d3b 5e64 9dbc 76b6 f8bb
00000380: 5810 bfbc 8a91 be3c eafe b03c 2b0b 33bd
00000390: b005 f73c beb3 c43b 5613 403c ed90 41bd
000003a0: 32d1 a33c 166f babb d87d 3bbc dd20 13bc
000003b0: 7cda adbd 2ea2 853c 16ff 3cbd 8cfb d7bb
000003c0: 9817 913c 47f1 afbc 61e3 ce3c 1bcf a8bc
000003d0: 03f6 053c e525 a8bc 590c 943c db6a a93c
000003e0: 7528 ddbc 3d81 f6bb 2538 b0bc 647e 283d
000003f0: 037f 2bbd 22d6 fbba 9ce0 3e3d f756 7d3c
