hw2/data/lb_rtg_na_CartPole-v0_16-06-2019_20-39-51/21/model.pkl (torch_old, 40470 bytes, 24 tensors)

weight f4 [32, 4]
0	0xbf2e209f	-0.68018526
1	0xbf6a37a8	-0.91491175
2	0x3f3d1623	0.738619
3	0x3f55b138	0.8347354
4	0x3ec8369c	0.39104164
5	0x3e0c0bb3	0.13676338
6	0xbf7f4e57	-0.9972891
7	0xbf61a07d	-0.8813551
8	0x3d8a7110	0.06759846
9	0x3edf06ab	0.43559775
10	0xbf5a45d5	-0.85262805
11	0xbf343b6b	-0.70403165
12	0xbef2c151	-0.47413114
13	0xbe828756	-0.25493878
14	0x3e9d8be0	0.3077078
15	0x3f7119bb	0.94179887
16	0x3e466b6b	0.19376914
17	0xbe6f99b4	-0.23398477
18	0xbf202a82	-0.6256486
19	0xbf3ae65e	-0.7300776
20	0x3e823495	0.25430742
21	0x3ea77302	0.32704931
22	0xbe9864b9	-0.29764345
23	0xbf567091	-0.8376551
24	0x3e6499d8	0.22324312
25	0x3f42c946	0.7608837
26	0xbf469e75	-0.77585536
27	0xbf18cd6a	-0.59688437
28	0x3ed25308	0.41078973
29	0x3ea249a0	0.31696796
30	0xbf65e98c	-0.8980949
31	0xbf668697	-0.9004912
32	0x3e9a139e	0.30093092
33	0x3eceb744	0.40374196
34	0xbf0bc112	-0.54591477
35	0xbf46ac9e	-0.7760714
36	0x3f00b3de	0.50274456
37	0xbeaa73e4	-0.33291543
38	0xbece8393	-0.40334758
39	0xbf4760f3	-0.7788231
40	0x3f38deaf	0.7221479
41	0x3e001717	0.12508808
42	0xbf4f581f	-0.8099384
43	0xbf241cbe	-0.6410636
44	0xbec09b34	-0.3761841
45	0xbf488df8	-0.7834163
46	0x3f0952f1	0.53642184
47	0x3f70cd93	0.9406368
48	0x3e441215	0.19147523
49	0x3e33ffa4	0.17577988
50	0xbec39cfc	-0.38205707
51	0xbf72e0b6	-0.9487413
52	0xbf1fe889	-0.62464195
53	0xbf3898a7	-0.7210793
54	0x3f310104	0.69142175
55	0x3edef491	0.43545964
56	0xbf15ba3d	-0.584873
57	0xbf40bd0c	-0.7528846
58	0x3ea59e4e	0.3234734
59	0x3f6f5ef1	0.93504244
60	0x3e184382	0.14869502
61	0x3f20ef48	0.62865114
62	0xbf2a4dd8	-0.6652503
63	0xbf6aa33a	-0.91655314
64	0xbe982083	-0.29712304
65	0xbf51568c	-0.81772685
66	0x3f58b0ed	0.8464497
67	0x3f70f3f2	0.9412223
68	0x3f4dbfe9	0.80370957
69	0x3db1f109	0.08688552
70	0xbea09d86	-0.3137018
71	0xbf5c7939	-0.8612247
72	0x3f24eb55	0.6442159
73	0x3e74e11e	0.23914
74	0xbe9c3900	-0.30512238
75	0xbf3dcdf0	-0.7414236
76	0xbf13fb1b	-0.5780503
77	0xbec16e15	-0.37779298
78	0x3f40a163	0.75246257
79	0x3f83c58a	1.0294659
80	0xbf371c90	-0.7152796
81	0xbe216930	-0.15762782
82	0x3f0c4c5b	0.5480401
83	0x3f5f6ba8	0.87273645
84	0xbec5d043	-0.38635454
85	0x3d20ba9a	0.039240457
86	0x3f118466	0.5684265
87	0x3f323940	0.69618607
88	0xbe0e655c	-0.13905853
89	0xbdde4f7e	-0.10855006
90	0x3eb8a7da	0.3606556
91	0x3ef97fb7	0.4873025
92	0xbe2237cd	-0.15841599
93	0xbf6885ab	-0.9082896
94	0x3f502c7a	0.81317866
95	0x3ed03e88	0.40672708
96	0x3e693860	0.22775412
97	0x3e20af03	0.15691762
98	0xbf0b9880	-0.5452957
99	0xbf30d6b3	-0.69077605
100	0x3eab26a2	0.33427912
101	0x3e51c067	0.20483552
102	0xbe3115ff	-0.17293547
103	0xbe9a561b	-0.30143818
104	0xbea98506	-0.331093
105	0xbf442bc5	-0.76629287
106	0x3ea6d786	0.32586306
107	0x3f84c80f	1.0373553
108	0xbf20678b	-0.62657994
109	0xbf39e75a	-0.7261864
110	0x3f4da0aa	0.8032328
111	0x3f0cc463	0.5498716
112	0x3eb209da	0.3477314
113	0x3b8b7818	0.0042562596
114	0x3d6bcbd3	0.05756743
115	0x3ee54d2b	0.44785437
116	0xbf52ced5	-0.8234685
117	0xbee26f3a	-0.44225484
118	0x3f687584	0.90804315
119	0x3f576e4b	0.8415267
120	0x3e7d2893	0.24722509
121	0x3f5d0d53	0.86348456
122	0xbf2253fe	-0.6340941
123	0xbe9e88ba	-0.3096369
124	0x3e698386	0.22804078
125	0x3cf11cdc	0.029432707
126	0xbeccbe51	-0.3998895
127	0xbf807156	-1.0034587

bias f4 [32]
0	0xbd494167	-0.04913464
1	0xbd2e44cd	-0.042546082
2	0xbd940639	-0.072277494
3	0xbe860272	-0.2617374
4	0x3e984a20	0.29744053
5	0xbd706d47	-0.058697965
6	0xbd2e0764	-0.042487517
7	0x3e10266e	0.1407716
8	0x3e0563c8	0.13026345
9	0xbe3cb99e	-0.18430182
10	0xbd95ec28	-0.07320434
11	0xbe1e4fd8	-0.15460145
12	0x3d6d99c1	0.05800796
13	0x3ecd3365	0.40078273
14	0xbd7779a4	-0.06041874
15	0x3c8dfd10	0.017332584
16	0xbddb93b1	-0.10721529
17	0x3e273a88	0.16330922
18	0x3f1922f4	0.5981896
19	0xbe7e95be	-0.2486181
20	0xbd74ee2f	-0.059797462
21	0x3e74f3a4	0.23921067
22	0xbf0f2ec0	-0.5593071
23	0x3ea9edcb	0.33189234
24	0x3e9701f2	0.29493672
25	0x3ef4754f	0.4774575
26	0x3d71800f	0.058960017
27	0xbd9914fc	-0.074747056
28	0xbedd5a84	-0.4323312
29	0xbd96bb63	-0.0735996
30	0xbe48fc00	-0.1962738
31	0x3ee729bb	0.45149025

weight f4 [32, 32]
0	0x3f4509c8	0.7696805
1	0xbe78f78f	-0.24313186
2	0xbedcdae1	-0.4313574
3	0x3f128a56	0.57242334
4	0xbec861e8	-0.39137197
5	0xbf16c035	-0.58887035
6	0x3e67486f	0.22586225
7	0xbf4f087a	-0.8087231
8	0xbee0e9b3	-0.43928298
9	0xbd53b079	-0.05168197
10	0xbea498df	-0.3214788
11	0x3ecdfae6	0.40230483
12	0xbe51a99b	-0.20474856
13	0xbe23f1fd	-0.1601028
14	0x3ed47000	0.414917
15	0xbec655db	-0.38737378
16	0x3f38a3e5	0.72125083
17	0xbf42e164	-0.7612517
18	0xbf689273	-0.90848464
19	0x3f1976c9	0.59946877
20	0x3f54676a	0.829703
21	0x3e601686	0.21883592
22	0x3f14443b	0.5791661
23	0xbedb4968	-0.42829442
24	0xbf2881e8	-0.6582322
25	0xbec766e6	-0.38945693
26	0x3ef86059	0.48511007
27	0x3eeee843	0.46661577
28	0x3e890d0e	0.26767772
29	0x3ed7f3ec	0.42178285
30	0x3e41906d	0.1890275
31	0xbf53fd55	-0.8280843
32	0xbed8b9d0	-0.42329264
33	0x3f26ac04	0.65106225
34	0x3ec10d89	0.3770564
35	0xbf161f96	-0.58641946
36	0x3efb7a25	0.49116626
37	0x3e9064f6	0.28202027
38	0xbdf8d7b4	-0.12150517
39	0x3f47bc64	0.78021836
40	0x3f3d7fb8	0.7402301
41	0xbb697eaa	-0.0035628476
42	0x3d54047b	0.051762085
43	0xbec0dae0	-0.37666988
44	0x3f35904a	0.7092329
45	0x3dab4637	0.08363002
46	0xbeeb8bcb	-0.4600509
47	0x3f062239	0.5239597
48	0xbf36d747	-0.7142224
49	0x3e900960	0.28132153
50	0x3f6759ee	0.90371597
51	0xbea71dd3	-0.32639942
52	0xbe89e7e1	-0.26934722
53	0xbe94f99c	-0.29096687
54	0xbefb542c	-0.49087656
55	0x3de028d1	0.10945285
56	0x3f11569a	0.5677277
57	0x3f4d9c3b	0.80316514
58	0xbea726b8	-0.32646728
59	0xbf29d42b	-0.6633937
60	0xbe41a289	-0.18909658
61	0xbf343726	-0.7039665
62	0xbf01d83a	-0.5072056
63	0x3ed33f1c	0.41259086
64	0xbf026cbc	-0.50947165
65	0x3f24f7ad	0.64440423
66	0xbe656336	-0.22401127
67	0x3d1fb03c	0.03898643
68	0x3f1ff172	0.6247779
69	0xbf1c6f6e	-0.6110753
70	0xbed582ab	-0.41701254
71	0xbeb6a126	-0.35669822
72	0x3ea0f581	0.31437305
73	0xbf36b9e2	-0.71377385
74	0xbf2b5bfe	-0.66937244
75	0xbeb629bb	-0.35578713
76	0x3f217e09	0.6308294
77	0x3e379a8d	0.1793005
78	0xbe61d4b9	-0.22053804
79	0xbee07065	-0.4383575
80	0xbee50b7e	-0.4473533
81	0xbecb4b17	-0.39705727
82	0x3e1a9db6	0.15099224
83	0xbedfa5af	-0.43681094
84	0xbf21f9c4	-0.6327174
85	0x3f3c2919	0.7350021
86	0xbefa3b6f	-0.4887347
87	0x3ebc726b	0.36806044
88	0x3ebcc84c	0.36871564
89	0x3f33287d	0.69983655
90	0xbed657bd	-0.41863814
91	0xbf1b078a	-0.6055838
92	0xbecfc40d	-0.40579262
93	0x3e93a2a2	0.28835016
94	0xbf04f147	-0.5193066
95	0x3f18bf09	0.59666497
96	0x3eee8335	0.46584478
97	0xbf3a645e	-0.728094
98	0xbf07e755	-0.5308736
99	0x3f5f245c	0.87164855
100	0xbe900337	-0.28127453
101	0xbeafbfe9	-0.34326103
102	0x3e6feb6f	0.23429655
103	0xbf34fd76	-0.7069925
104	0xbe0d58dc	-0.13803428
105	0x3cc8bb12	0.024503265
106	0xbd45ecc2	-0.048321493
107	0x3e82a2a2	0.25514704
108	0xbefbf148	-0.4920752
109	0xbe9a80cb	-0.30176386
110	0x3e842879	0.25812128
111	0xbf11d991	-0.56972605
112	0x3ef844e6	0.48490065
113	0xbf19c989	-0.60073143
114	0xbec5e55d	-0.38651553
115	0x3f24da75	0.6439584
116	0x3f56fc49	0.83978707
117	0xbe00e0f5	-0.12585814
118	0x3f112067	0.5669007
119	0x3bd8424f	0.0065997015
120	0xbe28219e	-0.16419074
121	0xbe85b817	-0.26117012
122	0x3f44a50a	0.7681433
123	0x3d61ecf7	0.055157628
124	0x3f2cce14	0.6750195
125	0x3f1c6ca6	0.61103284
126	0x3ede2f57	0.43395492
127	0xbf1282a6	-0.57230604
128	0x3ea46211	0.3210607
129	0xbf227a6d	-0.63468057
130	0xbebb7e2d	-0.36619702
131	0x3f4d5b63	0.8021757
132	0xbe8270b7	-0.2547662
133	0xbeb9b86c	-0.36273515
134	0xbe1aeaea	-0.15128675
135	0xbf0f7563	-0.5603849
136	0xbf061b2f	-0.5238523
137	0xbe92c146	-0.2866308
138	0xbe573466	-0.21016082
139	0x3f453836	0.77038896
140	0xbefef5d8	-0.4979694
141	0xbe59b2a1	-0.21259548
142	0x3f119b08	0.56877184
143	0xbe49024a	-0.1962978
144	0x3ed5a034	0.41723788
145	0xbe94bf9b	-0.29052433
146	0xbf0770a6	-0.5290626
147	0x3eed928b	0.46400866
148	0x3f35280b	0.70764226
149	0x3e081018	0.1328739
150	0x3f3e8656	0.7442373
151	0xbbad3c09	-0.0052866978
152	0xbf12ed4f	-0.57393354
153	0xbf0f8adb	-0.5607125
154	0x3efe4c1e	0.49667448
155	0x3eacb71d	0.33733454
156	0x3ebbe575	0.366985
157	0x3f065be3	0.5248396
158	0x3e90cd79	0.28281763
159	0xbec94668	-0.39311528
160	0x3f01d105	0.50709563
161	0xbec32386	-0.3811304
162	0xbf10d4ea	-0.5657488
163	0x3ebb21f0	0.3654933
164	0xbe382d1b	-0.17985956
165	0xbe8bd1e3	-0.27308568
166	0xbeb93edb	-0.36180767
167	0xbf1cd95a	-0.6126915
168	0x3d026a7a	0.031839825
169	0xbef9617e	-0.48707193
170	0xbf131ccd	-0.5746582
171	0x3eab5ecf	0.3347077
172	0xbeae40f8	-0.34033942
173	0xbd214a05	-0.03937723
174	0x3ed3ef6b	0.413936
175	0xbecce5a3	-0.4001895
176	0x3eafb354	0.34316504
177	0xbf5956a5	-0.84897834
178	0xbf1535fc	-0.582855
179	0x3f5cc1f6	0.8623346
180	0x3f05223f	0.5200538
181	0x3e8ecab7	0.27889034
182	0x3f0b7164	0.54469895
183	0x3f273795	0.65319186
184	0x3efbd10a	0.49182922
185	0xbf241517	-0.6409468
186	0x3f1cb40a	0.6121222
187	0xbe3e4a82	-0.1858311
188	0xbd9b3e38	-0.07580227
189	0x3f1840d1	0.594739
190	0xbf1db6d8	-0.6160712
191	0xbf4f5a82	-0.8099748
192	0xbf38dc10	-0.7221079
193	0x3e516122	0.2044721
194	0x3f408917	0.7520918
195	0xbeb14aab	-0.3462728
196	0x3f1b8e03	0.6076357
197	0x3f106e1a	0.56418
198	0x3eb6e07a	0.35718137
199	0x3ecac67b	0.39604554
200	0x3dde97c9	0.108687945
201	0x3ed158c6	0.4088804
202	0x3e9dcf85	0.30822387
203	0xbea600f7	-0.3242261
204	0x3e845a21	0.25850013
205	0xbdd7ce89	-0.1053744
206	0xbf0c5b30	-0.5482664
207	0x3ed0f416	0.40811223
208	0xbf4539f0	-0.7704153
209	0x3f12eb5c	0.5739038
210	0x3f31dc08	0.69476366
211	0xbf06b504	-0.5261996
212	0xbf4ee738	-0.8082156
213	0xbf1f60bb	-0.62256974
214	0xbf4a6d6e	-0.79073226
215	0xbe943df1	-0.28953508
216	0x3d46b241	0.04850984
217	0x3f47d415	0.78057986
218	0xbf1b6e2e	-0.60714996
219	0xbe899ccd	-0.26877442
220	0xbdcd6f34	-0.10030976
221	0xbf524975	-0.82143337
222	0x3dcc476c	0.0997456
223	0x3f4a77f2	0.7908927
224	0xbf4057fc	-0.75134254
225	0x3ef701b2	0.4824348
226	0x3f0d4a6d	0.5519169
227	0xbf0639eb	-0.52432126
228	0x3eda00c6	0.42578715
229	0x3e82cf5f	0.25548837
230	0xbe7b629f	-0.2454934
231	0x3f60eae7	0.8785843
232	0x3eaadab8	0.33369994
233	0x3e2ed981	0.17075159
234	0xbe3f86fd	-0.18703838
235	0xbf16663f	-0.58749765
236	0x3eed8bcf	0.46395728
237	0x3ec23195	0.37928453
238	0xbe838ad0	-0.25691843
239	0x3f08d5bd	0.5345114
240	0xbf32b3ce	-0.6980561
241	0x3f267d99	0.65035397
242	0x3eb2db34	0.34932864
243	0xbf348ea2	-0.7053014
244	0xbf24c835	-0.6436799
245	0x3d7115b9	0.058858607
246	0xbf4a8509	-0.79109246
247	0x3d2f4289	0.042788062
248	0x3f138fa4	0.57641053
249	0x3f44cef9	0.76878315
250	0xbeb6e3fa	-0.35720807
251	0xbe85ddeb	-0.26145872
252	0xbef348af	-0.4751639
253	0xbf3e7a3e	-0.74405277
254	0xbed9127a	-0.4239691
255	0x3ecf4cb8	0.4048822

bias f4 [32]
0	0x3e1aa6d8	0.15102708
1	0xbe287641	-0.1645136
2	0xbec8a2c6	-0.39186686
3	0x3e199adb	0.15000479
4	0x3d533ec6	0.051573537
5	0xbf083d00	-0.5321808
6	0x3d21fc65	0.039547343
7	0xbe64c03c	-0.22338957
8	0x3e96f7a0	0.29485798
9	0x3e8f15a3	0.27946195
10	0xbd8672ae	-0.06564842
11	0x3e3dfdce	0.1855385
12	0xbde67a1f	-0.112537615
13	0x3d4982f6	0.04919716
14	0x3e3805e2	0.17970994
15	0xbe17fb3d	-0.14841934
16	0xbeafac1a	-0.3431099
17	0xbccc265d	-0.024920637
18	0x3eb7adb8	0.35874724
19	0x3db14b3f	0.0865693
20	0x3e483dad	0.19554777
21	0xbe95c058	-0.2924831
22	0x3e86539f	0.26235673
23	0xbd96f3dc	-0.07370731
24	0xbdf7d2b4	-0.12100735
25	0x3ed76abb	0.42073616
26	0x3ec1ef0d	0.37877694
27	0xbe5c1ba9	-0.21494927
28	0x3ea759fa	0.32685834
29	0xbe91dc8e	-0.28488582
30	0x3f31f2b6	0.6951097
31	0x3edd9386	0.43276614

weight f4 [32, 32]
0	0xbef10878	-0.47076774
1	0xbe1710f7	-0.14752565
2	0x3f4ec724	0.80772614
3	0xbf23eb6b	-0.64031094
4	0xbf30f5db	-0.69125146
5	0x3e6de869	0.23233189
6	0x3f209a42	0.6273538
7	0x3f043cc7	0.5165524
8	0xbd81fa2a	-0.06346543
9	0x3e801ef5	0.25023618
10	0x3f3a2256	0.7270864
11	0xbec9641e	-0.39334196
12	0x3e731aa6	0.23740634
13	0xbec5d557	-0.38639328
14	0xbf4b2b3c	-0.79362845
15	0x3f080fd8	0.53149176
16	0x3ef7b27b	0.48378357
17	0xbea6bd3d	-0.32566252
18	0xbdeea40e	-0.11652385
19	0xbf2ac5e3	-0.667082
20	0xbe85107a	-0.25989133
21	0xbe11ec11	-0.14250208
22	0xbe9c7590	-0.30558443
23	0x3e85bb26	0.26119345
24	0xbe944186	-0.2895624
25	0xbebf6c26	-0.37387198
26	0xbf2767df	-0.6539287
27	0x3d948e5b	0.07253715
28	0xbef345cc	-0.47514188
29	0xbcb16be0	-0.021657884
30	0x3f1cd5fc	0.61264014
31	0xbda172b4	-0.07883206
32	0x3ea389e7	0.3194115
33	0xbecb0151	-0.39649442
34	0xbc638f41	-0.013889135
35	0x3f332ca8	0.69990015
36	0x3f0895ec	0.5335376
37	0x3e90212a	0.28150302
38	0xbf09893b	-0.5372502
39	0xbf199808	-0.59997606
40	0xbed326d2	-0.41240555
41	0xbeaf2e51	-0.34215024
42	0xbefe1d5b	-0.4963177
43	0x3e91e89c	0.2849778
44	0xbec2ab4b	-0.3802131
45	0x3e964f92	0.29357582
46	0x3eaa733d	0.33291045
47	0xbf1f0323	-0.6211416
48	0xbf0bc717	-0.5460066
49	0x3f257e0a	0.64645445
50	0xbe79c6a0	-0.24392176
51	0x3e8b1132	0.27161556
52	0x3f0438c2	0.51649106
53	0x3f173242	0.5906106
54	0xbe0c7c4a	-0.13719288
55	0xbf003104	-0.5007479
56	0x3e8947ea	0.2681268
57	0xbcc07865	-0.023494909
58	0x3e9a4ea6	0.3013813
59	0x3bc9e100	0.0061608553
60	0xbebadc60	-0.36496258
61	0xbd990f36	-0.074736044
62	0xbf403e50	-0.7509508
63	0xbf38cf4c	-0.7219131
64	0x3e695ef3	0.22790127
65	0xbe0dcd13	-0.13847761
66	0xbcbb8c80	-0.022894144
67	0x3f12fcfc	0.57417274
68	0x3f338746	0.70128286
69	0x3e161b03	0.14658742
70	0xbeeebc39	-0.46627977
71	0xbf4b1762	-0.79332554
72	0xbf1d1589	-0.61360985
73	0xbe73a060	-0.23791647
74	0xbef4f8a9	-0.47845963
75	0x3dd675c1	0.104716785
76	0xbf30978e	-0.68981254
77	0x3f2caa3b	0.6744725
78	0x3f2890e1	0.6584607
79	0xbed62213	-0.41822872
80	0xbdc36056	-0.09539859
81	0x3eff7014	0.49890196
82	0xbe9824b6	-0.29715508
83	0x3ec53003	0.38513193
84	0x3f3c5e84	0.7358172
85	0x3f2a7795	0.6658872
86	0xbeaf92bf	-0.34291646
87	0xbef6f1a4	-0.48231232
88	0x3f161147	0.58620113
89	0xbe1a37df	-0.15060376
90	0xbddb3e42	-0.10705234
91	0xbe070b99	-0.13188018
92	0xbd2c39b8	-0.042047232
93	0x3e642af9	0.22282018
94	0xbe82533b	-0.25454125
95	0xbe5be04a	-0.21472278
96	0x3ee812a5	0.45326725
97	0xbe48c31d	-0.1960568
98	0x3f235b09	0.63810784
99	0x3ea50c6c	0.3223604
100	0x3e774f59	0.24151362
101	0x3f00e606	0.5035099
102	0xbf42a03c	-0.7602575
103	0xbf568b40	-0.8380623
104	0xbe9fb7a1	-0.31194785
105	0xbf39b9c7	-0.725491
106	0xbdde205b	-0.10846015
107	0xbec43aa8	-0.38326
108	0xbf1337fc	-0.575073
109	0x3f13ed50	0.57783985
110	0x3ea1eaf8	0.3162458
111	0xbf4a8494	-0.7910855
112	0xbec2d1d6	-0.38050717
113	0x3f4bfdb3	0.7968399
114	0xbf1b266b	-0.60605496
115	0x3f406d42	0.75166714
116	0x3f5910fc	0.8479154
117	0x3e173352	0.14765671
118	0x3d5c5adb	0.053797584
119	0xbf2063c6	-0.6265224
120	0x3f3d9942	0.7406198
121	0xbecc12c8	-0.3985808
122	0xbe7a5ff8	-0.24450672
123	0xbe089b1a	-0.13340417
124	0xbe11301c	-0.14178509
125	0x3e6f1d38	0.2335099
126	0xbeaa14f6	-0.33219117
127	0xbec6e6cd	-0.38847962
128	0x3e1cda36	0.15317616
129	0xbdd8d888	-0.10588175
130	0x3f33a614	0.7017529
131	0x3e104e3e	0.14092347
132	0x3e6846aa	0.22683206
133	0x3f2e3771	0.68053347
134	0xbee26d07	-0.44223806
135	0xbf38ff07	-0.7226414
136	0xbef061f9	-0.46949747
137	0xbf1de0f2	-0.61671364
138	0xbe972262	-0.2951842
139	0xbe1a84a0	-0.15089655
140	0xbf34fd3e	-0.70698917
141	0x3e618eb1	0.22027089
142	0x3f2bff76	0.6718668
143	0xbefc1d56	-0.49241132
144	0xbe853a1e	-0.26020902
145	0x3f35337a	0.7078167
146	0xbec241b2	-0.37940747
147	0x3e9e65e8	0.30937123
148	0x3f5433de	0.82891643
149	0x3ea619ae	0.32441467
150	0xbd8c0e3e	-0.06838654
151	0xbf238f41	-0.63890463
152	0x3f47eb9f	0.78093904
153	0xbefbe01f	-0.49194428
154	0xbf171c8c	-0.59027934
155	0xbd2402b1	-0.04004163
156	0xbe2a2c6d	-0.1661851
157	0xbdc5e64a	-0.09663065
158	0xbeebdfd5	-0.46069208
159	0xbe700e45	-0.23442943
160	0x3f430faa	0.76195776
161	0xbe7ac6b5	-0.24489863
162	0x3e76cad0	0.24100804
163	0x3ed0167e	0.4064216
164	0xbe4a212b	-0.19739215
165	0x3f150a02	0.58218396
166	0xbf1fcab4	-0.62418675
167	0xbf17e286	-0.5933002
168	0xbee0eb17	-0.4392936
169	0xbf5746f1	-0.84092623
170	0xbed0024a	-0.40626746
171	0x3e76d53e	0.24104783
172	0xbf36cb90	-0.7140436
173	0x3f0ff51e	0.56233394
174	0x3e86f18d	0.26356164
175	0xbf0c5cff	-0.548294
176	0xbea04259	-0.3130062
177	0x3eaa9e6b	0.33323988
178	0xbf0cae22	-0.54953206
179	0x3f0e36cd	0.5555237
180	0x3ef9e521	0.48807624
181	0x3f21498c	0.6300285
182	0xbc5228d6	-0.012827119
183	0xbeea6fe4	-0.4578849
184	0x3eac9b55	0.3371226
185	0xbc9bd585	-0.019022712
186	0xbec57ca1	-0.38571647
187	0xbdb7dd2c	-0.08977732
188	0xbe42bf3f	-0.19018267
189	0x3d708564	0.05872096
190	0xbf041c3c	-0.5160558
191	0xbef59c43	-0.4797078
192	0xbf0ff215	-0.5622876
193	0x3e3536c1	0.17696668
194	0xbe0ed725	-0.13949259
195	0xbf35f0c5	-0.7107051
196	0xbf1a8815	-0.60363895
197	0xbeec9c9b	-0.4621323
198	0x3ea9a4e1	0.33133605
199	0x3f1bec92	0.6090785
200	0x3efd2293	0.4944044
201	0x3ea181be	0.31544298
202	0x3f08fda1	0.53512007
203	0x3d8862cf	0.06659471
204	0x3f329c5f	0.69769853
205	0xbf1bb6f5	-0.60826045
206	0xbeafcaba	-0.34334356
207	0x3eb25747	0.34832212
208	0x3df35ef6	0.11883347
209	0xbf1c61d7	-0.6108679
210	0x3f0007dc	0.5001199
211	0xbeed8c36	-0.46396035
212	0xbf11c383	-0.5693895
213	0xbe62e9bc	-0.22159475
214	0xbdd5ce21	-0.104397066
215	0x3ed27f27	0.41112635
216	0xbebfaae2	-0.3743506
217	0x39812920	0.00024635438
218	0x3dccae16	0.09994142
219	0x3ebc4a97	0.36775658
220	0x3eda940f	0.42691085
221	0x3d8ef410	0.06980145
222	0x3ebc2161	0.36744216
223	0x3f162108	0.5864415
224	0xbf30be7c	-0.69040656
225	0x3f15a4f4	0.58454823
226	0xbeac4146	-0.3364355
227	0xbe8b9616	-0.27262944
228	0xbf06299f	-0.5240726
229	0xbf2de7ce	-0.6793183
230	0x3ed06797	0.40704033
231	0x3f41ce84	0.7570574
232	0x3eea7fc2	0.45800596
233	0x3f17174b	0.5901992
234	0x3de62d3c	0.112390965
235	0xbe1ee000	-0.15515137
236	0x3ee97694	0.4559828
237	0xbf132759	-0.57481915
238	0xbf027893	-0.5096523
239	0x3ebe05f6	0.37113923
240	0x3f1a4c33	0.6027252
241	0xbefb5831	-0.49090722
242	0x3f15ee54	0.58566785
243	0xbf37db9c	-0.7181947
244	0xbeb7f722	-0.35930735
245	0xbf2bdbfb	-0.6713254
246	0x3e464d1a	0.1936535
247	0x3f42210b	0.7583167
248	0xbec8222f	-0.3908858
249	0x3f107242	0.56424344
250	0x3e05eed5	0.13079388
251	0xbbec3e72	-0.0072095925
252	0x3dcbe5b2	0.0995592
253	0x3e90b3db	0.2826222
254	0x3ec803a2	0.39065272
255	0x3f18cd32	0.59688103

bias f4 [32]
0	0xbebac352	-0.36477143
1	0x3eef5720	0.4674616
2	0x3edfa1a5	0.43678012
3	0x3e5232a6	0.20527133
4	0x3eab07a9	0.33404282
5	0x3e2dfcd5	0.16990979
6	0xbea71260	-0.32631207
7	0xbeb39a34	-0.35078585
8	0xbec7980c	-0.3898319
9	0x3ec6a37d	0.38796607
10	0xbea5087d	-0.3223304
11	0xbe81a129	-0.25318268
12	0xbe990ac0	-0.29891014
13	0x3e8cb1f0	0.27479506
14	0xbf0bf9c4	-0.5467799
15	0xbf056300	-0.52104187
16	0xbead7061	-0.338748
17	0xbe97caf3	-0.29647025
18	0xbe5dec2e	-0.21672127
19	0x3e8fd652	0.280932
20	0x3e4c913a	0.19977275
21	0xbd7127c8	-0.05887583
22	0x3ee72afb	0.4514998
23	0xbed06c27	-0.40707514
24	0x3ca03d64	0.019560523
25	0xbde34de5	-0.110988416
26	0xbe4de706	-0.2010766
27	0xbe4cf225	-0.20014246
28	0xbe1c84fa	-0.15285102
29	0x3e3090e5	0.17242773
30	0x3e67f7d1	0.22653128
31	0x3e39bc9d	0.18138357

weight f4 [2, 32]
0	0xbf26effe	-0.6520995
1	0xbd5fd473	-0.054645967
2	0x3ee4c5c5	0.44682136
3	0xbf5745a0	-0.84090614
4	0xbef65066	-0.48108214
5	0xbe1bcfab	-0.15215938
6	0xbeb1d229	-0.34730652
7	0x3f5e1b05	0.8675998
8	0x3f5606da	0.83604205
9	0xbe47ce9f	-0.19512413
10	0x3f588f5d	0.84593755
11	0xbed1412b	-0.40870032
12	0xbe3843f8	-0.17994678
13	0xbf39bac2	-0.72550595
14	0xbea54089	-0.322758
15	0xbe43ba7d	-0.19114108
16	0xbed23582	-0.41056448
17	0xbe9c9d9b	-0.30588993
18	0x3f2b68b0	0.66956615
19	0xbf1e2968	-0.6178193
20	0xbf60479f	-0.87609285
21	0x3ec94bee	0.39315742
22	0x3def0ffd	0.116729714
23	0x3e5f8303	0.21827321
24	0x3eece3cc	0.46267545
25	0x3f0864cb	0.532788
26	0x3f092cba	0.5358387
27	0x3f3e31ad	0.7429455
28	0x3f3db8e0	0.7411022
29	0x3eb599ce	0.35468906
30	0xbf1be180	-0.6089096
31	0xbf5e8617	-0.86923355
32	0x3e353f8e	0.17700025
33	0x3d5ae193	0.05343778
34	0xbdc97c07	-0.098381095
35	0x3f5d2fc9	0.8640104
36	0x3e6bdd17	0.23033558
37	0x3f5b4114	0.85646176
38	0x3d1c4ecb	0.03816108
39	0xbf0658e8	-0.5247941
40	0xbe2b8999	-0.16751708
41	0xbe2b7398	-0.16743314
42	0xbf21b849	-0.6317182
43	0x3e9f9082	0.31164938
44	0x3ef9ebf9	0.48812845
45	0x3e06a87b	0.13150208
46	0x3f042715	0.51622134
47	0x3f36ff3f	0.71483225
48	0x3f3295d4	0.6975987
49	0x3e991463	0.29898366
50	0xbf310587	-0.6914906
51	0x3f07896b	0.5294406
52	0x3e8c104c	0.27356184
53	0xbf2ed148	-0.6828809
54	0xbf5a9f11	-0.85398966
55	0x3f14caa9	0.58121735
56	0xbf326622	-0.6968709
57	0xbf4618b7	-0.7738146
58	0x3c83302a	0.016014177
59	0xbf2af104	-0.6677401
60	0xbf6cb43a	-0.92462504
61	0xbe9a2791	-0.30108312
62	0x3f0f7a17	0.5604567
63	0x3f2d5e6a	0.6772219

bias f4 [2]
0	0xbe49751a	-0.19673577
1	0x3deccf2e	0.11562954

exp_avg f4 [32, 4]
0	0x3cd42d76	0.025900584
1	0x3c85caa5	0.01633198
2	0xbde6ee5e	-0.11275934
3	0xbec88272	-0.39162022
4	0xbceea877	-0.029133065
5	0xbcd4fced	-0.02599951
6	0x3de719fd	0.11284254
7	0x3ecc2a72	0.39876133
8	0xbc6b46e5	-0.014360164
9	0x3befa479	0.007313308
10	0x3d936fca	0.071990564
11	0x3e69372c	0.22774953
12	0x3c938d17	0.018011613
13	0xbbb61cca	-0.005557631
14	0xbdc8cab9	-0.09804291
15	0xbea485bf	-0.3213329
16	0xbbe2a65b	-0.006916804
17	0x3c00c643	0.007859769
18	0x3d0e3f4f	0.034728345
19	0x3ddf31ea	0.10898192
20	0xbc5fc07f	-0.0136567345
21	0x3be83bd7	0.0070872116
22	0x3d8a9f23	0.06768634
23	0x3e5ac13f	0.2136278
24	0xbbd8a826	-0.0066118417
25	0xbbc70eb3	-0.0060747503
26	0x3cf46f59	0.029838251
27	0x3dd1b43b	0.10239454
28	0xbca503ca	-0.020143408
29	0x3b25d738	0.0025305282
30	0x3dd0abde	0.10189031
31	0x3eab9e4c	0.33519208
32	0xbbe7292e	-0.0070544695
33	0x3b4af27f	0.0030967293
34	0x3d2b588a	0.041832484
35	0x3e0f5bb7	0.1399983
36	0x3a455803	0.00075280684
37	0x3c8e0a02	0.017338756
38	0x3c40f406	0.01177693
39	0x3ca83210	0.020531684
40	0xbbf18ef6	-0.0073717786
41	0x3bc46a3a	0.0059941085
42	0x3d18531a	0.037188627
43	0x3de956bd	0.11393497
44	0x3c8f8c53	0.017522966
45	0xb9a07d00	-0.0003061071
46	0xbdbaf19b	-0.09128114
47	0xbe9ca49e	-0.30594343
48	0xbbd18f7e	-0.0063952794
49	0x3c3145e9	0.010819891
50	0x3d30de7e	0.043180935
51	0x3e0d4849	0.13797106
52	0x3c153d2e	0.009108825
53	0x3cca6480	0.024706125
54	0xbca37062	-0.01995105
55	0xbdb416a3	-0.0879338
56	0x3c885509	0.01664211
57	0x3be9ea09	0.007138495
58	0xbdabcce0	-0.08388686
59	0xbe94e5e3	-0.2908164
60	0xbc00f689	-0.007871279
61	0x3bedccbf	0.0072570737
62	0x3d3ba2d5	0.045809586
63	0x3e114a1e	0.1418843
64	0x3ce09d82	0.027418856
65	0x3bcb8780	0.006211221
66	0xbe06a5d8	-0.13149202
67	0xbee3ad60	-0.44468212
68	0xbc530866	-0.01288042
69	0x3bcdfd25	0.0062862807
70	0x3d973862	0.07383801
71	0x3e7540f7	0.23950563
72	0xbb52f290	-0.0032188036
73	0x3cb69c7c	0.022291414
74	0x3d3d6867	0.046242144
75	0x3e0dd61b	0.13851206
76	0x3cab3100	0.020897388
77	0x3bb8de12	0.005641707
78	0xbddf5b0b	-0.10906037
79	0xbebebcb5	-0.37253347
80	0x3d107744	0.03526999
81	0x3d003dd6	0.03130897
82	0xbe1aa35c	-0.15101379
83	0xbf08a5c9	-0.5337797
84	0x3b577abb	0.003287955
85	0xbbe0e921	-0.0068637286
86	0xbc8afd74	-0.016966559
87	0xbd381962	-0.044946082
88	0xba42dfc8	-0.00074338587
89	0xbcbdfd88	-0.023192182
90	0xbcd6e0d2	-0.02623025
91	0xbd90c160	-0.07068133
92	0x3c235e40	0.009971201
93	0x3ceca9c4	0.028889544
94	0xbd1fca35	-0.0390112
95	0xbe2027bd	-0.15640159
96	0xbbe39f95	-0.006946514
97	0xbbfa09f8	-0.007630583
98	0x3d13ba35	0.036066253
99	0x3e0781f6	0.1323317
100	0xba401440	-0.0007327236
101	0x3cdd1c39	0.026990997
102	0x3cf06479	0.029344784
103	0x3d9c1591	0.07621301
104	0x3cabb9c0	0.020962596
105	0x3c30bf4d	0.010787797
106	0xbdca9740	-0.0989213
107	0xbeaf72ca	-0.34267265
108	0x3c65fadb	0.014036859
109	0x3c8115b9	0.015757428
110	0xbd85796e	-0.065173015
111	0xbe70ed62	-0.23528054
112	0x39b6b4d3	0.0003484847
113	0xbc6f4c36	-0.014605572
114	0xbc9a5484	-0.018839128
115	0xbd5a0399	-0.053226087
116	0x3c593256	0.01325663
117	0xbc095261	-0.008381457
118	0xbd8d853e	-0.069101796
119	0xbe5ecfcd	-0.21758957
120	0xbb64030b	-0.0034791853
121	0xbc843186	-0.016136896
122	0x3bb9de5d	0.0056722597
123	0x3cf98da2	0.030463044
124	0xbc1f6e71	-0.009730921
125	0x3c4f7ce8	0.012664057
126	0x3d6154a3	0.055012356
127	0x3e309bec	0.1724698

exp_avg_sq f4 [32, 4]
0	0x383d2067	4.509129e-05
1	0x38df1542	0.00010637428
2	0x3a2fc43e	0.00067049626
3	0x3c1478ad	0.0090619745
4	0x387b6fa2	5.994703e-05
5	0x39294493	0.00016142642
6	0x3a33311f	0.0006835628
7	0x3c1ba709	0.0095002735
8	0x378af384	1.6564278e-05
9	0x37c91c88	2.3974353e-05
10	0x398d97aa	0.00027006614
11	0x3b4b4bf6	0.0031020618
12	0x37d5261f	2.540933e-05
13	0x388786de	6.4624226e-05
14	0x39f088a6	0.00045878178
15	0x3bbd6a21	0.005780474
16	0x364a940e	3.0186525e-06
17	0x36bb0019	5.5730457e-06
18	0x3850ed50	4.981208e-05
19	0x3a16d56b	0.00057538477
20	0x3782f973	1.5613366e-05
21	0x37e41ea5	2.7193988e-05
22	0x396cf75b	0.00022598861
23	0x3b2c6117	0.0026302987
24	0x3672c5ea	3.6176011e-06
25	0x379c2d5e	1.8617775e-05
26	0x385eda80	5.313242e-05
27	0x3a454b31	0.0007526158
28	0x38089855	3.2566797e-05
29	0x38943d9c	7.0686656e-05
30	0x3a05fb81	0.00051110244
31	0x3bd1be93	0.006400892
32	0x36844895	3.942356e-06
33	0x371d7a08	9.386342e-06
34	0x38a5ff1c	7.915331e-05
35	0x3a85ff4e	0.0010223181
36	0x34848d00	2.4689507e-07
37	0x370b9993	8.320802e-06
38	0x366de5a7	3.5449427e-06
39	0x37453720	1.175495e-05
40	0x36a0389b	4.7749613e-06
41	0x3719c8f6	9.1663005e-06
42	0x388db1cd	6.756522e-05
43	0x3a48028f	0.0007629776
44	0x37ba3d65	2.2201517e-05
45	0x385d26ab	5.272652e-05
46	0x39d28ec9	0.00040160705
47	0x3baa1942	0.0051909992
48	0x365a89d2	3.2564753e-06
49	0x3716b262	8.98223e-06
50	0x38a3fb1c	7.8192184e-05
51	0x3a760391	0.0009384687
52	0x36c754dd	5.9405415e-06
53	0x37e8c771	2.7749427e-05
54	0x3829c140	4.0472718e-05
55	0x3a275167	0.00063826743
56	0x37a14970	1.9226893e-05
57	0x386e069a	5.674977e-05
58	0x39b790f0	0.00035012467
59	0x3b9de0d5	0.004818062
60	0x36cd8f8b	6.1261867e-06
61	0x37a90a00	2.0151027e-05
62	0x38d61ba2	0.00010209462
63	0x3a9f4f67	0.0012154401
64	0x3865ca81	5.478645e-05
65	0x38dbb7dd	0.00010476981
66	0x3a696b83	0.0008904265
67	0x3c3ba709	0.0114533985
68	0x3770f261	1.4361548e-05
69	0x384866f8	4.7779613e-05
70	0x398397dd	0.00025099414
71	0x3b510f57	0.0031900012
72	0x36080d7b	2.0273426e-06
73	0x37accccc	2.0599364e-05
74	0x38a5324c	7.8771816e-05
75	0x3a687c00	0.0008868575
76	0x380d25bb	3.365216e-05
77	0x38df58c5	0.00010650003
78	0x3a19f4ea	0.0005872982
79	0x3c025076	0.007953754
80	0x38bedfda	9.1016016e-05
81	0x398a5cff	0.000263907
82	0x3aa2b569	0.0012413684
83	0x3c8d5f86	0.017257463
84	0x35b5ab65	1.3535433e-06
85	0x3697560b	4.5101674e-06
86	0x375ac6bb	1.3040083e-05
87	0x39049692	0.00012644593
88	0x3538ce84	6.884586e-07
89	0x37849721	1.5806001e-05
90	0x37b2dc9d	2.1321985e-05
91	0x394d7897	0.00019595247
92	0x371126fb	8.651749e-06
93	0x38a07a06	7.652123e-05
94	0x3909f36d	0.00013156021
95	0x3b0d1f78	0.002153365
96	0x367a8407	3.7329753e-06
97	0x37b28f92	2.1286109e-05
98	0x3884c024	6.3300395e-05
99	0x3a818d06	0.0009883947
100	0x359d60d1	1.1725589e-06
101	0x37bae249	2.22783e-05
102	0x37e69010	2.7485221e-05
103	0x3978baae	0.00023720667
104	0x3800a9ed	3.0675834e-05
105	0x389429ff	7.065012e-05
106	0x3a0530fb	0.0005080846
107	0x3bdf2b3d	0.0068105743
108	0x376f034e	1.42462795e-05
109	0x38393d81	4.4164717e-05
110	0x39808835	0.00024515545
111	0x3b62e30c	0.0034620194
112	0x34c1c654	3.6093354e-07
113	0x36e5092b	6.825799e-06
114	0x374620c8	1.1809352e-05
115	0x38f6677f	0.00011749472
116	0x3780bb3b	1.5345975e-05
117	0x3805ef14	3.193233e-05
118	0x3971f574	0.0002307499
119	0x3b32318c	0.0027190177
120	0x35e0bbcb	1.6743955e-06
121	0x379afa0c	1.8474668e-05
122	0x373df8f9	1.1323246e-05
123	0x39509df0	0.00019895262
124	0x36e8d91c	6.9394137e-06
125	0x37c41446	2.3374461e-05
126	0x38f47d07	0.00011658115
127	0x3ab8fd07	0.0014113494

exp_avg f4 [32]
0	0x3ecfd3f9	0.4059141
1	0xbe89f47f	-0.26944348
2	0x3e1bd132	0.1521652
3	0x3e389239	0.1802453
4	0xbe8e6c2d	-0.27816907
5	0x3dc92872	0.098221675
6	0x3e4032b7	0.18769346
7	0xbd78ad54	-0.060712174
8	0xbe9741f1	-0.29542497
9	0x3daf0f9f	0.08547901
10	0x3dec2912	0.11531271
11	0x3eac7336	0.3368165
12	0xbeb163eb	-0.34646544
13	0xbdd449dc	-0.1036565
14	0x3edf3240	0.43593025
15	0x3e6301a7	0.22168599
16	0x3eb4117c	0.3516959
17	0xbd918bd7	-0.071067505
18	0xbe9a9a7d	-0.3019599
19	0x3e929f6c	0.28637254
20	0x3e94b1d6	0.29041928
21	0xbe56fa44	-0.20993906
22	0x3ea40ddd	0.32041827
23	0xbea01f2d	-0.31273785
24	0xbe7736e0	-0.24142027
25	0xbedd0e40	-0.43174934
26	0x3ec72f92	0.3890348
27	0x3e3477c7	0.17623816
28	0x3e9e78d3	0.30951557
29	0xbdf94d7c	-0.12172982
30	0x3eaaa96b	0.3333238
31	0xbed33858	-0.41253924

exp_avg_sq f4 [32]
0	0x3c3e80e5	0.011627411
1	0x3be2e1a1	0.0069238697
2	0x3b5ee84b	0.003401297
3	0x3b8f8036	0.0043792976
4	0x3ba4f957	0.0050346064
5	0x3b1a58d2	0.0023551476
6	0x3b06f969	0.0020595437
7	0x3b6dda39	0.00362934
8	0x3bac1d1a	0.0052524926
9	0x3982243e	0.00024822535
10	0x3a91be77	0.0011119385
11	0x3c0ae6ea	0.008477906
12	0x3bf7e751	0.007565417
13	0x3adc70b6	0.0016818258
14	0x3c49d41a	0.012318635
15	0x3b56692c	0.0032716496
16	0x3c2ffb6f	0.010741099
17	0x3ae3a22a	0.0017367054
18	0x3bd5adbc	0.006520955
19	0x3bf17fb6	0.0073699607
20	0x3c225bc0	0.00990957
21	0x3b1dbc36	0.0024068481
22	0x3beea8b4	0.0072832946
23	0x3bd855e8	0.0066020377
24	0x3b623661	0.0034517276
25	0x3c4bcac1	0.012438477
26	0x3c296a50	0.010340288
27	0x3b16ea57	0.002302786
28	0x3bd18b44	0.0063947756
29	0x3b27741f	0.0025551391
30	0x3bdab7bc	0.006674735
31	0x3c430768	0.011903621

exp_avg f4 [32, 32]
0	0xbd047a2f	-0.032343086
1	0x3d002f91	0.031295363
2	0x3c771937	0.015081695
3	0xbc8a7708	-0.016902462
4	0x3cbf60b2	0.023361538
5	0x3c43b0f0	0.011944041
6	0x3b54ec8f	0.0032489633
7	0x3cea752e	0.028620329
8	0x3c93b265	0.018029401
9	0x3c2cd4ba	0.010548765
10	0x3bf121cd	0.0073587657
11	0xbcf8f963	-0.030392354
12	0x3d19ef1c	0.037581548
13	0x3b630194	0.0034638392
14	0xbd0aec0c	-0.033916518
15	0x3cbaaa74	0.022786357
16	0xbd1c0ca2	-0.038097985
17	0x3c2aab81	0.010416866
18	0x3ca53606	0.020167362
19	0xbd22eb65	-0.03977527
20	0xbcaa7a36	-0.020810228
21	0xbc0eeafe	-0.008723019
22	0xbc88a8a2	-0.016681973
23	0x3b87dfc2	0.004146547
24	0x3c234ce5	0.009967064
25	0x3cb3f4c2	0.021967296
26	0xbd1243d9	-0.035709236
27	0xbba96da9	-0.005170543
28	0xbc51d0a4	-0.012806091
29	0xbcd92247	-0.026505603
30	0xbc1460d7	-0.009056292
31	0x3d28fc2f	0.041256126
32	0x3d383f61	0.044982318
33	0xbd2676de	-0.040640704
34	0xbc662dc5	-0.014048998
35	0x3c86bd9c	0.016447835
36	0xbce4445e	-0.027864631
37	0xbc3f834c	-0.011689018
38	0x3bd25106	0.00641835
39	0xbcef2ab5	-0.029195169
40	0xbcdaea50	-0.026723057
41	0xbbe1baeb	-0.0068887374
42	0xbb070436	-0.0020601875
43	0x3d2342a4	0.039858475
44	0xbd5428d4	-0.05179675
45	0xba5c7a2d	-0.00084105396
46	0x3d427ad4	0.04748042
47	0xbc86e3e8	-0.016466096
48	0x3d449338	0.04799196
49	0xbc13b684	-0.009015683
50	0xbc6e15fa	-0.014531607
51	0x3d374ae2	0.04474915
52	0x3ccb6476	0.024828177
53	0x3b93388a	0.004492824
54	0x3c52af3d	0.012859163
55	0xbbf4d579	-0.007471737
56	0xbc391367	-0.01129613
57	0xbcd1b37d	-0.025598282
58	0x3d54fbf5	0.051998097
59	0x3c1f6a45	0.0097299265
60	0x3c5faa4d	0.013651443
61	0x3cbe9e02	0.023268703
62	0x3c94712a	0.018120367
63	0xbd2ca8ca	-0.042153157
64	0x3d0ebf2f	0.034850296
65	0xbcdab950	-0.026699692
66	0x3c675dd7	0.014121494
67	0xbb2a0509	-0.0025942943
68	0xbca31052	-0.019905243
69	0x3c435166	0.011921262
70	0x3cfb94f4	0.030710675
71	0x3b9364e8	0.004498113
72	0xbcf05516	-0.029337447
73	0x3c8ec816	0.017429393
74	0x3cb2cfe6	0.02182765
75	0x3cc3651f	0.02385193
76	0xbd3a89c0	-0.045541525
77	0xbab420cf	-0.0013742688
78	0x3d2b0c40	0.04175973
79	0x3cca2013	0.024673497
80	0x3cc24a76	0.023717146
81	0x3b6d29c9	0.0036188236
82	0xb9d0b781	-0.00039809573
83	0x3c48ae65	0.01224861
84	0x3c4c9e60	0.012488931
85	0xbc978e20	-0.018500388
86	0x3b698e20	0.0035637692
87	0xbc45a90a	-0.012064228
88	0xbc5ca946	-0.013468092
89	0xbc8e70a0	-0.017387688
90	0x3d33bc81	0.043880943
91	0x3c6a193f	0.014288246
92	0x3c542a03	0.0129494695
93	0xbc95e97a	-0.018299807
94	0x3cebc77f	0.02878165
95	0xbc94ca75	-0.018162945
96	0xbd010f06	-0.031508468
97	0x3cea15d9	0.02857487
98	0x3c942d54	0.01808802
99	0xbca38037	-0.019958599
100	0x3cb10d99	0.02161293
101	0x3c6de534	0.014519978
102	0x3c1f314c	0.009716343
103	0x3d03adf4	0.032148317
104	0x3c7c03d8	0.015381776
105	0x3c5ab6ac	0.013349216
106	0x3c2d100c	0.010562908
107	0xbcffa553	-0.031206762
108	0x3d0a88ea	0.033821978
109	0x3b9fa093	0.004871437
110	0xbd03aba6	-0.03214612
111	0x3cf774bc	0.03020703
112	0xbd213564	-0.039357558
113	0x3c4b148f	0.012395038
114	0x3cd191ea	0.025582273
115	0xbd2ed4ea	-0.04268352
116	0xbca7f8eb	-0.020504436
117	0xbc361957	-0.01111444
118	0xbcabe643	-0.02098382
119	0x3b1ad67f	0.0023626385
120	0x3c117c54	0.00887974
121	0x3ccb5309	0.024819868
122	0xbd06df8c	-0.032928035
123	0xbb8c6fb6	-0.004285778
124	0xbc670782	-0.014100911
125	0xbd0522f0	-0.032504022
126	0xbb9084ce	-0.004410363
127	0x3d34dfa3	0.04415859
128	0xbcc3c167	-0.023895932
129	0x3cacda29	0.02110012
130	0x3c8fb275	0.01754115
131	0xbc957d5f	-0.018248258
132	0x3c8d04e8	0.017214254
133	0x3c66a12f	0.014076515
134	0x3c58c3d0	0.013230279
135	0x3cece23d	0.028916473
136	0x3c2635d4	0.01014467
137	0x3c4b52e6	0.012409901
138	0x3c413b34	0.0117939
139	0xbccd3d4d	-0.025053645
140	0x3ccabb2c	0.024747454
141	0x3b9e2b70	0.0048269555
142	0xbcc2dd68	-0.023787215
143	0x3cf85c12	0.03031734
144	0xbd03e969	-0.03220502
145	0x3c399354	0.01132663
146	0x3cd01dfb	0.02540492
147	0xbd14dc82	-0.036343105
148	0xbc8505c7	-0.016238106
149	0xbc3144a2	-0.010819586
150	0xbca8ac45	-0.020589957
151	0x39b7d00e	0.00035059493
152	0x3bd732ec	0.0065673497
153	0x3cadbc64	0.021207996
154	0xbcc1404b	-0.023590228
155	0xbb1b875a	-0.00237318
156	0xbc4eb1c5	-0.012615626
157	0xbcfff8f1	-0.031246634
158	0x39917184	0.0002774113
159	0x3d1f059d	0.038823713
160	0xbc2d87dc	-0.010591473
161	0x3c5d3f25	0.013503824
162	0x3d064a87	0.03278592
163	0xbcbd4ca0	-0.023107827
164	0x3abbdf89	0.0014333586
165	0x3ce67619	0.028132485
166	0x3cfc256e	0.030779567
167	0x3d1e688a	0.038673915
168	0xbbc954c9	-0.0061441404
169	0x3cffcca3	0.031225508
170	0x3ce1f10c	0.02758076
171	0xbc98015f	-0.018555341
172	0xb8a0be4a	-7.6648386e-05
173	0xbaaf877a	-0.0013391816
174	0xbb681286	-0.0035411431
175	0x3d4a14df	0.04933631
176	0xbce44c00	-0.02786827
177	0x3c81e09d	0.015854174
178	0x3c3b42b0	0.011429474
179	0xbd174119	-0.036927316
180	0xbc5e3f82	-0.013564946
181	0xbced5307	-0.028970255
182	0xbbd06b9b	-0.006360484
183	0xbbf79826	-0.0075559793
184	0xbbb64590	-0.0055624917
185	0x3c079d12	0.008277195
186	0xbc0029df	-0.007822483
187	0x3b9e4005	0.004829409
188	0x3b7614f6	0.0037549115
189	0xbd454352	-0.048159905
190	0x3c837b37	0.016049964
191	0x3ca72348	0.020402566
192	0x3cf8c8d1	0.030369194
193	0xbcfd2d8b	-0.030905506
194	0xbd2cb79a	-0.042167284
195	0x3d12245d	0.03567921
196	0xbc6d8099	-0.014495992
197	0xbd108955	-0.03528722
198	0xbd1669e6	-0.036722086
199	0xbd6e81d8	-0.058229297
200	0xbb57467a	-0.0032848404
201	0xbd22678f	-0.039649542
202	0xbd09f58c	-0.033681437
203	0x3d1a6721	0.037696008
204	0xbca47c52	-0.020078812
205	0xbb533c0f	-0.0032231843
206	0x3cc25010	0.023719817
207	0xbd8a1b43	-0.06743481
208	0x3d54edd8	0.051984638
209	0xbcc6d849	-0.024273055
210	0xbcf42cf0	-0.029806584
211	0x3d82e5d6	0.06391494
212	0x3cda4d06	0.026648056
213	0x3d115b4a	0.03548745
214	0x3cb0be7c	0.021575205
215	0x3bac4a9d	0.005257918
216	0xba599d87	-0.00083013665
217	0xbcd3309c	-0.025780015
218	0x3ce0f9fe	0.027462956
219	0xbaf394d9	-0.0018583789
220	0x3bacaa94	0.005269358
221	0x3d8b6c5e	0.06807779
222	0xbc5800ff	-0.013183831
223	0xbd49e5b9	-0.049291346
224	0x3d9d88ac	0.07692084
225	0xbd93da4b	-0.072193705
226	0xbd0e3fa8	-0.034728676
227	0x3d236a4b	0.03989629
228	0xbd49b7a1	-0.049247388
229	0xbce73dde	-0.028227743
230	0xbbd1e269	-0.006405164
231	0xbd870835	-0.06593362
232	0xbd28a238	-0.04117033
233	0xbcc7b805	-0.02437974
234	0xbc7b1f62	-0.015327306
235	0x3d94f0f2	0.07272519
236	0xbdac0d27	-0.08400946
237	0xbbf21a7a	-0.00738841
238	0x3da1ba02	0.07896806
239	0xbd53cb3e	-0.0517075
240	0x3db9084d	0.090347864
241	0xbcc88ae9	-0.0244803
242	0xbd2a6024	-0.041595593
243	0x3dbdaaf4	0.09261122
244	0x3d455aa2	0.048182137
245	0x3c9e7a8b	0.019345542
246	0x3d0d0bfd	0.03443526
247	0xbc227d50	-0.009917572
248	0xbcab70ca	-0.020927805
249	0xbd511092	-0.051041193
250	0x3dadd04b	0.08486994
251	0x3c5e0519	0.01355102
252	0x3cd9601e	0.02653509
253	0x3d781cb3	0.060574245
254	0x3cae3d69	0.021269517
255	0xbdb7aa51	-0.08968032

exp_avg_sq f4 [32, 32]
0	0x38e63653	0.00010977373
1	0x38a9a8eb	8.0900114e-05
2	0x37496582	1.2004168e-05
3	0x378daede	1.6889939e-05
4	0x384002f1	4.5779107e-05
5	0x37037e9a	7.837685e-06
6	0x3797147d	1.8010143e-05
7	0x383e85a9	4.542401e-05
8	0x383b1477	4.4603334e-05
9	0x36fd1633	7.542572e-06
10	0x3700cafb	7.676655e-06
11	0x38ae7d20	8.320273e-05
12	0x391ff564	0.00015254837
13	0x35c4247e	1.4613759e-06
14	0x39079db3	0.00012933351
15	0x38081cb8	3.2451673e-05
16	0x38f57a02	0.00011705236
17	0x36beba42	5.6841245e-06
18	0x37e799fd	2.7609052e-05
19	0x38dd0470	0.00010538928
20	0x3800e363	3.072935e-05
21	0x36daba45	6.518591e-06
22	0x37acefd2	2.0615673e-05
23	0x36af5a8f	5.225949e-06
24	0x372a350d	1.01451415e-05
25	0x38419b19	4.615923e-05
26	0x39171a95	0.00014410385
27	0x36f04722	7.1608383e-06
28	0x378dc57b	1.6900469e-05
29	0x38226d12	3.872539e-05
30	0x37dd5f8b	2.6389744e-05
31	0x38f2dc50	0.000115804956
32	0x39446f4b	0.00018733476
33	0x390a6784	0.00013199268
34	0x37547c88	1.2665179e-05
35	0x3797fb09	1.81175e-05
36	0x38854ced	6.356263e-05
37	0x371bc07c	9.283536e-06
38	0x37b4cd46	2.155326e-05
39	0x38655c54	5.4683842e-05
40	0x389a5917	7.3598865e-05
41	0x36b58bc2	5.4104903e-06
42	0x36cd3fa1	6.1168835e-06
43	0x3911141d	0.0001383577
44	0x398242a3	0.0002484518
45	0x35034d93	4.891419e-07
46	0x396184ba	0.00021507117
47	0x37af6d6e	2.0912583e-05
48	0x3945e6ca	0.0001887336
49	0x36a05622	4.7783988e-06
50	0x377f6a39	1.5223916e-05
51	0x39191c95	0.00014601865
52	0x383f8b22	4.5667526e-05
53	0x36a4c116	4.910059e-06
54	0x375bf76b	1.3111024e-05
55	0x37093f53	8.18058e-06
56	0x3749ada9	1.2020967e-05
57	0x38803f2a	6.115281e-05
58	0x3985ea66	0.00025542377
59	0x3750d9b9	1.2448459e-05
60	0x379cc7b1	1.8689638e-05
61	0x3810b690	3.45023e-05
62	0x383aec48	4.456591e-05
63	0x3906da42	0.00012860543
64	0x38bf6d16	9.1279086e-05
65	0x38859c20	6.371015e-05
66	0x3754cff0	1.2684599e-05
67	0x35049665	4.9392685e-07
68	0x381299ee	3.495247e-05
69	0x371d7363	9.384795e-06
70	0x3891c003	6.949904e-05
71	0x35890471	1.0208588e-06
72	0x388a9f41	6.610016e-05
73	0x379d186b	1.8727229e-05
74	0x380420bd	3.1501742e-05
75	0x38334091	4.2737058e-05
76	0x392d51c6	0.00016529029
77	0x343caf83	1.7572715e-07
78	0x3909d53f	0.00013144778
79	0x3830f6be	4.2191466e-05
80	0x383b82dc	4.4706147e-05
81	0x354c3574	7.6073707e-07
82	0x3488fe40	2.5516965e-07
83	0x3773f7f7	1.45416625e-05
84	0x37755a33	1.4624139e-05
85	0x37ae5919	2.0783906e-05
86	0x35669e9f	8.59125e-07
87	0x37338faf	1.0702685e-05
88	0x377b3743	1.49736325e-05
89	0x37a6ab20	1.9868428e-05
90	0x391ae3e1	0.00014771476
91	0x37703360	1.4317076e-05
92	0x37438ede	1.165617e-05
93	0x37b9fa76	2.2170349e-05
94	0x38848cde	6.320489e-05
95	0x37f91777	2.969404e-05
96	0x38e30d6e	0.00010826705
97	0x389d8947	7.511913e-05
98	0x379485f3	1.770535e-05
99	0x37c228ce	2.3145603e-05
100	0x383250eb	4.2513868e-05
101	0x37451998	1.1748074e-05
102	0x37bdf71c	2.2645625e-05
103	0x38723b4e	5.7752528e-05
104	0x382ae0e1	4.0740593e-05
105	0x373f39bd	1.139793e-05
106	0x3737b1ec	1.0949076e-05
107	0x38b56c20	8.6508924e-05
108	0x3914beeb	0.00014185502
109	0x3603a9b8	1.961931e-06
110	0x3903121e	0.00012499883
111	0x38625a52	5.3966716e-05
112	0x39019621	0.00012358326
113	0x370acecb	8.273589e-06
114	0x382960d1	4.0382907e-05
115	0x38fabeca	0.00011956466
116	0x380297a1	3.113563e-05
117	0x371ace79	9.2271885e-06
118	0x37f295c7	2.8918394e-05
119	0x3690623e	4.3029713e-06
120	0x371adf9c	9.231178e-06
121	0x385d0b2d	5.2700914e-05
122	0x390f3cfe	0.00013660264
123	0x36e4ab34	6.81486e-06
124	0x379c971f	1.866702e-05
125	0x3873fe41	5.8172507e-05
126	0x37c19ad0	2.3079483e-05
127	0x39087b1f	0.00013015837
128	0x388d80ab	6.74737e-05
129	0x383b81a7	4.4705022e-05
130	0x378d6e96	1.6860005e-05
131	0x379eff05	1.895382e-05
132	0x37f1f5d3	2.884391e-05
133	0x373a4418	1.1102318e-05
134	0x37be4ff8	2.2687003e-05
135	0x384168e6	4.611248e-05
136	0x37d3c56b	2.524509e-05
137	0x3731a4e2	1.0588412e-05
138	0x373e9ce7	1.1361414e-05
139	0x386a774d	5.5901055e-05
140	0x38bd3b0d	9.023221e-05
141	0x35e58cfb	1.710286e-06
142	0x38a36cc8	7.792708e-05
143	0x3862e556	5.4096185e-05
144	0x38ab5fc2	8.171752e-05
145	0x36e8ef51	6.941999e-06
146	0x3821d387	3.858239e-05
147	0x38b02be7	8.4005114e-05
148	0x37a39cd4	1.9504143e-05
149	0x3716bbb9	8.984404e-06
150	0x37e04828	2.6736481e-05
151	0x3636b9f6	2.7228357e-06
152	0x36c49ec2	5.859737e-06
153	0x381b5cd8	3.7041347e-05
154	0x38adcfac	8.287965e-05
155	0x36930184	4.381118e-06
156	0x37744e4b	1.4561762e-05
157	0x38622e74	5.392586e-05
158	0x37838092	1.5676287e-05
159	0x38ced153	9.861835e-05
160	0x378a7e44	1.6509679e-05
161	0x37650c03	1.365226e-05
162	0x389159b8	6.93085e-05
163	0x381d19f2	3.745588e-05
164	0x35802654	9.547898e-07
165	0x385c082e	5.2459705e-05
166	0x3874b709	5.8344598e-05
167	0x38d105d8	9.966985e-05
168	0x36597298	3.2402222e-06
169	0x386e4ccc	5.6815144e-05
170	0x38369b9c	4.3537104e-05
171	0x380d655f	3.371143e-05
172	0x36a5fef0	4.947062e-06
173	0x350c4a35	5.226205e-07
174	0x36f33ed6	7.2492794e-06
175	0x39256d65	0.00015776379
176	0x3888dcf7	6.526143e-05
177	0x37850936	1.5859125e-05
178	0x37381671	1.097248e-05
179	0x38ce90f3	9.849844e-05
180	0x374b786f	1.21277835e-05
181	0x38429419	4.639113e-05
182	0x369c0a36	4.650351e-06
183	0x3636679e	2.7180427e-06
184	0x362e832c	2.6004373e-06
185	0x372a4693	1.0149221e-05
186	0x377167e2	1.43889065e-05
187	0x35b921d9	1.3793425e-06
188	0x35637a63	8.4742186e-07
189	0x392003fa	0.0001526027
190	0x377f317e	1.5210708e-05
191	0x37efa9a6	2.8570019e-05
192	0x38e6fa23	0.00011013846
193	0x38b55e8f	8.6483655e-05
194	0x38da8037	0.00010418932
195	0x38aae9e6	8.149799e-05
196	0x37be588f	2.2691003e-05
197	0x389cf6a0	7.484597e-05
198	0x38aa6b63	8.126234e-05
199	0x395c7616	0.00021024825
200	0x37990cdb	1.8245008e-05
201	0x38b32463	8.542163e-05
202	0x387d9e3a	6.046726e-05
203	0x39076474	0.00012912025
204	0x38aa239d	8.112865e-05
205	0x3605b776	1.9925333e-06
206	0x38bdea6f	9.055889e-05
207	0x398bdba3	0.00026675788
208	0x3964eead	0.00021832688
209	0x381263f4	3.49022e-05
210	0x387470cd	5.8279187e-05
211	0x39935165	0.0002809867
212	0x38576d16	5.136159e-05
213	0x3888c425	6.52152e-05
214	0x380c23b2	3.3411845e-05
215	0x36537580	3.1509844e-06
216	0x362dc917	2.5896059e-06
217	0x3882e476	6.241437e-05
218	0x38f79442	0.00011805493
219	0x3670fba4	3.590926e-06
220	0x36c16efb	5.764768e-06
221	0x3990d1f8	0.0002762226
222	0x37aaa486	2.0342191e-05
223	0x392a4fc0	0.00016242173
224	0x3a191953	0.00058402604
225	0x39eaa0a1	0.00044751636
226	0x3893e0f0	7.051404e-05
227	0x38ced478	9.862421e-05
228	0x395d5555	0.00021107991
229	0x384aad23	4.83218e-05
230	0x389cf465	7.484182e-05
231	0x3989e28e	0.00026299473
232	0x3963ac84	0.00021712674
233	0x382ae503	4.0744442e-05
234	0x380adaf9	3.3105698e-05
235	0x39f0e0b3	0.0004594378
236	0x3a43f158	0.00074746227
237	0x36a52575	4.9217438e-06
238	0x3a2c8b7b	0.00065820635
239	0x3930a698	0.00016846729
240	0x3a2c281a	0.0006567255
241	0x381032da	3.4379635e-05
242	0x38e5a40a	0.000109501256
243	0x3a1c2ef2	0.0005957923
244	0x39370065	0.00017452387
245	0x3802edff	3.1216066e-05
246	0x38a8b6c7	8.044909e-05
247	0x37c7c81b	2.381583e-05
248	0x383ec7bb	4.5485544e-05
249	0x396ce698	0.00022592617
250	0x3a488696	0.00076494494
251	0x38140990	3.5294855e-05
252	0x388d56ca	6.73957e-05
253	0x3961455f	0.00021483515
254	0x39008446	0.00012256307
255	0x3a124e32	0.000558111

exp_avg f4 [32]
0	0xbc867d9f	-0.016417323
1	0x3d4677fd	0.048454273
2	0x3dbb7c7a	0.091546014
3	0x3a5b833b	0.0008373742
4	0x3c75130e	0.014958156
5	0x3d5fb9cf	0.05462056
6	0xbd6c6529	-0.05771366
7	0x3d24756d	0.04015105
8	0xbd07f8ee	-0.033196382
9	0xbd446149	-0.04794434
10	0xbcba2e39	-0.022727119
11	0xbd30aac2	-0.043131597
12	0x3d2cc10b	0.042176288
13	0x3bfcbdca	0.0077130543
14	0x3b66cc25	0.0035216894
15	0xbba69b3e	-0.0050844243
16	0x3d77758b	0.060414832
17	0x3d30910b	0.043107074
18	0xbd95ff34	-0.07324067
19	0x3d155a99	0.036463354
20	0xbb04e6f2	-0.0020279256
21	0x3d9cebb1	0.07662142
22	0xbd75f0bc	-0.060044035
23	0x3ce642a4	0.028107949
24	0x3d4cc39a	0.049991228
25	0xbd3c7b09	-0.046015773
26	0xbd92a67a	-0.07160659
27	0x3d35a956	0.044350944
28	0xbd6cb1a7	-0.05778661
29	0x3db96f20	0.090543985
30	0xbd79b9db	-0.06096826
31	0xbdad6609	-0.08466727

exp_avg_sq f4 [32]
0	0x395ee26e	0.00021255921
1	0x39bb6366	0.00035741477
2	0x3a2ac0a2	0.000651369
3	0x3959775c	0.00020739197
4	0x392b66f8	0.0001634619
5	0x3960623c	0.000213989
6	0x39a6c0e8	0.00031805714
7	0x3a7ca610	0.00096377824
8	0x38ab2606	8.160998e-05
9	0x395aad64	0.00020854693
10	0x38912498	6.920955e-05
11	0x39a972bb	0.00032319673
12	0x3a423b33	0.0007409334
13	0x39437b6d	0.00018642629
14	0x38e48f2c	0.00010898555
15	0x39b03317	0.000336074
16	0x3a4caa72	0.0007807381
17	0x393e284a	0.00018134821
18	0x39bbc612	0.00035814993
19	0x399fd2cb	0.00030483896
20	0x3a244964	0.00062670396
21	0x39c7a625	0.00038080025
22	0x39e20d3d	0.00043115942
23	0x3a087b2d	0.0005206343
24	0x398fd55e	0.00027434056
25	0x398cb558	0.00026837992
26	0x39ff7666	0.00048725604
27	0x39b2212a	0.00033975515
28	0x39cc7601	0.00038997832
29	0x3a4a3571	0.0007713652
30	0x395b08ff	0.00020888819
31	0x3a15a3d8	0.00057083135
