hw2/data/sb_rtg_dna_CartPole-v0_16-06-2019_20-33-20/31/model.pkl (torch_old, 40470 bytes, 24 tensors)

weight f4 [32, 4]
0	0x3dd5ccb1	0.104394324
1	0xbecbcc6d	-0.39804402
2	0x3f61af53	0.8815815
3	0x3efb3632	0.49064785
4	0xbe1fa839	-0.15591516
5	0x3e08e126	0.13367137
6	0x3f801458	1.0006208
7	0x3f18a02f	0.5961942
8	0xbe3aa770	-0.18227935
9	0xbe74520b	-0.23859422
10	0x3ec14bfd	0.37753287
11	0x3f3d1b52	0.7386981
12	0x3d2c3ae7	0.04204836
13	0xbde93e89	-0.11388881
14	0x3f1b5b27	0.6068596
15	0x3f56ba93	0.8387844
16	0xbed20314	-0.41017973
17	0xbe8ea12d	-0.27857342
18	0xbf82ef36	-1.0229251
19	0xbf7a9c1a	-0.9789444
20	0xbe746ed8	-0.23870409
21	0x3eaa5d82	0.33274466
22	0xbf751ea1	-0.9574986
23	0xbf4b8b59	-0.795095
24	0x3ea5ecb9	0.32407168
25	0x3da73a66	0.081654355
26	0x3f6ba550	0.9204912
27	0x3f264ae8	0.6495805
28	0x3eb24b40	0.34823036
29	0x3e85bcda	0.26120645
30	0xbe9abfea	-0.30224544
31	0xbf444b33	-0.76677245
32	0x3e40b2c7	0.18818198
33	0xbebe5d18	-0.371804
34	0xbeab6032	-0.3347183
35	0xbf79f545	-0.97639877
36	0x3ef11f18	0.47094035
37	0x3f2b39a7	0.66884845
38	0xbf44807d	-0.7675856
39	0xbe10764c	-0.14107627
40	0x3ef0e3db	0.4704884
41	0x3f42fdb0	0.76168346
42	0xbec522f4	-0.3850323
43	0xbe7316bf	-0.23739146
44	0x3ebbdb26	0.36690634
45	0x3df0a8bd	0.11750934
46	0xbf17ca72	-0.5929328
47	0xbf5bfef6	-0.85935915
48	0x3f002746	0.50059927
49	0x3f0bcc57	0.5460867
50	0xbcd712c1	-0.02625406
51	0x3eabead7	0.33577606
52	0xbeb6c3b6	-0.3569619
53	0xbf40932b	-0.7522456
54	0x3e22ff52	0.1591771
55	0x3edfb3bc	0.43691814
56	0xbf26e17f	-0.6518783
57	0xbf1bc9f2	-0.6085502
58	0x3f08bfca	0.53417647
59	0x3e660375	0.22462256
60	0x3ebecbb6	0.37264794
61	0x3ebe6de4	0.37193215
62	0xbecf5718	-0.40496135
63	0xbf7ad139	-0.979755
64	0xbe5aae27	-0.21355496
65	0x3edba41e	0.4289865
66	0xbf3fa231	-0.7485686
67	0xbf2374c8	-0.6385007
68	0xbe865fc6	-0.26244944
69	0xbe13d57c	-0.14436907
70	0xbf831d93	-1.02434
71	0xbf42f9be	-0.76162326
72	0xbebb802a	-0.3662122
73	0xbdbfdf7d	-0.09368799
74	0xbec6d2ab	-0.38832602
75	0xbf7d3efe	-0.98924243
76	0x3da1703c	0.07882735
77	0x3e3d05cb	0.18459241
78	0xbf8302db	-1.0235246
79	0xbf656808	-0.89611864
80	0xbef0a301	-0.46999362
81	0xbe5cae38	-0.21550834
82	0x3e02f7d0	0.12789845
83	0xbe024561	-0.12721778
84	0x3e275f29	0.16344894
85	0x3e6a13e2	0.22859147
86	0xbf4649ad	-0.7745617
87	0xbf2b51ad	-0.669215
88	0x3cd03520	0.025415957
89	0xbc9f9fde	-0.01948541
90	0xbef61bca	-0.48068076
91	0xbf4d7154	-0.8025105
92	0x3ef89075	0.48547712
93	0x3d7f53c0	0.06233573
94	0x3f54b475	0.83087856
95	0x3f2e8238	0.6816745
96	0x3e9b3df5	0.30320707
97	0xbed241a8	-0.41065717
98	0x3f4633a2	0.77422535
99	0x3f27b554	0.6551106
100	0x3edb4b54	0.42830908
101	0xbe8f9336	-0.28042
102	0x3f425637	0.75912803
103	0x3f7efbbe	0.9960288
104	0xbe5b4834	-0.21414262
105	0xbf1ff2f8	-0.62480116
106	0x3ea205e9	0.31645134
107	0x3e8e64f6	0.27811402
108	0xbe1c5b69	-0.15269245
109	0xbebfe611	-0.37480214
110	0x3f541e45	0.8285869
111	0x3f35a94f	0.7096147
112	0x3e8abd7c	0.2709769
113	0x3ec86757	0.39141342
114	0x3d0191d9	0.03163323
115	0xbe0d6063	-0.138063
116	0xbe2b6e7d	-0.16741367
117	0xbecf7c46	-0.405245
118	0x3eba757e	0.36417764
119	0x3f32c3dd	0.69830114
120	0xbe7de4ed	-0.2479436
121	0x3d6e3819	0.058158968
122	0x3ecd33a9	0.40078476
123	0x3f5a41e5	0.852568
124	0x3e98952f	0.29801318
125	0xbeab7dc4	-0.3349439
126	0xbedce80a	-0.43145782
127	0xbf336581	-0.7007676

bias f4 [32]
0	0xbe827278	-0.25477958
1	0x3e4c7b65	0.19968946
2	0xbdfeadc4	-0.12435487
3	0xbdde337b	-0.10849663
4	0x3960596c	0.00021395617
5	0x3d85c67a	0.06531997
6	0x3da37c42	0.07982685
7	0xbd88a842	-0.06672718
8	0x3e62e4c2	0.22157577
9	0xbddbab9a	-0.1072609
10	0xbe09a495	-0.1344169
11	0x3bf24746	0.0073937504
12	0xbd80f1e2	-0.062961355
13	0x3e65063d	0.22365661
14	0x3ddd5d57	0.10808819
15	0x3e2a0644	0.16603953
16	0xbd9bb88a	-0.076035574
17	0x3d6d3d77	0.057919946
18	0x3dbadfd9	0.09124727
19	0xbe33dd2f	-0.17564844
20	0xbe2dc09e	-0.16968009
21	0xbde6aa5a	-0.11262961
22	0xbe005ecf	-0.12536167
23	0x3c1f438e	0.009720696
24	0x3dbd0412	0.09229292
25	0x3dff6718	0.124708354
26	0xbe1f57ec	-0.15560883
27	0x3d97c953	0.074114464
28	0x3eb73839	0.35785082
29	0x3e0f766b	0.14010017
30	0x3e641411	0.2227328
31	0xbe1d89fe	-0.15384671

weight f4 [32, 32]
0	0xbe7cdc1b	-0.24693339
1	0x3c850f49	0.01624264
2	0xbe56c849	-0.2097484
3	0x3f15f4e8	0.5857682
4	0xbf45ec04	-0.77313256
5	0xbf04c4d2	-0.51862824
6	0x3f3e5baa	0.7435862
7	0x3e90f42a	0.28311282
8	0xbef3c05f	-0.47607705
9	0x3ef0aadf	0.47005364
10	0xbedd2a90	-0.43196535
11	0xbe505960	-0.20346594
12	0x3e3da060	0.1851821
13	0x3c52c17c	0.012863513
14	0x3e6e4703	0.23269276
15	0xbf1c0e0c	-0.60958934
16	0xbe6c45ab	-0.23073451
17	0xbe96ce5b	-0.29454312
18	0xbf5d962d	-0.86557275
19	0xbf13cbb3	-0.57732695
20	0x3e25cd5e	0.16191623
21	0xbefff003	-0.49987802
22	0xbf39a52c	-0.7251766
23	0x3f07380b	0.5281989
24	0x3e8c636c	0.27419603
25	0x3efb7bca	0.4911788
26	0xbe80e4c4	-0.25174534
27	0x3ec652d5	0.3873507
28	0x3d58daa2	0.05294288
29	0x3f20f5a9	0.6287485
30	0x3e95a733	0.29229125
31	0xbf35d323	-0.71025294
32	0x3ebe2f40	0.37145424
33	0x3f1765ee	0.5913991
34	0x3e22e79f	0.15908669
35	0xbea7c7b1	-0.3276954
36	0xbebccd8e	-0.36875576
37	0x3ec493aa	0.3839391
38	0xbe30c471	-0.17262436
39	0xbf04f41a	-0.5193497
40	0xbda56f26	-0.080778405
41	0xbed38f1a	-0.41320115
42	0x3ea51c34	0.3224808
43	0x3f0c0fc1	0.5471154
44	0x3f3baeea	0.7331377
45	0xbe96f217	-0.29481575
46	0xbee1eeaa	-0.441274
47	0x3f1e7c4e	0.61908424
48	0x3e51cd3e	0.2048845
49	0x3e8332dc	0.2562474
50	0xbe4c1d36	-0.19933018
51	0xbf10d6f7	-0.5657801
52	0x3f4fdf13	0.8119976
53	0x3f1cb92b	0.61220044
54	0x3e73764f	0.237756
55	0xbde6a45e	-0.11261819
56	0x3efc4db6	0.4927804
57	0x3f1910df	0.5979137
58	0x3ee16657	0.44023392
59	0x3e9ba1df	0.30396935
60	0xbf2172eb	-0.63065976
61	0xbe6c71fa	-0.23090354
62	0x3ec7441f	0.3891916
63	0x3e1fb4cc	0.15596312
64	0x3e313ea5	0.17309053
65	0x3e1d81bb	0.1538152
66	0x3f0c2aee	0.54753006
67	0x3d745f8e	0.05966144
68	0xbeef3030	-0.46716452
69	0xbe5f23b9	-0.21790971
70	0xbd717e94	-0.058958605
71	0xbed375d3	-0.4130083
72	0xbf377ad8	-0.7167182
73	0xbe5b7e22	-0.21434835
74	0x3f054af6	0.52067506
75	0xbe9d173a	-0.30681783
76	0x3e6ff969	0.23434986
77	0xbdc5088e	-0.09620772
78	0xbe687cc1	-0.2270384
79	0xbf05dbef	-0.5228872
80	0xbe9bcecd	-0.30431214
81	0xbe243925	-0.16037424
82	0xbe71d13e	-0.23614976
83	0xbf142830	-0.5787382
84	0xbf4f342e	-0.80938995
85	0x3e58e955	0.21182759
86	0x3e5da879	0.21646298
87	0x3eef3256	0.4671809
88	0x3ea7c31c	0.32766044
89	0x3f32f55e	0.6990565
90	0x3dbf1234	0.09329644
91	0x3f41b601	0.7566834
92	0x3e602452	0.21888855
93	0xbde34583	-0.11097243
94	0x3ea154e0	0.31510067
95	0x3dfd2a43	0.123615764
96	0xbd6cc960	-0.057809234
97	0x3e6e63e2	0.2328029
98	0xbf11084f	-0.566533
99	0xbf0ce3bd	-0.55035
100	0x3ed02c9b	0.4065903
101	0x3ea77812	0.32708794
102	0xbebd6bbb	-0.36996254
103	0x3f2e35dd	0.6805094
104	0x3eabd80c	0.33563268
105	0xbf154ba2	-0.5831853
106	0x3e1e0763	0.15432505
107	0x3f01bc9e	0.5067843
108	0xbe44fc94	-0.19236976
109	0xbef9d749	-0.48797062
110	0x3edad303	0.42739114
111	0x3e960e46	0.29307765
112	0x3f2a7395	0.66582614
113	0x3f3ede99	0.7455841
114	0x3f56d406	0.8391727
115	0x3f498995	0.7872556
116	0x3f000aef	0.50016683
117	0x3eea30aa	0.45740253
118	0x3efb7eea	0.49120265
119	0xbef00f36	-0.46886605
120	0xbf49747c	-0.78693366
121	0xbf4f57e0	-0.8099346
122	0x3f2d1a37	0.67618126
123	0xbe7baee8	-0.2457844
124	0xbe705747	-0.23470794
125	0xbecba6ad	-0.397756
126	0xbe949cbc	-0.2902583
127	0x3f29a7d1	0.6627169
128	0xbf03c017	-0.5146498
129	0xbf094cd8	-0.5363288
130	0xbf1f340a	-0.6218878
131	0xbc2c5660	-0.01051864
132	0x3f21aa9d	0.6315096
133	0x3f2572ca	0.6462828
134	0xbf254de6	-0.6457199
135	0x3f0c36b5	0.54770976
136	0x3f20842a	0.62701666
137	0x3d8c0cef	0.068384044
138	0xbe12a610	-0.1432116
139	0x3e9a5c84	0.3014871
140	0xbf01aa23	-0.50650233
141	0x3e2a604e	0.166383
142	0x3ee945f8	0.45561194
143	0x3f0f8cc4	0.56074166
144	0x3ea0e0eb	0.314216
145	0x3f366e30	0.7126188
146	0x3f11ab03	0.5690157
147	0x3f3c2577	0.73494667
148	0xbef17e57	-0.47166702
149	0x3efce963	0.4939681
150	0x3dd2c828	0.10292083
151	0xbf400289	-0.7500387
152	0xbf2b3d4d	-0.6689041
153	0xbf368432	-0.71295464
154	0x3ef67862	0.4813872
155	0xbf4cd72a	-0.80015814
156	0x3e817daa	0.25291187
157	0xbea4221d	-0.32057276
158	0xbf222e76	-0.63352144
159	0x3db320b2	0.087464705
160	0xbe81cea1	-0.25352958
161	0x3e98c4f8	0.29837775
162	0xbf0fdbb5	-0.5619462
163	0xbef9648e	-0.4870953
164	0x3ea1656d	0.31522694
165	0x3f2f6bbb	0.6852376
166	0xbea71e8d	-0.32640496
167	0x3f2312d2	0.6370059
168	0x3edbf6bc	0.4296168
169	0xbea72542	-0.32645613
170	0xbdc2c060	-0.09509349
171	0x3f207c9a	0.62690127
172	0xbf2a886c	-0.66614413
173	0xbeca0ea0	-0.39464283
174	0x3e169064	0.14703518
175	0x3f29e12b	0.66359204
176	0x3f01e7a1	0.5074406
177	0x3ec5976c	0.38592088
178	0x3f50e6ed	0.81602365
179	0x3f0b2856	0.5435842
180	0x3efbda01	0.4918976
181	0x3f1c1d1f	0.60981935
182	0x3e2810b3	0.1641262
183	0xbe8ea9fa	-0.27864057
184	0xbf1401de	-0.5781535
185	0xbe97e98d	-0.29670373
186	0x3e72a325	0.23695047
187	0xbf34fba2	-0.7069646
188	0xbe8082ca	-0.25099784
189	0xbee6b86d	-0.4506258
190	0xbe6c4717	-0.23073994
191	0x3eb43493	0.3519636
192	0xbe1cc6d5	-0.15310223
193	0x3ef34be0	0.47518826
194	0xbf5a9ebf	-0.8539848
195	0xbc2d05ec	-0.010560494
196	0x3dca6191	0.098818906
197	0x3e079626	0.13240871
198	0xbe42c30f	-0.19019721
199	0x3ebd15c9	0.36930683
200	0xbdd33890	-0.10313523
201	0xbdcc7423	-0.09983089
202	0x3e81b846	0.25335902
203	0xbdcf218e	-0.10113822
204	0xbe6a80a6	-0.22900638
205	0xbe88f4f9	-0.267494
206	0x3d807776	0.06272785
207	0x3eed504f	0.46350333
208	0x3f13665f	0.5757808
209	0x3e83fad8	0.25777316
210	0x3dd2c0f1	0.10290707
211	0x3ebb56f3	0.36589774
212	0x3f33cae2	0.7023145
213	0xbba58991	-0.0050517996
214	0xbe97285f	-0.29522988
215	0xbeb800b2	-0.3593803
216	0xbf2a4f18	-0.6652694
217	0xbeaa5582	-0.33268362
218	0x3e0e810c	0.13916415
219	0xbef5376a	-0.4789384
220	0xbf3c11eb	-0.7346484
221	0xbef5e962	-0.4802962
222	0xbf3b2f54	-0.7311909
223	0x3df0eea4	0.11764267
224	0xbe299b1a	-0.16563073
225	0xbe068d63	-0.13139872
226	0x3ecbfcb2	0.3984123
227	0x3f27abaa	0.65496314
228	0xbf283de4	-0.6571944
229	0xbeb76534	-0.358194
230	0x3e8aa19f	0.27076432
231	0xbf4287d6	-0.7598852
232	0xbf397bcd	-0.7245453
233	0x3eaeb8f8	0.34125495
234	0xbea7236b	-0.3264421
235	0xbf2c1ce6	-0.67231596
236	0x3eb9ca5b	0.36287197
237	0x3d620aea	0.05518619
238	0xbce5d37d	-0.028054947
239	0xbef2473c	-0.47319973
240	0xbef10f0e	-0.47081798
241	0xbf4793db	-0.77959985
242	0xbf406bd5	-0.7516454
243	0xbf22b5c2	-0.6355859
244	0xbf098af7	-0.5372767
245	0xbf11efd1	-0.57006556
246	0xbf155178	-0.58327436
247	0x3ebdbd41	0.37058452
248	0x3ef0a760	0.47002697
249	0x3ee70726	0.4512264
250	0xbe6c8be6	-0.23100242
251	0x3f36695a	0.71254504
252	0x3f2f83a3	0.68560237
253	0x3f1cddb5	0.612758
254	0x3eb589c1	0.3545666
255	0xbe3fd615	-0.1873401

bias f4 [32]
0	0xbe4affb3	-0.19824104
1	0x3eb711ce	0.3575577
2	0x3efefa27	0.49800226
3	0x3e61778e	0.22018263
4	0xbdbb9ada	-0.09160395
5	0xbbc15f01	-0.005901218
6	0xbe0ad789	-0.13558783
7	0xbee128fa	-0.43976575
8	0xbe9ba9b5	-0.30402914
9	0xbeeb400e	-0.45947307
10	0xbea7f695	-0.32805315
11	0x3e9feff6	0.31237763
12	0x3e836da3	0.25669584
13	0xbefdd7c9	-0.49578694
14	0xbe9e565a	-0.30925256
15	0xbe996aef	-0.29964396
16	0xbebd2269	-0.36940315
17	0xbea41ada	-0.32051736
18	0x3edff5e3	0.43742284
19	0x3ecbb4da	0.39786416
20	0x3ec2fa26	0.38081473
21	0xbe657cc2	-0.22410873
22	0xbeaa8045	-0.33300987
23	0xbf023dc8	-0.5087552
24	0xbebe0da8	-0.37119794
25	0xbdcb8289	-0.09937007
26	0x3eb5cdf0	0.3550868
27	0xbeac1d65	-0.33616176
28	0x3edcaf0a	0.43102294
29	0x3eaaefd6	0.33386105
30	0xbd35af74	-0.04435678
31	0x3e9e9920	0.309762

weight f4 [32, 32]
0	0x3f225855	0.63416034
1	0xbe847200	-0.25868225
2	0xbdb9a14d	-0.09063969
3	0xbeebb677	-0.46037647
4	0xbe98c897	-0.29840538
5	0xbe94a53c	-0.29032314
6	0x3e762889	0.240389
7	0x3ea47dc1	0.32127193
8	0xbf273c58	-0.6532645
9	0xbe011da2	-0.1260896
10	0x3ecbb736	0.39788216
11	0xbf3a4566	-0.72762144
12	0xbe9d6174	-0.30738413
13	0x3eca0d68	0.39463353
14	0xbc9807bb	-0.018558374
15	0xbf180855	-0.59387714
16	0xbf4b468e	-0.7940453
17	0xbf37009d	-0.7148531
18	0xbf1ed6fc	-0.6204679
19	0x3db01d7f	0.08599376
20	0x3f375701	0.7161713
21	0xbf37c7c9	-0.7178922
22	0xbe09e4e0	-0.13466215
23	0xbebd6b88	-0.36996102
24	0x3efaf98a	0.49018508
25	0xbeb6cffa	-0.3570555
26	0xbee63d48	-0.4496863
27	0xbf2d07c4	-0.67589974
28	0xbedcc53a	-0.43119222
29	0xbd1c3f20	-0.03814614
30	0x3ee63d2e	0.4496855
31	0x3f53bc01	0.82708746
32	0xbf334ea1	-0.70041853
33	0x3e54cc22	0.20780995
34	0x3e1dba64	0.15403134
35	0x3f0cff87	0.55077404
36	0x3f2678b8	0.6502795
37	0x3f12a83d	0.5728796
38	0xbdd67c71	-0.10472954
39	0xbf35f7f9	-0.710815
40	0x3f2025c8	0.6255765
41	0xbefe3126	-0.49646872
42	0xbded3c9f	-0.11583828
43	0x3eb81ffe	0.35961908
44	0x3f3292c3	0.6975519
45	0xbe5c838b	-0.21534555
46	0x3e6bef8c	0.23040599
47	0xbe33f7c4	-0.17574984
48	0x3f1f09be	0.6212424
49	0x3f4b1c17	0.79339737
50	0x3eeb5a74	0.45967448
51	0x3f0a5765	0.54039603
52	0xbf34ca7d	-0.7062147
53	0x3f3bf02c	0.7341335
54	0x3ecda73c	0.40166652
55	0x3f1999a9	0.6000009
56	0xbec3c5ca	-0.3823684
57	0xbe24fd71	-0.16112305
58	0x3e9560d6	0.29175442
59	0x3f20069b	0.6251008
60	0x3e8fe51e	0.2810449
61	0xbdacbcac	-0.08434424
62	0xbea256da	-0.31706887
63	0xbed0a80d	-0.40753213
64	0x3f2bff07	0.67186016
65	0x3f1726c6	0.5904354
66	0xbf2dd5e0	-0.6790447
67	0xbe84debf	-0.25951192
68	0xbecbcafa	-0.39803296
69	0x3ee06558	0.4382732
70	0x3f1d89fe	0.61538684
71	0x3eb451d0	0.35218668
72	0xbf02af08	-0.51048326
73	0xbed370d2	-0.41297013
74	0x3e80e508	0.25174737
75	0xbf06ffe8	-0.5273423
76	0x3e76915c	0.24078888
77	0xbde0ddd9	-0.10979814
78	0x3e9f180e	0.3107304
79	0xbed125d4	-0.40849173
80	0xbecdc2f1	-0.4018779
81	0xbeba014a	-0.36329108
82	0xbf164077	-0.58692116
83	0x3f0fd913	0.56190604
84	0x3f40c368	0.75298166
85	0xbee6093f	-0.4492893
86	0xbcf84444	-0.03030599
87	0x3b18ccf2	0.0023315516
88	0xbec04efa	-0.37560254
89	0xbf270f42	-0.65257657
90	0x3e894262	0.2680846
91	0xbeb11a78	-0.34590507
92	0xbe96b3cc	-0.2943405
93	0xbea9c609	-0.331589
94	0xbf2bd698	-0.6712432
95	0x3ec56026	0.38549918
96	0x3f1827d0	0.5943575
97	0x3f27a4c7	0.65485805
98	0xbea20b2d	-0.3164915
99	0xbdce0a13	-0.10060515
100	0xbf091469	-0.5354677
101	0x3ea0b5e0	0.3138876
102	0x3f306ab3	0.6891281
103	0x3de4ca96	0.11171453
104	0xbeab26fd	-0.33428183
105	0xbf0ddf64	-0.5541899
106	0x3d16e41c	0.036838636
107	0xbee6a706	-0.45049304
108	0x3e84a7be	0.25909227
109	0xbd8dae60	-0.06918025
110	0xbcf95644	-0.030436642
111	0xbf1c5704	-0.61070275
112	0xbe9e82d1	-0.3095918
113	0xbecbe267	-0.3982117
114	0xbee6c256	-0.45070142
115	0x3f491405	0.7854617
116	0x3f2610cc	0.6486938
117	0xbf006332	-0.5015136
118	0xbe83d9e9	-0.2575219
119	0x3f0faca6	0.56122816
120	0xbe5824be	-0.21107766
121	0xbec93876	-0.3930089
122	0x3ec86151	0.39136747
123	0xbe6c251d	-0.23061033
124	0xbb367dbc	-0.002784594
125	0xbf0582e8	-0.5215287
126	0xbf263122	-0.6491872
127	0x3ee198de	0.4406194
128	0xbf317856	-0.69324243
129	0xb9dbd838	-0.0004193203
130	0x3e79fc66	0.24412689
131	0x3ebd7f90	0.37011385
132	0x3eded9b6	0.43525475
133	0x3e829e4a	0.2551139
134	0xbe801c28	-0.25021482
135	0xbf1fbabb	-0.62394303
136	0x3f1169f2	0.56802285
137	0x3e28f924	0.1650129
138	0xbebf6649	-0.37382725
139	0x3f1b36e1	0.60630614
140	0x3e376a65	0.1791168
141	0xbed2890a	-0.41120178
142	0x3d831dc1	0.064021595
143	0x3ea25563	0.3170577
144	0x3f490024	0.7851584
145	0x3ed7a116	0.42115086
146	0x3f36fc4b	0.7147872
147	0xbe922e85	-0.28551117
148	0xbf22af3b	-0.6354863
149	0x3e630b75	0.2217234
150	0x3f0e15bf	0.5550193
151	0x3e874d05	0.2642595
152	0x3e82e31a	0.2556389
153	0x3f022afd	0.50846845
154	0x3e808561	0.2510176
155	0x3ed95eda	0.42455178
156	0x3eb149a1	0.34626487
157	0x3f2df46a	0.6795107
158	0x3d22f3b8	0.03978321
159	0xbf319d24	-0.693804
160	0x3f0b12ab	0.5432536
161	0xbec0178a	-0.3751796
162	0xbe9b7f8e	-0.30370754
163	0xbeb2355c	-0.34806335
164	0xbf3d9cc5	-0.74067336
165	0xbec6e6dc	-0.38848007
166	0x3e7fcd06	0.24980554
167	0x3eefe26a	0.46852428
168	0xbf4ce685	-0.80039245
169	0xbd8ff837	-0.07029765
170	0x3ef5b3a3	0.47988614
171	0xbf297f67	-0.66210026
172	0xbec88d09	-0.391701
173	0x3e05668e	0.13027403
174	0xbe9703e4	-0.29495156
175	0xbe38e039	-0.18054284
176	0xbf019c95	-0.5062955
177	0xbeaa07df	-0.3320913
178	0xbf42cf56	-0.7609762
179	0xbda23115	-0.07919518
180	0x3edd520b	0.43226656
181	0xbed69019	-0.41906813
182	0xbf1d93f9	-0.61553913
183	0xbe96adc6	-0.29429454
184	0x3e553c09	0.20823683
185	0xbf2522cd	-0.64506227
186	0xbe7b6abf	-0.24552439
187	0xbe6bc6e0	-0.23025084
188	0xbf320d63	-0.69551677
189	0xbe899051	-0.26867917
190	0x3e357f46	0.17724332
191	0x3f16ad18	0.5885787
192	0x3e2a7e5e	0.16649768
193	0xbe951e80	-0.29124832
194	0xbf02ea5e	-0.51138866
195	0xbf063ebf	-0.5243949
196	0xbed7ab4d	-0.4212288
197	0xbecf15f0	-0.40446424
198	0x3e8ca86e	0.27472252
199	0x3e8ab6ba	0.27092534
200	0xbeec2026	-0.46118277
201	0xbcc6db45	-0.024274478
202	0x3ed10d98	0.40830684
203	0xbe4e8512	-0.2016795
204	0x3e490aa2	0.19632962
205	0x3ed34d40	0.41269875
206	0xbf0555a8	-0.52083826
207	0xbf17a804	-0.59240746
208	0xbf40fa28	-0.7538171
209	0xbeb2f4da	-0.34952432
210	0xbed34656	-0.412646
211	0x3ec3c15d	0.38233462
212	0x3f26faf2	0.6522666
213	0xbf498d5e	-0.78731334
214	0xbe8a3250	-0.2699151
215	0xbedede78	-0.43529105
216	0x3e94f906	0.2909624
217	0xbf16e9c8	-0.5895047
218	0xbf037c8a	-0.51361907
219	0xbf48c491	-0.78424937
220	0xbf10da74	-0.56583333
221	0xbeace75a	-0.33770257
222	0x3ea9b628	0.33146787
223	0x3e8e6be5	0.27816692
224	0xbe5f7860	-0.21823263
225	0xbe9dc435	-0.30813757
226	0x3e6b14fa	0.2295722
227	0x3ea0aa7e	0.31380075
228	0x3f45caf7	0.77262825
229	0x3e1675ec	0.14693421
230	0xbe4c0662	-0.1992431
231	0xbf1741fe	-0.5908507
232	0x3f29749b	0.6619355
233	0x3e3813e1	0.17976333
234	0x3dfd9c8c	0.123833746
235	0x3ea9c78d	0.33160058
236	0xbdbdfee9	-0.09277136
237	0x3be4ab05	0.006978395
238	0xbe10e76c	-0.1415078
239	0x3f1610d5	0.58619434
240	0x3eb8452c	0.35990274
241	0x3f3b3948	0.7313428
242	0x3ec941e7	0.39308092
243	0xbf028a17	-0.5099196
244	0xbf47fa5e	-0.78116405
245	0x3f0355b7	0.51302665
246	0x3edc7594	0.43058455
247	0xbdabcbbf	-0.08388471
248	0x3e358d9f	0.17729805
249	0x3e5d31fd	0.216011
250	0xbc9a5fed	-0.01884457
251	0x3f062f6b	0.52416104
252	0x3eb73303	0.35781106
253	0x3ea172d5	0.31532922
254	0x3e8283b5	0.2549111
255	0xbf4b73f9	-0.79473835

bias f4 [32]
0	0x3e1524b2	0.1456478
1	0xbeb5e99a	-0.35529786
2	0x3e18c4ac	0.14918774
3	0x3e827e13	0.25486812
4	0xbd782b59	-0.060588215
5	0x3e3fdde6	0.18736991
6	0x3e5b4366	0.21412429
7	0xbefce64d	-0.49394456
8	0x3e807c6e	0.25094932
9	0xbe13ecaa	-0.14445749
10	0xbc074bae	-0.00825779
11	0x3c5fc1f0	0.013657078
12	0x3de7db19	0.113210864
13	0x3ddb191a	0.10698147
14	0xbee0bd3b	-0.4389437
15	0xbed7e01c	-0.4216317
16	0xbe64962a	-0.22322908
17	0xbe1285e4	-0.14308888
18	0xbedbb085	-0.4290811
19	0x3e9f9b2f	0.31173083
20	0x3e0b6e81	0.13616373
21	0xbed5c57c	-0.4175223
22	0xbeb4eded	-0.35337773
23	0xbe9db9fc	-0.30805957
24	0x3ee1d416	0.4410712
25	0xbd711978	-0.05886218
26	0x3e2b68e7	0.16739236
27	0xbe33eda7	-0.17571126
28	0x3c521c37	0.01282411
29	0xbe9e5db2	-0.3093086
30	0xbd76e549	-0.060277257
31	0x3e227955	0.15866597

weight f4 [2, 32]
0	0xbf3501d7	-0.7070593
1	0x3f0d43ac	0.55181384
2	0x3eda9813	0.42694148
3	0x3f103819	0.563356
4	0x3eeb0f13	0.45909938
5	0xbf290462	-0.6602231
6	0x3d97e6e9	0.074170895
7	0x3ed6078a	0.41802627
8	0xbf102363	-0.56303996
9	0x3eca8f23	0.3956233
10	0x3e883d32	0.26609188
11	0xbebb8c57	-0.36630508
12	0x3e028595	0.1274627
13	0x3e6b136e	0.2295663
14	0xbe64c774	-0.2234171
15	0x3f0b44c3	0.544018
16	0x3c63956c	0.013890605
17	0xbebb246c	-0.36551225
18	0x3f1a7349	0.6033216
19	0xbf1d7000	-0.61499023
20	0xbee00ff2	-0.43762165
21	0x3eaa7b81	0.3329735
22	0x3f2907bb	0.6602742
23	0xbf11e297	-0.56986374
24	0x3ec6b4da	0.38809854
25	0x3e845474	0.25845683
26	0x3d779ecc	0.060454175
27	0x3e8e5795	0.27801195
28	0x3ee3f943	0.4452611
29	0xbe6208c7	-0.22073661
30	0x3ed0244b	0.4065269
31	0x3ea3b558	0.31974292
32	0x3f1feb5e	0.62468517
33	0xbf0cefa7	-0.5505318
34	0x3df620ac	0.120179504
35	0xbe8ebb3f	-0.27877232
36	0xbf225195	-0.63405734
37	0x3f1ce7a6	0.6129097
38	0xbbed7678	-0.0072467886
39	0xbd12354c	-0.03569536
40	0x3f48a23e	0.7837256
41	0xbf64a3c6	-0.893124
42	0xbed6e879	-0.41974238
43	0x3ed1a53f	0.40946385
44	0xbf10f463	-0.56622905
45	0xbf3eec94	-0.7457974
46	0xbb09ed06	-0.0021045818
47	0xbf46b0d5	-0.77613574
48	0xbf2c9d24	-0.6742728
49	0x3e9cc407	0.30618307
50	0xbeea9373	-0.4581562
51	0x3f1de83e	0.616825
52	0x3ea1092a	0.31452304
53	0xbee2146a	-0.441562
54	0xbf31ffc8	-0.69530916
55	0x3e450d09	0.19243254
56	0x3dcdc237	0.10046809
57	0xbec7d201	-0.39027408
58	0x3d95ce1c	0.07314703
59	0xbdc8e6bc	-0.09809634
60	0xbef50513	-0.47855434
61	0x3ea6068f	0.3242688
62	0xbf284e7e	-0.6574477
63	0xbed14e26	-0.40879935

bias f4 [2]
0	0xbd9f29f6	-0.07771675
1	0x3e4ef6dd	0.20211358

exp_avg f4 [32, 4]
0	0xbe813fbe	-0.25243944
1	0xbebd092b	-0.36921057
2	0xbf46634e	-0.77495277
3	0xc02335fc	-2.55017
4	0x3c854696	0.01626901
5	0xbe08561f	-0.13314103
6	0xbf4c3ec7	-0.7978329
7	0xc0227f2e	-2.5390124
8	0xbf17219f	-0.59035677
9	0xbf92a6cf	-1.1457156
10	0xbf7a52cf	-0.97782606
11	0xc03d5d9a	-2.958838
12	0xbec88171	-0.39161256
13	0xbf779190	-0.96706486
14	0xbeb422da	-0.3518284
15	0xbf7089d7	-0.93960327
16	0x3f4e0891	0.8048182
17	0x3fd26db0	1.6439724
18	0x3fa24098	1.2675962
19	0x4071643a	3.7717423
20	0x3f01ab0e	0.50651634
21	0x3fa40e7d	1.2816921
22	0x3f68a26e	0.9087285
23	0x402e75e1	2.7259448
24	0xbf02919f	-0.5100345
25	0xbfa4696a	-1.284467
26	0xbf2ccef3	-0.6750328
27	0xbfed3348	-1.8531275
28	0x3f2d055c	0.675863
29	0x3f9b369a	1.2126038
30	0x3fd51419	1.6646758
31	0x40a8bfd6	5.2734175
32	0x3f5764f9	0.8413845
33	0x3fe95339	1.8228523
34	0x3f5c2c39	0.8600498
35	0x400979c6	2.1480575
36	0xbe941162	-0.28919512
37	0xbf65d318	-0.8977523
38	0x3d8e3c83	0.069451354
39	0x3f2a170d	0.6644142
40	0xbc28c0a4	-0.010299835
41	0xbe8c9969	-0.27460793
42	0xbdbcff6a	-0.09228404
43	0x3da2b68a	0.07944973
44	0x3ebe2e3a	0.37144643
45	0x3f478907	0.7794346
46	0x3f73802a	0.9511744
47	0x404c1f04	3.189393
48	0xbede6c0d	-0.4344181
49	0xbfad9f27	-1.3564194
50	0xbee6125d	-0.44935885
51	0xbf18942b	-0.59601086
52	0x3e3bf1fc	0.18354028
53	0x3f29cd04	0.66328454
54	0x3d66ad4e	0.05631762
55	0xbee088db	-0.43854412
56	0x3e69ffda	0.22851506
57	0x3f8f41dd	1.1191975
58	0x3dded7f6	0.10881035
59	0xbf26a40c	-0.65094066
60	0x3ecab5b8	0.39591765
61	0x3f8205b1	1.0157987
62	0x3f70b0b2	0.94019616
63	0x403382a4	2.8048487
64	0x3f18f650	0.59750843
65	0x3f8d41a7	1.103566
66	0x3fa4323c	1.282783
67	0x40876ccd	4.2320313
68	0x3f228f09	0.63499504
69	0x3fb90d19	1.4457122
70	0x3f04b5ac	0.5183971
71	0x3fa4292c	1.2825065
72	0x3f58ef2f	0.84739965
73	0x4005b7a5	2.0893338
74	0x3fae374a	1.3610623
75	0x4064a146	3.5723433
76	0x3f1f551c	0.6223924
77	0x3fbd42dd	1.478603
78	0x3fbafcb7	1.4608372
79	0x408a48be	4.3213797
80	0x3e519dca	0.20470348
81	0x3ea9d40a	0.33169585
82	0x3d8efe56	0.069821045
83	0x3e2df0bc	0.16986364
84	0x3e974f2d	0.29552594
85	0x3edb7a26	0.4286663
86	0x3ee89e3e	0.4543323
87	0x3fe5326a	1.790601
88	0x3e86d992	0.26337868
89	0x3f369a6f	0.71329397
90	0x3e5263b7	0.2054585
91	0x3f1344af	0.5752668
92	0xbf4611f8	-0.7737117
93	0xbfff0fc2	-1.9926684
94	0xbf94bff0	-1.1621075
95	0xc040a89f	-3.0102918
96	0xbf187fae	-0.59569824
97	0xbf8dc42a	-1.107549
98	0xbfb9c8ee	-1.4514444
99	0xc098a1aa	-4.7697344
100	0xbf01f459	-0.5076347
101	0xbfb4313e	-1.4077528
102	0xbf956672	-1.1671889
103	0xc0517c67	-3.273218
104	0x3d4c09f9	0.0498142
105	0x3ecf328d	0.40468255
106	0xbd514420	-0.05109036
107	0xbe9eb93f	-0.31000707
108	0xbf368adb	-0.71305627
109	0xbfa26b15	-1.2688929
110	0xbfd93d3d	-1.6971813
111	0xc0afebd6	-5.4975386
112	0xbd895bd0	-0.06706965
113	0xbdae7dee	-0.08520113
114	0x3cbb888a	0.022892255
115	0x3d505e63	0.050871264
116	0xbeb74a60	-0.3579893
117	0xbeab67c7	-0.33477613
118	0xbf82a536	-1.0206668
119	0xc0762a2d	-3.8463242
120	0xbf4e7721	-0.80650526
121	0xbffdff76	-1.9843585
122	0xbfbe19a7	-1.4851578
123	0xc080dabc	-4.026701
124	0x3eb1d0e3	0.3472968
125	0x3f29583d	0.66150266
126	0x3eaf9f07	0.34301016
127	0x3f867b5b	1.0506395

exp_avg_sq f4 [32, 4]
0	0x3be85d6e	0.007091216
1	0x3c5166e6	0.012780881
2	0x3cf1bd57	0.02950923
3	0x3eca4b64	0.39510643
4	0x3b293302	0.0025817757
5	0x3bc8d0e5	0.006128418
6	0x3d04f14f	0.032456692
7	0x3ecee6fe	0.40410608
8	0x3cd016d0	0.025401503
9	0x3d395bce	0.045253567
10	0x3d2e9aad	0.04262798
11	0x3ef39003	0.4757081
12	0x3c56a74c	0.01310141
13	0x3cfe1781	0.031017067
14	0x3bae7fd1	0.0053252955
15	0x3d2d3c55	0.042293865
16	0x3d3905f5	0.045171697
17	0x3dba36b6	0.090924665
18	0x3d90b908	0.07066542
19	0x3f4bab36	0.7955812
20	0x3cc83e82	0.024443869
21	0x3d665532	0.056233592
22	0x3d20bf06	0.039244674
23	0x3ed606f6	0.41802186
24	0x3ca64f98	0.020301625
25	0x3d4eb12e	0.05046194
26	0x3cacaa24	0.021077223
27	0x3e3e8021	0.18603565
28	0x3d0689e2	0.03284634
29	0x3d856462	0.06513287
30	0x3e0cc3e1	0.13746597
31	0x3fd7f6f7	1.6872243
32	0x3d326e95	0.04356249
33	0x3dcba9bc	0.09944484
34	0x3cf01aaa	0.02930959
35	0x3e5fcf38	0.21856391
36	0x3bdde31d	0.006771459
37	0x3cc37432	0.023859117
38	0x3aff455c	0.0019475627
39	0x3d348994	0.044076517
40	0x3aa913b9	0.0012899555
41	0x3bfcd7c1	0.0077161496
42	0x39d887cc	0.00041299907
43	0x3c0030df	0.007824152
44	0x3c64214c	0.013923954
45	0x3d14a421	0.036289338
46	0x3d41bf65	0.04730167
47	0x3f26153c	0.6487615
48	0x3c61bbe0	0.013777703
49	0x3d6ab6b0	0.05730313
50	0x3bd4573c	0.0064801257
51	0x3ca00446	0.019533288
52	0x3b872f4d	0.0041255117
53	0x3cb91192	0.022591386
54	0x3a8cfb36	0.0010756019
55	0x3d2053aa	0.03914229
56	0x3bc1caa9	0.0059140516
57	0x3d775a88	0.06038907
58	0x3b005fd5	0.001958837
59	0x3db4ec9c	0.08834192
60	0x3c8ca997	0.01717071
61	0x3d1bb7a3	0.038016926
62	0x3d296451	0.041355435
63	0x3ee41530	0.44547415
64	0x3cf981d0	0.030457407
65	0x3d80f5b3	0.062968634
66	0x3da96662	0.08271481
67	0x3f8b154f	1.0865878
68	0x3cdcdbda	0.026960302
69	0x3d7b9755	0.06142362
70	0x3c1c19ef	0.009527667
71	0x3d91029d	0.070805766
72	0x3d488d07	0.04896262
73	0x3e01866d	0.12648936
74	0x3da5779e	0.08079456
75	0x3f2c4916	0.6729902
76	0x3d095dc6	0.033536695
77	0x3d993598	0.07480925
78	0x3dced3bc	0.10098979
79	0x3f899d54	1.0751138
80	0x3b414398	0.0029489752
81	0x3baf71c8	0.00535414
82	0x398eb6d6	0.00027220574
83	0x3aa7599d	0.0012767796
84	0x3c345527	0.01100663
85	0x3d09a423	0.0336038
86	0x3c38edfb	0.011287208
87	0x3e683827	0.2267767
88	0x3c1db8ae	0.009626551
89	0x3cabf74f	0.02099195
90	0x3affcafe	0.0019515452
91	0x3c964d15	0.018347302
92	0x3d1dee13	0.038557123
93	0x3de575f9	0.11204142
94	0x3d76e354	0.06027539
95	0x3ef4abd6	0.4778735
96	0x3d0cf865	0.034416575
97	0x3d8b6a30	0.06807363
98	0x3dd260b3	0.1027235
99	0x3fae0c13	1.3597435
100	0x3cdd6214	0.027024306
101	0x3d85e6f8	0.065381944
102	0x3d801d09	0.06255538
103	0x3f16056e	0.58602035
104	0x3b964dc1	0.0045869057
105	0x3c085a16	0.008322259
106	0x3a4f6933	0.0007912099
107	0x3c2757f8	0.0102138445
108	0x3d214801	0.03937531
109	0x3dada79f	0.08479237
110	0x3e12485c	0.14285415
111	0x3fed65d8	1.8546705
112	0x3a28d310	0.0006440142
113	0x3aba4d6a	0.0014213745
114	0x38ef5235	0.0001141172
115	0x39d18de6	0.0003996931
116	0x3c634d51	0.013873414
117	0x3d652330	0.05594176
118	0x3d7fc10a	0.062439956
119	0x3f85d5c9	1.0455867
120	0x3d352311	0.044222895
121	0x3df0ef73	0.11764421
122	0x3dd3d968	0.10344201
123	0x3f611668	0.87924814
124	0x3c001e17	0.007819674
125	0x3c7ae0e4	0.015312407
126	0x3bebb9e1	0.0071937894
127	0x3d8fbc70	0.070183635

exp_avg f4 [32]
0	0x4013e3f9	2.3107893
1	0x3fd47c97	1.6600522
2	0x3fcb4b51	1.588236
3	0xbf656bf7	-0.89617866
4	0x3c523653	0.012830335
5	0x3fbc26b3	1.469931
6	0xbfcc3ada	-1.595546
7	0xbfe9e8fc	-1.8274226
8	0xbf49e2d6	-0.7886175
9	0xbefba9cd	-0.49152985
10	0x3fee118d	1.8599106
11	0x40147b03	2.320008
12	0x401346ea	2.3012033
13	0xc034c4c3	-2.8245094
14	0xc01d7ec9	-2.4608634
15	0xbc886804	-0.016651161
16	0x3eef4b5e	0.46737188
17	0xbea4b699	-0.3217056
18	0xc012030b	-2.2814357
19	0xc01ba1cc	-2.4317503
20	0xbcabdadf	-0.02097839
21	0x3ff4e47c	1.9132228
22	0x3fefa619	1.8722564
23	0xbe108ec0	-0.14116955
24	0x3f04e589	0.5191274
25	0x3fbe72f3	1.487883
26	0x3f87fb12	1.0623496
27	0x3f661fd2	0.89892304
28	0xbf1bf4ea	-0.60920584
29	0xc0051e74	-2.0799837
30	0x3f97c641	1.1857377
31	0x3ff9a88c	1.9504561

exp_avg_sq f4 [32]
0	0x3eac9e69	0.33714607
1	0x3e1a8bd5	0.15092404
2	0x3eb1481f	0.34625337
3	0x3e4e62e9	0.20154919
4	0x3f0c2764	0.54747605
5	0x3f0442ce	0.51664436
6	0x3edd3a29	0.43208435
7	0x3efaa96a	0.48957378
8	0x3ed59ef2	0.41722828
9	0x3de6a1b2	0.1126131
10	0x3e45a530	0.19301295
11	0x3f32f510	0.69905186
12	0x3ebbe6fc	0.36699665
13	0x3f01906d	0.50611
14	0x3eaf3675	0.34221235
15	0x3eb4446b	0.3520845
16	0x3ee7c8cb	0.4527038
17	0x3e91e5ee	0.28495735
18	0x3f435b28	0.7631097
19	0x3f2d8bd1	0.6779147
20	0x3cb530b3	0.022117948
21	0x3e9f8df9	0.31163004
22	0x3e898a52	0.26863343
23	0x3efaf720	0.49016666
24	0x3eec79f6	0.461868
25	0x3ee5e067	0.44897768
26	0x3e1607a4	0.14651352
27	0x3f06e43b	0.52692
28	0x3cf096a1	0.0293687
29	0x3efc686c	0.49298418
30	0x3f04abfa	0.51824915
31	0x3e8571ab	0.26063284

exp_avg f4 [32, 32]
0	0x3e22033a	0.15821543
1	0xbcf2a587	-0.029619945
2	0x3de6e856	0.11274783
3	0xbe5db1dd	-0.2164988
4	0x3f17ef4e	0.59349525
5	0x3e90a6ff	0.28252408
6	0xbea259dd	-0.31709185
7	0xbdec5aba	-0.11540742
8	0x3e4f320d	0.20233937
9	0xbed76305	-0.42067733
10	0x3c1eb1a4	0.0096859075
11	0x3e9ae9af	0.3025641
12	0xbd9a0660	-0.07520747
13	0x3d1c0e9f	0.03809988
14	0x3c57d0ba	0.013172323
15	0x3e29d01a	0.1658329
16	0x3d5c4b57	0.053782787
17	0x3e91107a	0.28332883
18	0x3e3704f0	0.17872977
19	0x3de9ae6c	0.114102215
20	0xbd3bebdd	-0.045879234
21	0x3e882956	0.26594037
22	0x3ea43d93	0.32078227
23	0xbe817f4a	-0.25292426
24	0xbd01819a	-0.03161774
25	0xbe46c714	-0.1941188
26	0x3edf48df	0.43610284
27	0xbd3ad303	-0.045611393
28	0xbd9ce1b6	-0.076602384
29	0xbdb5e992	-0.088824406
30	0xbd348568	-0.04407254
31	0x3e8fa5ae	0.2805609
32	0xbe5ef641	-0.21773626
33	0xbea20e26	-0.3165142
34	0xbdb3d168	-0.087801754
35	0x3e0702a5	0.13184603
36	0x3d87f365	0.06638221
37	0xbde3fdd2	-0.11132397
38	0x3e0e7f3b	0.13915722
39	0x3e2c6c72	0.16838244
40	0x3dcbaac7	0.099446826
41	0x3e67b5fc	0.22628015
42	0xbe2efbca	-0.17088237
43	0xbdcc27fb	-0.09968563
44	0xbe856935	-0.2605683
45	0x3e2d27f7	0.16909777
46	0x3e4e5cdb	0.20152609
47	0xbd63268b	-0.05545668
48	0xbc2dba81	-0.010603548
49	0xb93c962f	-0.00017985025
50	0x3e63a391	0.22230364
51	0x3ec86826	0.3914196
52	0xbe21e6e8	-0.1581074
53	0xbd9ffaf4	-0.078115374
54	0xbde27607	-0.11057668
55	0x3d91ac4b	0.071129404
56	0xbd893ee8	-0.067014515
57	0xbe95f068	-0.29284978
58	0xbe26bca8	-0.16282904
59	0xbe0de556	-0.13857016
60	0x3e036422	0.12831166
61	0x3da03bd1	0.07823909
62	0xbe2bd489	-0.16780294
63	0xbe13bb99	-0.14427032
64	0xbe28c50d	-0.16481419
65	0xbe3199cc	-0.17343825
66	0xbe728fe0	-0.23687696
67	0xbb1f8401	-0.0024340155
68	0x3d3784d6	0.044804417
69	0x3dcac848	0.09901482
70	0x3c217162	0.009853693
71	0x3e9a6116	0.30152196
72	0x3e0c3aff	0.1369438
73	0x3db09f9d	0.08624194
74	0xbe31c480	-0.17360115
75	0xbd2c9016	-0.0421296
76	0xbee4c558	-0.4468181
77	0x3dd7fb59	0.10545988
78	0x3e95108e	0.29114193
79	0x3e4698bf	0.19394206
80	0x3da0901c	0.07839987
81	0x3d64a8b2	0.055824943
82	0x3ea8d151	0.32972196
83	0x3f081648	0.53159
84	0x3e23ff34	0.16015321
85	0xbe0213d1	-0.12702872
86	0xbdf11da0	-0.11773229
87	0xbe0a386a	-0.13498083
88	0xbe296395	-0.16541894
89	0xbf0a4877	-0.5401682
90	0xbe0673af	-0.13130067
91	0xbe879509	-0.26480892
92	0xbc6c7f76	-0.014434686
93	0x3d13489d	0.03595792
94	0xbee7be27	-0.45262262
95	0xbe15ec36	-0.14640889
96	0xbd746ed0	-0.05967599
97	0xbe198729	-0.14992966
98	0x3e092eb0	0.13396716
99	0x3eed5ff5	0.46362272
100	0xbf24f6b5	-0.64438945
101	0xbf1d8ab2	-0.6153976
102	0x3ee2b963	0.44282064
103	0xbd9d94a3	-0.07694366
104	0xbec3e332	-0.38259274
105	0x3f078ffb	0.5295407
106	0xbd533783	-0.051566612
107	0xbee33c14	-0.44381773
108	0x3e8e114b	0.27747568
109	0x3d13ba02	0.036066063
110	0xbda35a0d	-0.0797616
111	0xbf1adb9a	-0.60491335
112	0xbe40c6fa	-0.18825904
113	0xbeb91d2f	-0.36155078
114	0xbed13b10	-0.40865374
115	0xbea16e1d	-0.31529322
116	0xbe4477c7	-0.19186316
117	0xbe8358bf	-0.25653645
118	0xbea70707	-0.3262255
119	0x3efa5f3e	0.4890079
120	0x3e296033	0.16540603
121	0x3f051dcd	0.519986
122	0xbead0211	-0.3379064
123	0x3e7a2f40	0.24432087
124	0x3e231ee6	0.15929756
125	0x3e38edc6	0.18059453
126	0x3ea90f4f	0.33019492
127	0xbe8216e7	-0.25408098
128	0x3e4b2ef7	0.19842134
129	0x3ecd06d9	0.40044287
130	0x3dfb8aaa	0.122823074
131	0x3e7c283b	0.24624722
132	0xbf7ab40f	-0.97931
133	0xbee47ece	-0.44627994
134	0x3ea0c8d7	0.3140323
135	0xbe48a918	-0.19595754
136	0xbf0eae9a	-0.5573517
137	0x3e9e7657	0.3094966
138	0x3e80deea	0.2517007
139	0xbeb8efdf	-0.36120507
140	0x3f2ca6aa	0.6744181
141	0xbe8fa3c5	-0.28054634
142	0xbed09b6e	-0.40743583
143	0xbedb50dd	-0.4283513
144	0xbdf92a50	-0.121662736
145	0xbed6113b	-0.4181002
146	0xbf477ac4	-0.779217
147	0xbf652f64	-0.8952544
148	0x3e445c6b	0.1917588
149	0xbe6ecfcd	-0.23321457
150	0xbe8f459f	-0.27982804
151	0x3ed119a4	0.40839875
152	0x3e58b894	0.21164161
153	0x3f71e8a7	0.94495624
154	0xbe8f7089	-0.28015545
155	0x3ebfe7fe	0.37481683
156	0xbd429bdf	-0.04751193
157	0x3d458923	0.048226487
158	0x3efd923f	0.4952564
159	0xbe152206	-0.1456376
160	0x3be18ba2	0.0068831006
161	0xbdfeefef	-0.124481075
162	0x3e97bbb0	0.29635382
163	0x3f028b4a	0.5099379
164	0xbf2c5369	-0.67314774
165	0xbf3e6b92	-0.7438289
166	0x3eff3373	0.4984394
167	0xbe820944	-0.25397694
168	0xbef5b1a1	-0.47987083
169	0x3f0db765	0.5535796
170	0x3d4dc2b0	0.050234497
171	0xbee4dd93	-0.44700298
172	0x3f136d2e	0.5758847
173	0xbcc02008	-0.023452774
174	0xbe86f184	-0.26356137
175	0xbf4839c5	-0.7821315
176	0xbe75190a	-0.23935333
177	0xbed3e80d	-0.41387978
178	0xbf1cce98	-0.6125274
179	0xbf1fee31	-0.62472826
180	0xbebd6a93	-0.36995372
181	0xbe2dbc75	-0.16966422
182	0xbe848cc8	-0.25888658
183	0x3f242094	0.6411221
184	0x3e856068	0.26050115
185	0x3f5e4d41	0.8683663
186	0xbe982998	-0.29719234
187	0x3ed0a4be	0.40750688
188	0x3e5e6268	0.21717227
189	0x3e1f9227	0.15583096
190	0x3f25db74	0.64787984
191	0xbe44f99f	-0.19235848
192	0x3d06a182	0.03286887
193	0xbdafaf3c	-0.08578345
194	0x3e251664	0.16121823
195	0x3cf96eb2	0.030448291
196	0x3e4f373c	0.20235914
197	0xbd6ef948	-0.058343202
198	0xbcfeb3c1	-0.031091573
199	0xbe25c67d	-0.16188999
200	0x3ce3c5f7	0.027804358
201	0xbd6f3725	-0.0584022
202	0xbc7d267b	-0.015451069
203	0x3d449dd9	0.048002098
204	0x3dc4a7a5	0.09602288
205	0x3d8603f9	0.065437265
206	0xbd2c26c0	-0.042029142
207	0xbe145e82	-0.14489177
208	0xbd801f6c	-0.06255993
209	0x3d2ec005	0.042663593
210	0xbcb7dd91	-0.022444518
211	0xbdc52fbf	-0.096282475
212	0xbe56b2b6	-0.2096661
213	0x3dd5de49	0.10442788
214	0x3ddf1c6d	0.10894094
215	0x3d40fce8	0.04711619
216	0x3da14fba	0.07876535
217	0x3e0a1b08	0.13486874
218	0x3e07a1f3	0.13245372
219	0x3dde8c3b	0.108665906
220	0x3d1cf95b	0.03832374
221	0x3c88a4c0	0.016680121
222	0x3e4ab9cc	0.19797438
223	0x3dd0a6da	0.101880744
224	0x3db0f4af	0.0864042
225	0x3e05c717	0.13064228
226	0xbe1e72c4	-0.15473467
227	0xbf035c4e	-0.5131272
228	0x3f438446	0.7637371
229	0x3f32e0e5	0.6987441
230	0xbf05e63a	-0.5230442
231	0x3de05cf7	0.10955232
232	0x3ee21e5d	0.4416379
233	0xbf1cdc19	-0.6127334
234	0x3d36abd3	0.044597458
235	0x3f04ccb8	0.51874876
236	0xbeb4f975	-0.3534657
237	0xbce337c0	-0.027736545
238	0x3ddfe54a	0.10932405
239	0x3f2d1c99	0.6762176
240	0x3e5a77cb	0.2133476
241	0x3edd31c5	0.43202034
242	0x3ef35407	0.47525045
243	0x3edaf17a	0.42762357
244	0x3e6689d8	0.2251352
245	0x3e98d6ee	0.29851478
246	0x3ec381d1	0.3818498
247	0xbf113407	-0.5672001
248	0xbe47d2df	-0.19514035
249	0xbf254550	-0.6455889
250	0x3ed907ef	0.42388865
251	0xbe9d2527	-0.30692407
252	0xbe3edb93	-0.18638448
253	0xbe4b9d03	-0.19884114
254	0xbedf4699	-0.4360855
255	0x3e9fd792	0.31219155

exp_avg_sq f4 [32, 32]
0	0x3aa120d1	0.0012293105
1	0x3ac373a2	0.0014911781
2	0x3a34e6a3	0.00069008226
3	0x3bbc66af	0.0057495455
4	0x3c8df16d	0.017327035
5	0x3c04830d	0.008087886
6	0x3bb5fbdb	0.005553705
7	0x3a1265d7	0.00055846333
8	0x3b53daca	0.0032326453
9	0x3c18d738	0.009328656
10	0x3b10839f	0.0022051109
11	0x3c0806f9	0.008302444
12	0x3a9a07b4	0.0011751563
13	0x3a8f120b	0.0010915411
14	0x3ae6e183	0.0017614815
15	0x3be24c6a	0.006906082
16	0x3a515faa	0.00079869723
17	0x3ba128e0	0.0049182028
18	0x3ae74b46	0.0017646335
19	0x3ad11c3e	0.0015953851
20	0x3a80de83	0.0009831939
21	0x3baee80b	0.0053377203
22	0x3bcdfea5	0.0062864595
23	0x3b669873	0.0035186082
24	0x39adccce	0.00033149723
25	0x3b3ebfaf	0.0029105952
26	0x3c11ea60	0.008905977
27	0x3a8f7ce0	0.001094725
28	0x3a875ed2	0.0010327941
29	0x3ad3c21d	0.0016155873
30	0x3a2b092b	0.00065244985
31	0x3b83c010	0.0040206984
32	0x3b780596	0.0037845126
33	0x3c2b85ea	0.010468939
34	0x3a119ce3	0.0005554689
35	0x3b48bf88	0.003063174
36	0x3a1e0025	0.0006027243
37	0x3b2aa118	0.002603596
38	0x3b1b3fab	0.0023689072
39	0x3b1e94e8	0.0024197642
40	0x3a43e8d9	0.00074733567
41	0x3bb32fc6	0.0054683415
42	0x3b832052	0.0040016556
43	0x3b09d73d	0.0021032833
44	0x3bef3cf4	0.0073009674
45	0x3b612fd3	0.003436078
46	0x3ba34122	0.0049821297
47	0x3acc9d5e	0.0015610864
48	0x3920999f	0.00015316017
49	0x397b55c5	0.00023969177
50	0x3b89d840	0.004206687
51	0x3c64f443	0.013974252
52	0x3b01746f	0.0019753238
53	0x3aa36dcd	0.0012468636
54	0x3aeb6d36	0.0017961625
55	0x3a4768d8	0.00076068705
56	0x39aed145	0.00033343784
57	0x3bf5a57c	0.007496534
58	0x3b2f9803	0.0026793487
59	0x3ab7a245	0.0014010152
60	0x3aaaa858	0.0013020141
61	0x3a86aa73	0.0010274186
62	0x3b4204e5	0.0029604968
63	0x3b16e89d	0.0023026832
64	0x3b005a6a	0.001958514
65	0x3b35867b	0.0027698565
66	0x3b84a3bf	0.0040478404
67	0x3a15dd97	0.00057169184
68	0x3a9e0b33	0.0012057781
69	0x3aff90b1	0.0019498077
70	0x39ca9b1d	0.0003864401
71	0x3bd259d3	0.0064193993
72	0x3b159c5c	0.0022828793
73	0x3a4b319d	0.00077512284
74	0x3b33921f	0.0027400327
75	0x39f414e9	0.00046554886
76	0x3c873c76	0.016508322
77	0x3a9fcb36	0.0012191299
78	0x3be43623	0.0069644614
79	0x3b8b26b3	0.0042465567
80	0x3a096b53	0.0005242128
81	0x3a182c62	0.00058049534
82	0x3c1fd2b5	0.009754826
83	0x3cbab19e	0.022789773
84	0x3b046205	0.0020200026
85	0x3a8669a5	0.0010254873
86	0x3a5f1a42	0.00085106876
87	0x3b197fc9	0.0023422113
88	0x3b036f00	0.0020055175
89	0x3cc3e0a5	0.02391083
90	0x3a8854ca	0.0010401246
91	0x3bb0f3d3	0.00540016
92	0x396985f4	0.00022270513
93	0x3953bd21	0.00020192984
94	0x3c86c220	0.016449988
95	0x3a9b4ddd	0.0011848767
96	0x39efc82b	0.0004573477
97	0x3b5e390e	0.003390852
98	0x3b6f9376	0.00365564
99	0x3c93c9ae	0.018040504
100	0x3cc303f2	0.023805592
101	0x3d00dfa1	0.03146327
102	0x3c54d579	0.012990349
103	0x3b11de94	0.002225791
104	0x3c2b3f8d	0.010452163
105	0x3c8f97c7	0.017528428
106	0x3ac1dda6	0.0014790788
107	0x3c744615	0.014909287
108	0x3bd0af20	0.006368533
109	0x3a9881f8	0.0011635413
110	0x3a8bb4ea	0.0010658775
111	0x3d0fb011	0.03508002
112	0x3b80c64b	0.0039298884
113	0x3c151d75	0.009101261
114	0x3c4c4ea2	0.012469919
115	0x3c261816	0.0101375785
116	0x3b9a6836	0.00471213
117	0x3b9151cd	0.0044348002
118	0x3bd5c2ea	0.0065234797
119	0x3c8efbfb	0.017454138
120	0x3b577126	0.0032873838
121	0x3cc7155e	0.02430218
122	0x3bc48c9f	0.0059982087
123	0x3becf716	0.0072316034
124	0x3ad43be2	0.0016192163
125	0x3b583799	0.0032992123
126	0x3c3ba1a0	0.011452109
127	0x3b571569	0.0032819158
128	0x3be43e9a	0.0069654705
129	0x3c92eed4	0.017936148
130	0x3b9f9a29	0.0048706722
131	0x3bd5533e	0.0065101674
132	0x3d4a4c10	0.049388945
133	0x3c700575	0.014649739
134	0x3ba58cb6	0.0050521744
135	0x3c2131d9	0.009838545
136	0x3ca0c93a	0.019627202
137	0x3bcc1f63	0.0062293275
138	0x3c044a58	0.008074366
139	0x3c183da1	0.009292037
140	0x3d2d74b8	0.04234764
141	0x3bd1d03b	0.006402997
142	0x3c93b5cb	0.018031022
143	0x3c94abb7	0.018148286
144	0x3b04d65c	0.002026937
145	0x3c297357	0.010342441
146	0x3d372f26	0.0447227
147	0x3d9e2d82	0.07723524
148	0x3b3c9ef1	0.002878126
149	0x3b89647d	0.0041928873
150	0x3b9dda7d	0.0048173056
151	0x3c1b9031	0.009494827
152	0x3bb36c39	0.0054755476
153	0x3da19abb	0.078908406
154	0x3b8d17c3	0.004305811
155	0x3c83467b	0.016024819
156	0x3afb7b6e	0.0019186565
157	0x3ab6ac49	0.0013936843
158	0x3ce84bd2	0.028356466
159	0x3b1ca62e	0.0023902762
160	0x3a376115	0.00069953623
161	0x3b86eb22	0.0041173855
162	0x3c2e919a	0.010654831
163	0x3cd1317e	0.025536295
164	0x3cfb8ea1	0.03070766
165	0x3d5467fc	0.05185698
166	0x3ca473e8	0.0200748
167	0x3c0d5c0e	0.008627905
168	0x3c94111b	0.018074563
169	0x3cbf4a74	0.023350932
170	0x3aa552a4	0.001261313
171	0x3c9c203b	0.019058337
172	0x3ccef9b8	0.02526556
173	0x3a9c3107	0.0011916467
174	0x3ba2abb5	0.0049643167
175	0x3d7db664	0.06194152
176	0x3bda32f4	0.006658906
177	0x3c5da3e7	0.013527847
178	0x3cf07249	0.02935137
179	0x3d12002b	0.03564469
180	0x3c633c11	0.013869301
181	0x3b4ae65d	0.003096006
182	0x3bbaf572	0.005705529
183	0x3d0a465b	0.033758502
184	0x3befa11c	0.007312907
185	0x3d87ae55	0.06625048
186	0x3bc553e4	0.0060219634
187	0x3c926813	0.017871892
188	0x3b6c6b27	0.003607461
189	0x3b6f1057	0.0036478245
190	0x3d20fdd3	0.039304566
191	0x3b41df31	0.0029582495
192	0x390dec10	0.00013534748
193	0x3a9335b5	0.0011231216
194	0x3aa46db5	0.0012544902
195	0x3a8a33d1	0.0010544007
196	0x3acc8acb	0.0015605328
197	0x3add89f5	0.0016902076
198	0x3a15c9f8	0.00057139946
199	0x3a8d94b2	0.0010801761
200	0x39a04160	0.00030566286
201	0x3a67f8c4	0.00088490197
202	0x39e770c0	0.0004414376
203	0x3a47a054	0.00076151383
204	0x3aa3a3c6	0.0012484721
205	0x39b02cfc	0.00033602852
206	0x3a24e076	0.0006289551
207	0x3b336f3c	0.0027379533
208	0x399ebc89	0.00030276578
209	0x3966a5bb	0.00021996249
210	0x39a71fbb	0.00031876363
211	0x3a311beb	0.0006756174
212	0x3b69fcea	0.0035703727
213	0x3a39bc84	0.0007085281
214	0x3a285a11	0.00064221123
215	0x3a93a507	0.0011264392
216	0x39aac6ad	0.00032572952
217	0x3acacfc3	0.0015473295
218	0x3a3a4822	0.00071060855
219	0x3a26873b	0.00063525484
220	0x3a62f000	0.00086569786
221	0x396aa9e7	0.00022379273
222	0x3b33e12c	0.0027447445
223	0x39e70910	0.00044066506
224	0x3a447ccb	0.0007495402
225	0x3b8c6041	0.0042839353
226	0x3b9f5937	0.00486293
227	0x3cc56211	0.024094613
228	0x3d101299	0.035173986
229	0x3d309488	0.0431104
230	0x3c9d135a	0.019174267
231	0x3b536f11	0.0032262246
232	0x3c741c68	0.014899351
233	0x3ccdcbc0	0.02512157
234	0x3b0709d2	0.0020605219
235	0x3cb4a975	0.02205346
236	0x3c1f8ee1	0.009738655
237	0x3ad287ae	0.0016062164
238	0x3acf366e	0.0015809068
239	0x3d3f2f61	0.046676043
240	0x3ba95c8f	0.0051685045
241	0x3c5d27ca	0.013498256
242	0x3c8cb7b0	0.017177433
243	0x3c8aca08	0.01694204
244	0x3bcaa695	0.006184409
245	0x3bd73e56	0.0065687103
246	0x3c1f4cba	0.009722883
247	0x3cc6d360	0.024270713
248	0x3b8eab6b	0.0043539307
249	0x3d152a2f	0.036417183
250	0x3c2466da	0.010034287
251	0x3c30d001	0.0107917795
252	0x3b10442c	0.002201329
253	0x3b912131	0.0044290056
254	0x3c94eafd	0.018178457
255	0x3bb4d9a2	0.005519108

exp_avg f4 [32]
0	0x3e80bf1f	0.25145814
1	0xbf06ab2b	-0.5260493
2	0xbf18ede7	-0.5973801
3	0xbec4fdbc	-0.38474834
4	0x3ea72958	0.3264873
5	0xbe0d8817	-0.13821445
6	0x3e272518	0.16322744
7	0x3eb7230d	0.3576893
8	0x3f238050	0.63867664
9	0x3ecd5e5e	0.4011106
10	0x3e837809	0.25677517
11	0xbeebb5fc	-0.4603728
12	0xbf04192e	-0.5160092
13	0x3f154335	0.58305675
14	0x3e5e4c04	0.21708685
15	0x3d199949	0.0374997
16	0x3e4371a7	0.19086324
17	0x3f28b601	0.65902716
18	0xbed7529b	-0.4205521
19	0xbed1a8e0	-0.40949154
20	0xbf28cb10	-0.6593485
21	0x3ee0a155	0.43873087
22	0x3f579d97	0.8422484
23	0x3f5e4442	0.86822903
24	0x3e3aaccd	0.18229981
25	0x3d71bff9	0.05902097
26	0xbd84586f	-0.0646218
27	0xbcbb7881	-0.02288461
28	0xbf048c39	-0.5177646
29	0xbf54cfee	-0.83129776
30	0xbdc64c77	-0.09682553
31	0xbf0f8795	-0.56066257

exp_avg_sq f4 [32]
0	0x3ca6d806	0.02036668
1	0x3d160a01	0.036630634
2	0x3cdda570	0.027056426
3	0x3c92e1ab	0.017929872
4	0x3d6c39a5	0.05767216
5	0x3c465646	0.01210553
6	0x3ba39067	0.0049915793
7	0x3cbee9ca	0.023304839
8	0x3decae4e	0.115566835
9	0x3ccd53c5	0.025064358
10	0x3c5845ff	0.013200282
11	0x3cd4ce82	0.025977377
12	0x3d0cbb54	0.034358338
13	0x3d39178f	0.045188483
14	0x3c0c01e2	0.008545371
15	0x3c7d5078	0.01546108
16	0x3d34767b	0.044058304
17	0x3db9b9ca	0.090686396
18	0x3cb805fa	0.022463787
19	0x3cd81467	0.026376916
20	0x3dfa5665	0.1222351
21	0x3d4d1ecf	0.05007821
22	0x3dc36a43	0.09541752
23	0x3dca9204	0.098911315
24	0x3c38dd6f	0.011283263
25	0x3c43d103	0.011951688
26	0x3bceb6db	0.006308419
27	0x3c935309	0.01798393
28	0x3cc60447	0.024171961
29	0x3d870ed9	0.06594629
30	0x3b6eab9f	0.0036418212
31	0x3db7a5b0	0.08967149
