hw2/data/sb_no_rtg_dna_CartPole-v0_16-06-2019_19-03-11/11/model.pkl (torch_old, 66652 bytes, 18 tensors)

weight f4 [64, 4]
0	0x3f0e8f02	0.5568696
1	0x3ebddc30	0.37082052
2	0xbf44e384	-0.7690966
3	0xbf2c0cd2	-0.6720706
4	0x3ea84cfc	0.32871234
5	0xbdf347cd	-0.11878929
6	0x3f3e1223	0.74246424
7	0x3f20d8ea	0.62830985
8	0x3d485be8	0.048915774
9	0x3e9ded83	0.3084527
10	0xbf4ca563	-0.7993986
11	0xbf5bb3f0	-0.8582144
12	0xbee72581	-0.451458
13	0x3e973ff5	0.29540983
14	0xbf412bbb	-0.7545735
15	0xbf65d1be	-0.89773166
16	0x3efd5262	0.49476916
17	0x3e60249c	0.21888965
18	0xbf439044	-0.76392007
19	0xbf6c1fa6	-0.9223579
20	0xbea466af	-0.3210959
21	0xbf124ad4	-0.5714543
22	0x3f70f934	0.94130254
23	0x3f5527dd	0.8326395
24	0x3f1b0f5e	0.60570323
25	0x3ea67914	0.3251425
26	0x3e8b229d	0.27174845
27	0xbeebfd5c	-0.46091735
28	0x3db12455	0.08649508
29	0xbdfc13c9	-0.12308461
30	0x3e433ec3	0.1906691
31	0xbdeb6dbf	-0.11495542
32	0x3d8cebdd	0.06880925
33	0xbe3ac559	-0.18239345
34	0x3f0dc0ef	0.5537252
35	0x3f2c91b6	0.6740984
36	0x3ea30683	0.31840906
37	0xbea32d65	-0.3187057
38	0x3ed6d833	0.41961822
39	0x3f347d2c	0.705035
40	0x3ea75b7d	0.32686988
41	0x3ed1b16c	0.40955675
42	0xbd9d54be	-0.07682179
43	0xbe80edf1	-0.25181535
44	0x3ea66d0b	0.32505068
45	0x3f2cdc64	0.6752379
46	0xbf3a2e01	-0.72726446
47	0xbf32b047	-0.6980023
48	0xbe5edc87	-0.21763812
49	0x3ee129d8	0.43977237
50	0xbf4df7dc	-0.8045633
51	0xbf4d0a1f	-0.8009357
52	0xbe70d46b	-0.23518531
53	0x3dba088f	0.09083664
54	0xbf490631	-0.7852507
55	0xbf5057b5	-0.8138383
56	0x3e71697d	0.23575397
57	0xbed80d3a	-0.4219759
58	0x3f74ff2e	0.95701873
59	0x3f5b1810	0.8558359
60	0x3f24d13e	0.6438178
61	0xbd9c4bf3	-0.07631674
62	0x3f5fb550	0.87386036
63	0x3ee44c1a	0.4458931
64	0x3cf89fca	0.03034963
65	0xbe6ad111	-0.22931315
66	0x3f350d73	0.70723647
67	0x3f2d7b22	0.6776601
68	0xbe005420	-0.12532091
69	0xbea1eca9	-0.3162587
70	0x3f524810	0.8214121
71	0x3f21b85b	0.6317193
72	0xbc14dd8e	-0.009086026
73	0x3f22ac31	0.63543993
74	0xbf5d2ef4	-0.8639977
75	0xbf5cff30	-0.86326885
76	0x3eca5963	0.39521322
77	0x3d743cb4	0.059628204
78	0xbe2900c9	-0.16504206
79	0xbc893566	-0.016749095
80	0x3f045919	0.5169845
81	0xbf2365ba	-0.638271
82	0x3f1d900e	0.61547935
83	0x3f62331b	0.8835923
84	0x3f42ee62	0.76144993
85	0xbf1fd7e6	-0.6243881
86	0x3ee9ab83	0.45638666
87	0x3f66e2c8	0.9018979
88	0xbec41d65	-0.38303676
89	0xbf4354f9	-0.76301533
90	0x3f512017	0.8168959
91	0x3f4a9a1d	0.7914141
92	0xbdfdcda1	-0.12392736
93	0x3f1cc21b	0.6123368
94	0xbf5e08c6	-0.8673214
95	0xbf49d9d3	-0.78848
96	0xbf25d404	-0.64776635
97	0x3f2280ba	0.6347767
98	0xbf4df71e	-0.80455196
99	0xbf24fed6	-0.6445135
100	0xbea83b5a	-0.32857782
101	0xbe53d3d3	-0.20686273
102	0xbe6083f2	-0.21925333
103	0x3e98bd2d	0.2983183
104	0xbec880f6	-0.3916089
105	0xbd901c42	-0.0703664
106	0xbf79ef37	-0.9763064
107	0xbf17545c	-0.591131
108	0xbefc9e06	-0.49339312
109	0x3eb23f50	0.3481393
110	0xbf1b96a2	-0.6077672
111	0xbf6e9dee	-0.9320973
112	0xbdc3a544	-0.09553006
113	0xbf43401f	-0.76269716
114	0x3f3585c7	0.70907253
115	0x3f23f39d	0.640436
116	0xbeb7d81a	-0.3590706
117	0x3efbfa1c	0.49214256
118	0xbf4f4348	-0.8096204
119	0xbf58f27c	-0.84745
120	0x3f12ea05	0.57388335
121	0xbdd377a8	-0.10325557
122	0x3f517242	0.8181497
123	0x3ee68a62	0.45027453
124	0xbf134317	-0.57524246
125	0xbef0855b	-0.46976742
126	0x3ee9e573	0.45682868
127	0x3f00cb7b	0.50310487
128	0xbf5c366d	-0.8602055
129	0xbee5aa41	-0.44856456
130	0x3e9a135f	0.30092904
131	0x3f279912	0.6546794
132	0xbeb3b569	-0.35099342
133	0xbe4812bd	-0.19538398
134	0x3e873eee	0.264152
135	0x3deef3cd	0.11667595
136	0xbe79412f	-0.24341272
137	0xbefb5e0d	-0.49095193
138	0x3f4db1d0	0.80349445
139	0x3f2225eb	0.6333911
140	0x3f0a7027	0.5407738
141	0xbf0b09f1	-0.54312044
142	0x3f549ca5	0.8305152
143	0x3f214944	0.6300242
144	0x3eeffc5c	0.46872222
145	0x3eb91fd9	0.3615711
146	0x3f47032f	0.7773923
147	0x3f1b18e9	0.60584885
148	0xbf4c1d27	-0.7973198
149	0xbcb3f28d	-0.021966243
150	0xbf634963	-0.88783854
151	0xbf01e9ed	-0.5074757
152	0xbec9888d	-0.39361992
153	0xbf15d921	-0.5853444
154	0xbea618ad	-0.324407
155	0x3e30583a	0.17221156
156	0xbe11643a	-0.1419839
157	0x3d879d1d	0.06621764
158	0xbe730f32	-0.23736265
159	0xbd8c0bd2	-0.06838192
160	0x3e360194	0.1777404
161	0x3efe7c54	0.4970423
162	0xbed20152	-0.41016632
163	0xbf32325f	-0.6960811
164	0xbd9c0a50	-0.076191545
165	0x3ef7fc2a	0.48434573
166	0xbf4bd4a5	-0.79621345
167	0xbf4702bf	-0.77738565
168	0xbf34908d	-0.70533067
169	0x3ea169cc	0.3152603
170	0xbeea979c	-0.45818794
171	0xbf324464	-0.69635606
172	0xbeab3edd	-0.33446398
173	0x3edf2a1a	0.43586808
174	0xbf1e86c3	-0.6192438
175	0xbf546ff0	-0.82983303
176	0xbf3ced8a	-0.73799956
177	0x3f18f623	0.59750575
178	0xbefce6d6	-0.49394864
179	0xbf19c304	-0.60063195
180	0x3ecc55f6	0.39909333
181	0x3e8d424e	0.2758965
182	0x3ebc4264	0.36769402
183	0x3ee56c88	0.44809365
184	0x3f1d602e	0.61474884
185	0x3df059d7	0.117358856
186	0x3efd6313	0.4948965
187	0x3ec54ede	0.38536733
188	0x3e8979c0	0.268507
189	0x3f109fcd	0.56493837
190	0x3eea5e22	0.45774943
191	0x3e172e19	0.14763679
192	0xbe9981bc	-0.29981792
193	0x3da3c4c7	0.07996517
194	0xbf2420f7	-0.641128
195	0xbf474d0c	-0.7785194
196	0xbf3b3de7	-0.7314133
197	0x3d2da6fc	0.042395577
198	0xbf46e41e	-0.7769183
199	0xbf01b725	-0.5067008
200	0xbe97a715	-0.2961966
201	0x3d050618	0.032476515
202	0xbec48f5f	-0.38390633
203	0xbf28eee1	-0.659895
204	0x3eafce4d	0.34337083
205	0x3f416403	0.7554323
206	0xbf02c6f0	-0.51084805
207	0xbf52d4e1	-0.8235608
208	0xbe59bf49	-0.21264376
209	0xbf1f4441	-0.6221352
210	0x3f4d8242	0.8027688
211	0x3f19d6e1	0.60093504
212	0x3edf04cd	0.4355835
213	0xbe706120	-0.2347455
214	0x3eca33c5	0.39492622
215	0x3f3b8d73	0.7326271
216	0x3f2afa58	0.66788244
217	0x3e693df9	0.22777547
218	0xbf4db7ed	-0.80358773
219	0xbf3e26ef	-0.7427816
220	0x3e127f77	0.14306436
221	0x3f42fde3	0.7616865
222	0xbec4d2e0	-0.38442135
223	0xbf316488	-0.69294024
224	0x3dc2aeb2	0.09505977
225	0xbf030d18	-0.51191854
226	0x3a51a420	0.0007997174
227	0x3ec45fde	0.3835439
228	0x3f3bfaf6	0.7342981
229	0x3f282ab9	0.6569019
230	0xbf12b266	-0.57303464
231	0xbedcd1a0	-0.4312868
232	0xbd238394	-0.039920405
233	0xbebf9ead	-0.37425748
234	0x3ec4aa23	0.38411054
235	0x3ef36442	0.47537428
236	0x3dd15c10	0.10222638
237	0xbf483baf	-0.7821607
238	0x3efb3254	0.49061835
239	0x3f29469c	0.66123366
240	0x3e9e80a1	0.3095751
241	0x3f1f6a52	0.62271607
242	0x3d21c191	0.03949124
243	0xbedaa2a5	-0.42702213
244	0xbccd46a0	-0.02505809
245	0xbe587d6a	-0.21141592
246	0x3e8b1771	0.27166322
247	0x3ed9d386	0.42544192
248	0xbe76402c	-0.24047917
249	0xbec59ba3	-0.38595304
250	0x3efc117a	0.49232084
251	0x3f3a0584	0.72664666
252	0xbee3bd5c	-0.44480407
253	0x3ec5b2fc	0.38613117
254	0xbf1db621	-0.6160603
255	0xbf3ac70b	-0.72959965

bias f4 [64]
0	0xbeb22702	-0.34795386
1	0x3e3e3a02	0.18576816
2	0xbdd535b8	-0.10410637
3	0xbe18aa6c	-0.14908761
4	0xbe59e3de	-0.2127833
5	0x3dea991a	0.11454983
6	0xbcba3802	-0.022731785
7	0xbe838789	-0.25689343
8	0x3e9bda54	0.3044001
9	0xbd859ab6	-0.065236494
10	0xbea67bec	-0.3251642
11	0xbe713eba	-0.23559085
12	0xbe5c2084	-0.21496779
13	0xbe8e55e5	-0.27799907
14	0x3d3a2ffd	0.04545592
15	0x3e978f15	0.2960135
16	0x3ee79052	0.45227295
17	0x3e47140e	0.19441244
18	0xbe55aa81	-0.20865823
19	0xbefdb360	-0.49550915
20	0x3df8ad4d	0.121424295
21	0xbe39dd1a	-0.1815075
22	0x3e70f043	0.23529153
23	0xbdbabd76	-0.09118168
24	0xbe02bac7	-0.12766562
25	0xbe58bf93	-0.2116683
26	0xbefda66b	-0.4954103
27	0xbd80bc84	-0.062859565
28	0xbdeb99cd	-0.115039445
29	0xbd97f598	-0.0741989
30	0x3ebd5448	0.36978364
31	0x3f0730eb	0.5280902
32	0x3f01c3a8	0.5068917
33	0x3ec1b56e	0.37833732
34	0x3e520111	0.2050822
35	0x3e641f98	0.22277677
36	0x3f04e778	0.51915693
37	0xbe160527	-0.14650403
38	0xbe3e21b2	-0.18567541
39	0xbecfc7b0	-0.40582037
40	0x3e2d73d9	0.16938724
41	0xbe71074a	-0.23537937
42	0xbd97d55a	-0.074137405
43	0xbddedafe	-0.10881613
44	0xbdb3944f	-0.08768522
45	0x3e954920	0.29157352
46	0x3ee22189	0.4416621
47	0x3eac0ad5	0.33602014
48	0xbec8e57e	-0.3923759
49	0xbe8b833b	-0.27248558
50	0xbeb3ac58	-0.35092425
51	0xbe27361c	-0.16329235
52	0xbe7aa723	-0.2447782
53	0xbd5972a7	-0.053087857
54	0xbea14106	-0.3149492
55	0xbe1b193f	-0.1514635
56	0xbe62328c	-0.22089595
57	0xbf21a54d	-0.63142854
58	0xbeff3865	-0.49847713
59	0x3d2a6358	0.041598648
60	0xbef68396	-0.48147267
61	0x3ecce4f6	0.40018433
62	0xbe8490b0	-0.25891638
63	0xbdebb4e0	-0.115091085

weight f4 [64, 64]
0	0x3ef684ed	0.4814829
1	0xbcb66a10	-0.022267371
2	0x3f06a0f5	0.5258935
3	0x3f426371	0.75932986
4	0x3f42caeb	0.7609088
5	0xbf2eebeb	-0.6832873
6	0xbe94a143	-0.29029283
7	0xbe39e133	-0.18152313
8	0x3e1b0d6f	0.15141843
9	0x3e0ae777	0.1356486
10	0x3ed71076	0.42004746
11	0x3eccf865	0.4003326
12	0x3f3cde3c	0.737766
13	0x3e871e3b	0.26390252
14	0xbea35679	-0.3190191
15	0xbca1c00c	-0.019744895
16	0xbe9c0990	-0.30476046
17	0xbea68333	-0.32521972
18	0x3ea42e38	0.32066512
19	0x3f06c221	0.5263997
20	0xbf3361dc	-0.70071197
21	0xbea94344	-0.33059132
22	0xbf1e48aa	-0.61829627
23	0x3ea15f76	0.31518143
24	0x3eb900eb	0.36133513
25	0xbed82da6	-0.42222327
26	0x3ee9ab17	0.45638344
27	0x3ef5e8d4	0.48029196
28	0xbed1f0a4	-0.41003907
29	0x3ec33e92	0.38133675
30	0xbe579924	-0.21054512
31	0xbf1b23a8	-0.6060128
32	0xbf1466f3	-0.5796959
33	0xbe1bf4a4	-0.15230042
34	0xbef007b4	-0.46880877
35	0xbe8c9434	-0.2745682
36	0xbe02bbfb	-0.12767021
37	0x3bf0a8f4	0.0073443595
38	0xbe8e2905	-0.2776567
39	0xbcdcf3b8	-0.026971683
40	0x3ef559aa	0.4791997
41	0x3f2aa237	0.6665377
42	0xbdeb638b	-0.11493596
43	0x3f0cf184	0.55056024
44	0x3acb8ada	0.0015529052
45	0xbeac6fb5	-0.33678976
46	0x3db997f4	0.09062186
47	0x3e7083b9	0.23487748
48	0x3eb78ac6	0.35848063
49	0x3e19d687	0.15023242
50	0x3e831222	0.25599772
51	0x3f49d85c	0.78845763
52	0xbf3045f0	-0.68856716
53	0xbcba117e	-0.022713419
54	0x3ef64095	0.48096147
55	0x3f0c4eb4	0.5480759
56	0xbed4c027	-0.4155285
57	0x3f224202	0.6338197
58	0xbce7d0c0	-0.028297782
59	0xbf10fa78	-0.56632185
60	0x3ee855ef	0.45378062
61	0x3e77e521	0.242085
62	0xbf096d2b	-0.536822
63	0x3ed541cf	0.4165177
64	0x3f290643	0.6602518
65	0xbe825f85	-0.254635
66	0x3edf4ae7	0.43611833
67	0x3f069135	0.5256532
68	0x3f1ed0b9	0.62037235
69	0xbf266e00	-0.65011597
70	0x3d994f7a	0.07485862
71	0x3eb82651	0.35966733
72	0xbe96a2ac	-0.29420984
73	0xbed6b0b8	-0.419317
74	0x3f081924	0.5316336
75	0x3ee926f2	0.45537525
76	0x3f182622	0.59433186
77	0x3e5d4b14	0.21610671
78	0xbf147592	-0.579919
79	0xbea3557b	-0.31901154
80	0xbf1537f5	-0.5828851
81	0xbeba239e	-0.363553
82	0x3f27e26e	0.6557988
83	0x3ea0ef3d	0.31432524
84	0xbf3a1351	-0.72685724
85	0xbe7dad90	-0.2477324
86	0xbf4120c1	-0.75440603
87	0x3f0a98f5	0.54139644
88	0x3f3524d3	0.70759314
89	0xbe50c874	-0.20388967
90	0x3e9c10ca	0.3048156
91	0x3f237f8e	0.6386651
92	0xbf4233a1	-0.7586003
93	0x3f17f0f8	0.59352064
94	0xbf070169	-0.52736527
95	0xbed0bac9	-0.40767506
96	0xbf1ba63a	-0.60800517
97	0xbeaa6892	-0.33282906
98	0xbf1fc2ab	-0.62406415
99	0xbeb2d9aa	-0.3493169
100	0xbe6d36b7	-0.23165403
101	0x3e1de1d7	0.15418182
102	0xbead2d95	-0.3382384
103	0xbc232bd3	-0.009959179
104	0x3f0ef185	0.5583728
105	0x3ec8a02a	0.39184695
106	0x3e2263e6	0.1585842
107	0x3f1f7a53	0.62296027
108	0x3eb23c20	0.34811497
109	0xbd917479	-0.071022935
110	0xbedd3661	-0.4320555
111	0x3ec4621c	0.38356102
112	0x3ebfdbb9	0.37472323
113	0x3e91e7b8	0.284971
114	0x3f036338	0.5132327
115	0x3f317c3b	0.69330186
116	0xbeda389a	-0.4262131
117	0xbece1368	-0.4024918
118	0x3f27c0f8	0.6552882
119	0x3eda0bbd	0.4258708
120	0xbe3061e0	-0.17224836
121	0x3f281812	0.6566173
122	0x3d937cc8	0.072015345
123	0xbf410d7e	-0.7541121
124	0x3ea2127c	0.31654727
125	0x3e0dec19	0.13859595
126	0xbf214035	-0.629886
127	0x3f213a10	0.6297922
128	0xbf49b675	-0.7879403
129	0x3e2aab2e	0.16666862
130	0xbf13b0d1	-0.57691675
131	0xbf2da6b8	-0.6783252
132	0xbf4bc2ea	-0.7959429
133	0x3f32a39c	0.697809
134	0x3e313257	0.1730436
135	0x3cd673be	0.026178237
136	0x3f1eca44	0.6202738
137	0x3e2e37f6	0.17013535
138	0xbe94ebe4	-0.2908622
139	0xbf505b82	-0.8138963
140	0xbf411436	-0.75421464
141	0xbf1b66c8	-0.60703707
142	0x3efcbaf5	0.49361387
143	0x3e1e673b	0.15469067
144	0x3ef51954	0.47870886
145	0x3ec5083e	0.3848285
146	0xbec8416b	-0.3911241
147	0xbf0f91da	-0.56081927
148	0x3f2fd76b	0.68688077
149	0x3e210360	0.15723944
150	0x3f0d5248	0.55203676
151	0xbf27b5c3	-0.6551172
152	0xbf1bc385	-0.60845214
153	0x3e390f18	0.18072164
154	0xbebb564e	-0.36589283
155	0xbee30da2	-0.4434634
156	0x3ebce883	0.36896142
157	0xbe95989f	-0.29218003
158	0x3ef6e8a9	0.4822438
159	0x3f2deaba	0.6793629
160	0x3f383b60	0.719656
161	0x3f1bb78a	0.60826933
162	0x3ebcd408	0.36880517
163	0x3ef45f0b	0.47728762
164	0x3ee7720c	0.45204198
165	0x3e1dc270	0.15406203
166	0x3e9a296c	0.30109727
167	0xbd8e1535	-0.06937639
168	0xbecf7896	-0.40521687
169	0xbefc8021	-0.49316505
170	0xbe2db508	-0.16963589
171	0xbf335c00	-0.70062256
172	0xbe9dcc08	-0.30819726
173	0x3d0e0534	0.03467293
174	0x3ea104d8	0.31449008
175	0xbf04404c	-0.5166061
176	0xbe9661dc	-0.29371536
177	0xbe86a850	-0.26300287
178	0xbe79d60d	-0.2439806
179	0xbf098031	-0.5371123
180	0x3f263e94	0.64939237
181	0xbbf9eb67	-0.007626939
182	0xbf16e5ec	-0.5894458
183	0xbf3dcbc0	-0.7413902
184	0x3e85268b	0.26005968
185	0xbf13f1de	-0.57790935
186	0xbd8e32ed	-0.06943307
187	0x3f2a4f04	0.6652682
188	0xbf322f8b	-0.69603795
189	0x3d143b44	0.036189333
190	0x3f3b7a88	0.7323384
191	0xbed7c4d2	-0.4214235
192	0x3f09e23d	0.5386084
193	0xbe88d412	-0.26724297
194	0x3f001a5f	0.5004024
195	0x3f218137	0.6308779
196	0x3e944cba	0.28964788
197	0xbeecae2f	-0.46226642
198	0xbdb257ef	-0.08708178
199	0x3e602907	0.2189065
200	0xbea92c89	-0.3304179
201	0xbeda259e	-0.42606825
202	0x3ed4d250	0.41566706
203	0x3f204422	0.6260396
204	0x3ed52d7a	0.41636258
205	0x3ef7720e	0.48329204
206	0xbf0b40dd	-0.5439585
207	0xbe8775e6	-0.26457137
208	0xbec2d121	-0.38050178
209	0xbf184918	-0.5948653
210	0x3ef48a47	0.47761747
211	0x3ed4af34	0.4153992
212	0xbf490b34	-0.7853272
213	0xbf0b595a	-0.54433215
214	0xbf36463e	-0.7120093
215	0x3f2b9f2a	0.6703974
216	0x3f138328	0.57622004
217	0x3dfb1624	0.12260082
218	0x3f338607	0.70126384
219	0x3f1bf65e	0.609228
220	0xbddec4c1	-0.108773716
221	0x3f34639a	0.7046448
222	0xbf0753c9	-0.5286222
223	0xbf0ee58b	-0.55819005
224	0xbeef713c	-0.46766078
225	0xbf1de0b1	-0.61670977
226	0xbf34e39c	-0.70659804
227	0xbebddb21	-0.37081245
228	0xbf1e8f12	-0.6193706
229	0x3eb17ace	0.34664005
230	0x3de49b16	0.11162393
231	0x3ea524c6	0.32254618
232	0x3d480b0a	0.048838653
233	0x3f4a96f7	0.79136604
234	0x3ed627e3	0.41827306
235	0x3f160f83	0.5861742
236	0x3f0ddf83	0.55419177
237	0xbeaa7780	-0.33294296
238	0xbe9e6724	-0.30938065
239	0xbe826351	-0.25466397
240	0x3ed25288	0.4107859
241	0x3f221339	0.6331058
242	0x3eb090ea	0.3448556
243	0x3f092200	0.53567505
244	0xbe0646bd	-0.13112922
245	0xbe9013a2	-0.2813998
246	0x3ed42c33	0.4143997
247	0x3f07b9db	0.5301797
248	0x3eef70d2	0.46765763
249	0x3ef1c684	0.47221768
250	0x3eddf5e1	0.43351653
251	0xbed0fe64	-0.40819085
252	0x3ef7d6c3	0.48406038
253	0xbee600f1	-0.44922593
254	0xbe8881c4	-0.26661503
255	0x3f1c2c96	0.6100553

bias f4 [64]
0	0xbd3c0411	-0.045902316
1	0x3d322c21	0.043499116
2	0x3da059b9	0.07829613
3	0x3dfae12d	0.1224998
4	0x3e145517	0.14485584
5	0xbf11a787	-0.5689625
6	0x3ed7d234	0.4215256
7	0x3ea26ff5	0.3172604
8	0xbec03e86	-0.37547702
9	0xbecfa907	-0.40558645
10	0x3e982b82	0.29720694
11	0xbe8c34d3	-0.27384052
12	0x3e0354eb	0.12825362
13	0xbc7a354a	-0.015271494
14	0xbe70bae3	-0.23508792
15	0x3e8696d2	0.26286942
16	0x3ca09fc8	0.01960744
17	0x3caf3b94	0.021390714
18	0x3ef61eae	0.48070282
19	0xbe77fae7	-0.24216805
20	0xbeb2e429	-0.34939697
21	0xbd828898	-0.063737094
22	0x3ee7dfd7	0.45287964
23	0xbdc2872c	-0.09498438
24	0xbe9acf66	-0.30236357
25	0xbeb3377d	-0.35003272
26	0xbe4b7f20	-0.19872713
27	0xbeaafafa	-0.33394605
28	0xbe8e90ee	-0.27844948
29	0x3d9d28dc	0.07673809
30	0x3eb7ec93	0.3592268
31	0xbd48fe27	-0.049070504
32	0xbf00e1cb	-0.5034453
33	0xbecaff8c	-0.39648092
34	0xbece8f9a	-0.40343934
35	0x3e3b0a01	0.18265535
36	0x3eb6aa62	0.35676867
37	0x3e93b00e	0.28845257
38	0xbf0af38a	-0.5427786
39	0xbdd54dd0	-0.10415232
40	0xbeb16fe2	-0.34655672
41	0xbf09be26	-0.5380577
42	0xbeb930ed	-0.3617014
43	0x3de92caa	0.11385472
44	0x3eca3a90	0.39497805
45	0x3e8175c9	0.25285175
46	0x3ea0b41d	0.31387416
47	0xbe5f23b2	-0.2179096
48	0xbe4ede38	-0.20201957
49	0x3dce2ace	0.10066758
50	0x3ec761f3	0.38941917
51	0xbe26b0c8	-0.16278374
52	0xbed01c5e	-0.40646642
53	0xbe6abcea	-0.22923627
54	0xbe1ee62c	-0.15517491
55	0x3ea5e3ab	0.3240026
56	0x3e5cea8d	0.21573849
57	0xbf2fa127	-0.68605274
58	0xbd9dfe70	-0.07714546
59	0xbe23bc6b	-0.15989845
60	0x3d80ff01	0.06298638
61	0xbed6d885	-0.41962066
62	0xbeaeffbe	-0.3417949
63	0x3eb4a631	0.35283044

weight f4 [2, 64]
0	0x3e969450	0.29410028
1	0x3df3ce4a	0.11904581
2	0xbed1af7b	-0.40954193
3	0x3ef61dd1	0.48069623
4	0x3ee109fe	0.43952936
5	0x3e5dfa3b	0.21677487
6	0x3f511934	0.8167908
7	0x3f28974f	0.6585588
8	0xbf2469d4	-0.6422398
9	0xbf21b941	-0.631733
10	0xbf0b52c9	-0.54423195
11	0xbf28db14	-0.65959287
12	0x3e84617c	0.25855625
13	0xbf0f4624	-0.559664
14	0xbf10b4e4	-0.5652602
15	0x3f1f82fc	0.6230924
16	0xbeaf513c	-0.34241664
17	0xbee3508a	-0.44397384
18	0x3edbbf98	0.42919612
19	0xbd48aa7e	-0.04899072
20	0x3edda05e	0.43286413
21	0xbf0df4ef	-0.55451864
22	0xbecb6d5c	-0.39731872
23	0x3ec64859	0.38727072
24	0xbf4f1f08	-0.80906725
25	0xbeb3ba66	-0.35103148
26	0xbf01e9c3	-0.5074732
27	0x3e7697e5	0.2408138
28	0x3ec6f8da	0.38861734
29	0xbf178e79	-0.5920177
30	0xbe05d4fc	-0.13069528
31	0xbeba8fb5	-0.36437765
32	0x3e8d9fe7	0.27661058
33	0x3ea33f4c	0.3188423
34	0x3e51637e	0.2044811
35	0xbf06e0af	-0.5268659
36	0xbe946361	-0.2898207
37	0x3ed80f9e	0.42199415
38	0xbc7c8f06	-0.015414959
39	0x3ebf2a53	0.37336978
40	0x3e899e84	0.2687875
41	0x3eb64d65	0.35605922
42	0xbd9956dd	-0.07487271
43	0xbf014b60	-0.5050564
44	0xbdf26033	-0.11834755
45	0xbe989a6a	-0.2980531
46	0x3f32b0e4	0.69801164
47	0xbf1746df	-0.59092516
48	0xbf50272e	-0.81309783
49	0x3f1afb5c	0.60539794
50	0x3f370035	0.7148469
51	0x3e90f2c1	0.28310207
52	0x3ea85d3a	0.32883626
53	0xbe0ab450	-0.13545346
54	0xbf20c6d9	-0.6280342
55	0xbf043763	-0.51647013
56	0x3f5472e1	0.8298779
57	0x3eef8257	0.4677913
58	0xbf2b369f	-0.6688022
59	0xbef5f750	-0.48040247
60	0xbf182a86	-0.59439886
61	0x3ec08ec7	0.3760893
62	0xbf04eddb	-0.5192544
63	0xbe4c94ff	-0.19978712
64	0xbf49c3c3	-0.78814334
65	0xbf323ae5	-0.69621116
66	0x3f63f3fe	0.8904418
67	0xbf040659	-0.51572186
68	0xbf0a2910	-0.53968906
69	0xbe9387ba	-0.2881449
70	0xbe85638a	-0.26052505
71	0xbc8107a6	-0.015750717
72	0x3e07e33c	0.13270277
73	0x3f09c401	0.53814703
74	0x3d8534ef	0.06504237
75	0x3efa6a5b	0.48909268
76	0xbf0bc186	-0.5459217
77	0x3f295876	0.66150606
78	0x3eb73a43	0.35786638
79	0xbe9fb7ed	-0.31195012
80	0x3d7385e7	0.05945387
81	0x3f4b1e3e	0.7934302
82	0xbd105586	-0.03523781
83	0x3e9a4d10	0.3013692
84	0x3e79eb9b	0.24406283
85	0x3f256813	0.6461193
86	0x3e97a575	0.2961842
87	0xbf391d60	-0.7231045
88	0x3f308b4b	0.68962544
89	0x3d888a7b	0.06667038
90	0x3ee3f7ce	0.44524997
91	0xbe0ae344	-0.13563257
92	0xbed5fa12	-0.4179235
93	0xbc8e8741	-0.017398478
94	0x3e158256	0.146005
95	0x3f2d4a18	0.67691183
96	0xbe8fa4a4	-0.28055298
97	0x3d4bf70a	0.04979614
98	0x3ecd2575	0.4006764
99	0x3ed19c1c	0.40939415
100	0x3ea8992d	0.32929364
101	0xbf072d5c	-0.5280359
102	0xbe1972fc	-0.1498527
103	0xbf159492	-0.58429825
104	0xbea23b2b	-0.31685767
105	0xbf0d4754	-0.55186963
106	0xbd580fe0	-0.052749515
107	0x3f2ca092	0.6743251
108	0x3d1c4d79	0.03815982
109	0x3e2fcc11	0.17167689
110	0xbcb53d8a	-0.02212407
111	0x3d103042	0.035202272
112	0x3f20e0f1	0.62843233
113	0xbda28836	-0.079361364
114	0xbdb215f8	-0.086955965
115	0xbf424efd	-0.75901777
116	0xbe1b55ef	-0.151695
117	0x3dfab255	0.122410454
118	0x3e47f0ac	0.19525403
119	0x3e0b1a7e	0.13584325
120	0xbe14af9e	-0.14520118
121	0xbf15fef9	-0.5859218
122	0x3e94846f	0.2900729
123	0xbbe14731	-0.0068749418
124	0x3eae0da8	0.33994794
125	0xbea08103	-0.31348428
126	0x3df03066	0.11727981
127	0x3e8a8bd1	0.27059796

bias f4 [2]
0	0x3eb1c06b	0.34717116
1	0xbe2ab5a7	-0.16670857

exp_avg f4 [64, 4]
0	0xbe59af2f	-0.21258233
1	0x3e42253f	0.18959521
2	0x3f868ded	1.0512062
3	0x40164deb	2.3485057
4	0xbeeb5cf0	-0.45969343
5	0xbe7c4060	-0.24633932
6	0xbf4149f0	-0.75503445
7	0xc003be8c	-2.058505
8	0x3c2864ef	0.010277971
9	0xba59058c	-0.00082787196
10	0x3f9d493f	1.2287978
11	0x404af08d	3.170932
12	0x3d010fbd	0.03150915
13	0xbe868e49	-0.2628043
14	0x3fc63818	1.5485868
15	0x408f6dfc	4.482176
16	0xbed1a481	-0.4094582
17	0x3c6b6dcb	0.014369438
18	0x3f5c2e9a	0.8600861
19	0x4005afc7	2.0888536
20	0x3effadf1	0.49937394
21	0x3ddf3a08	0.108997405
22	0xbf3430c6	-0.7038692
23	0xbfead2c0	-1.8345566
24	0xbd6f3d2b	-0.058407944
25	0xbf6d9178	-0.9280009
26	0xbeb43100	-0.35193634
27	0xbd663b2b	-0.05620877
28	0x3e84424b	0.25831828
29	0x3ed71083	0.42004785
30	0x3f082374	0.531791
31	0x3f5bf884	0.8592608
32	0xbce97ca3	-0.028501814
33	0x3db97d36	0.09057085
34	0xbf62b7f1	-0.8856192
35	0xc014296d	-2.3150284
36	0xbeacafcb	-0.3372787
37	0xbd0e6788	-0.034766704
38	0xbf4fc804	-0.81164575
39	0xc015491f	-2.332588
40	0xbe28534d	-0.16438027
41	0x3eafdcd2	0.3434816
42	0x3f565e9e	0.83738124
43	0x3fb462bb	1.409263
44	0xbeb29a1a	-0.34883195
45	0x3d0e5edd	0.034758437
46	0x3f7eb047	0.9948773
47	0x40155f3e	2.3339381
48	0xbdf69254	-0.120396286
49	0xbdce7b6c	-0.100821346
50	0x3fa7a910	1.3098469
51	0x406070c4	3.5068827
52	0x3daf9d87	0.08574968
53	0x3ea7f4e6	0.3280403
54	0x3f852c0f	1.0404071
55	0x40196976	2.3970618
56	0xbe368e04	-0.17827612
57	0x3d562a26	0.05228629
58	0xbfa40447	-1.2813805
59	0xc06defcf	-3.7177618
60	0xbe7816c2	-0.24227431
61	0xbede1a62	-0.43379503
62	0xbf19684b	-0.59924763
63	0xbfa13f2b	-1.2597402
64	0xbd407fe1	-0.046996955
65	0xbee0202a	-0.4377454
66	0xbf83c1e3	-1.0293545
67	0xc00fcad6	-2.2467551
68	0x3d3e1958	0.04641089
69	0x3e401b62	0.18760446
70	0xbf4515de	-0.7698649
71	0xc0083854	-2.128438
72	0xbeedca58	-0.4644344
73	0xbe0c7c56	-0.13719305
74	0x3f45e49c	0.77301955
75	0x4003f450	2.0617867
76	0xbe0b2a2f	-0.1359031
77	0x3ef3cc53	0.47616825
78	0x3f31ff27	0.69529957
79	0x3f822662	1.0167964
80	0xbe1eb9b5	-0.15500529
81	0x3d9cd11d	0.07657073
82	0xbfd4075d	-1.6564747
83	0xc097f542	-4.7486887
84	0xbeb44301	-0.3520737
85	0x3e0ae057	0.13562141
86	0xbf9808e9	-1.1877719
87	0xc06ec418	-3.7307186
88	0x3f0ae4f5	0.5425561
89	0x3e1a9593	0.1509612
90	0xbf69a96d	-0.9127415
91	0xc00fad3c	-2.2449484
92	0x3d9041ec	0.070438236
93	0x3c63b70c	0.013898622
94	0x3fa27916	1.2693202
95	0x4051ba5e	3.277
96	0xbcd81e75	-0.02638171
97	0xbe9c927a	-0.30580503
98	0x3fc2b220	1.521061
99	0x4090c9ac	4.524618
100	0x3e87d89b	0.26532444
101	0x3e91e7ad	0.28497067
102	0x3e611cdb	0.21983664
103	0x3e736faa	0.23773065
104	0x3eac674b	0.33672556
105	0x3f4fd649	0.8118635
106	0x3f8392f0	1.0279217
107	0x400adc97	2.1697137
108	0x3ddb7e54	0.107174546
109	0xbe2a1068	-0.16607821
110	0x3fae2dec	1.3607764
111	0x4077c03f	3.8711088
112	0x3e907b93	0.2821928
113	0x3e5523c7	0.20814429
114	0xbe98f0ed	-0.29871312
115	0xbfa0947b	-1.2545313
116	0x3e85348c	0.26016653
117	0x3dd91d83	0.10601332
118	0x3fa09cea	1.2547886
119	0x405ba3c9	3.4318717
120	0xbe88dce4	-0.26731026
121	0xbf3c5048	-0.7356
122	0xbf51340d	-0.8172005
123	0xbfdefb79	-1.7420493
124	0x3f014da9	0.50509125
125	0xbd2ddac2	-0.04244495
126	0xbf61630f	-0.88041776
127	0xbfd800d9	-1.6875259
128	0x3ef0bf87	0.47021124
129	0xbd8dad0d	-0.069177724
130	0xbf9424ef	-1.1573771
131	0xc02207ac	-2.5317183
132	0x3e2da07d	0.16955753
133	0xbee1b3c9	-0.44082478
134	0xbf504844	-0.8136027
135	0xbf9410cc	-1.1567626
136	0x3dd0f673	0.102032565
137	0x3de7e29c	0.11322519
138	0xbf8bd9e2	-1.0925868
139	0xc035358a	-2.8313928
140	0xbe0dcc05	-0.13847359
141	0xbec69ce3	-0.3879157
142	0xbf7953b7	-0.97393364
143	0xc00f0cb2	-2.2351499
144	0xbee3d3ad	-0.44497433
145	0xbf45219e	-0.7700442
146	0xbf3d6205	-0.7397769
147	0xbfc3eb89	-1.5306255
148	0x3e91c22b	0.2846845
149	0x3e9e6009	0.30932644
150	0x3f2b45a7	0.66903156
151	0x3fd32d8d	1.6498276
152	0x3eb1aa9e	0.34700483
153	0x3d15ccce	0.03657227
154	0xbdbfd138	-0.09366077
155	0xbdfecef5	-0.12441818
156	0x3e515734	0.20443422
157	0x3eb25b85	0.3483545
158	0x3f0b7d97	0.5448851
159	0x3f80f241	1.007393
160	0xbea364bf	-0.319128
161	0xbea39875	-0.31952253
162	0x3e42b15f	0.19012974
163	0x3f7bc042	0.9834024
164	0xbc8bbc22	-0.017057482
165	0x3e5a1cea	0.21300092
166	0x3fa3c007	1.2792977
167	0x4048ae1a	3.1356263
168	0x3e40673e	0.18789384
169	0x3e746375	0.23866065
170	0x3f560f82	0.83617413
171	0x400433fc	2.0656729
172	0xba23563d	-0.0006230807
173	0xbe81e11d	-0.2536706
174	0x3f9a57fe	1.2058103
175	0x405c9b26	3.4469695
176	0x3e66671d	0.22500272
177	0x3d901347	0.07034927
178	0x3f729123	0.9475271
179	0x4029d5a2	2.653664
180	0xbe9cce5d	-0.30626193
181	0xbedbc51e	-0.42923826
182	0xbeb297b1	-0.34881356
183	0xbf349e71	-0.7055426
184	0xbe417a19	-0.18894233
185	0xbf1beb08	-0.60905504
186	0xbf3f86d0	-0.7481508
187	0xbfb5bcc5	-1.4198233
188	0xbeacbf41	-0.33739665
189	0xbe57618b	-0.21033303
190	0xbe5c7d1e	-0.21532103
191	0xbee5b537	-0.44864818
192	0x3e2d8328	0.16944563
193	0x3efe1025	0.49621692
194	0x3f86b8f6	1.0525196
195	0x40194d1e	2.3953319
196	0x3e8c4729	0.2739804
197	0x3f18a396	0.5962461
198	0x3f491c4f	0.7855882
199	0x3fca420e	1.5801408
200	0x3e035bb5	0.12827952
201	0x3ee75d8f	0.45188567
202	0x3f5a39e8	0.8524461
203	0x3fe306f2	1.7736495
204	0xbf10ecbd	-0.56611234
205	0xbe68cb48	-0.22733796
206	0x3f7ed5ff	0.9954528
207	0x402a56dc	2.6615515
208	0x3eacb037	0.3372819
209	0x3dc191dc	0.094516486
210	0xbea7c834	-0.3276993
211	0xbf821c39	-1.0164863
212	0xbea5e41c	-0.32400596
213	0xbce244a1	-0.027620615
214	0xbf49c48c	-0.7881553
215	0xc013dbf4	-2.3102999
216	0xbeaabac2	-0.3334561
217	0xbdc8ec0a	-0.09810646
218	0x3f93a1e4	1.153378
219	0x4037af1a	2.8700624
220	0xbef7a98e	-0.48371547
221	0xbd171510	-0.03688532
222	0x3f54221f	0.82864565
223	0x3ff42e48	1.9076624
224	0x3d15b43b	0.036548834
225	0x3eb6eb32	0.35726315
226	0x3e848624	0.2588359
227	0xbd8e16ce	-0.069379434
228	0xbec464d6	-0.38358182
229	0x3e841b1e	0.2580194
230	0x3f86dbdc	1.0535846
231	0x40045d04	2.0681772
232	0x3e3eeb88	0.18644536
233	0x3f2522cf	0.6450624
234	0x3e1e1ab1	0.1543987
235	0xbeaca331	-0.33718255
236	0x3f04f83b	0.5194127
237	0x3e968973	0.2940174
238	0xbf797942	-0.9745065
239	0xc031d262	-2.7784657
240	0xbe4632d9	-0.19355334
241	0x3e8ebae1	0.27876952
242	0x3f6c0b39	0.92204624
243	0x3fe19f92	1.7626822
244	0xb9544f4a	-0.00020247433
245	0x3d9faa99	0.07796211
246	0xbeee09ed	-0.46491948
247	0xbf9174a8	-1.1363726
248	0x3ec1013f	0.37696263
249	0x3e3d6fff	0.18499754
250	0xbee55763	-0.44793233
251	0xbfabb952	-1.341593
252	0xbce2ea32	-0.027699564
253	0xbef84222	-0.48487955
254	0x3fb3a653	1.4035133
255	0x408b25a0	4.348343

exp_avg_sq f4 [64, 4]
0	0x3b25f989	0.0025325736
1	0x3ca3772d	0.019954288
2	0x3cee07c5	0.02905644
3	0x3e3e5b8b	0.18589608
4	0x3c20864a	0.009797642
5	0x3beb9146	0.007188949
6	0x3c920e64	0.017829128
7	0x3e4141d6	0.1887277
8	0x3b1c13bd	0.0023815476
9	0x3d1395c2	0.036031492
10	0x3d2f83d5	0.042850334
11	0x3ece9242	0.4034596
12	0x3b5299c9	0.003213512
13	0x3da5251d	0.080637194
14	0x3d912968	0.07087976
15	0x3f65ba7b	0.8973767
16	0x3b9b96b6	0.0047481908
17	0x3c90fc68	0.017698482
18	0x3c9872a5	0.018609354
19	0x3e24ca38	0.16092765
20	0x3bdd9d6f	0.0067631523
21	0x3c9382e6	0.018006753
22	0x3c498f64	0.012302253
23	0x3e0918a8	0.13388312
24	0x3b1d8f64	0.0024041766
25	0x3cef0694	0.029177941
26	0x3b2f35db	0.0026734981
27	0x3c361328	0.011112966
28	0x3b5c32e7	0.0033599676
29	0x3be2c0b1	0.0069199433
30	0x3c06617a	0.008201951
31	0x3cdcac80	0.026937723
32	0x3afb14d5	0.0019155989
33	0x3cd08cd7	0.025457783
34	0x3cb11a92	0.021619115
35	0x3e52b25a	0.20575848
36	0x3bcc7912	0.0062400186
37	0x3c3ba7b0	0.011453554
38	0x3cade0aa	0.021225292
39	0x3e82a5a3	0.25516996
40	0x3b3c7e89	0.0028761944
41	0x3c359d7e	0.011084912
42	0x3c97c927	0.018528534
43	0x3d8383b0	0.06421602
44	0x3b73b0f7	0.0037184337
45	0x3ca67bde	0.020322736
46	0x3cd5fd5c	0.026121788
47	0x3e4a505e	0.1975722
48	0x3b0d1220	0.0021525696
49	0x3d3bdeda	0.045866825
50	0x3d43f974	0.04784532
51	0x3f0086e4	0.50205827
52	0x3b344822	0.0027508815
53	0x3c652ad7	0.013987265
54	0x3cf03d01	0.029325964
55	0x3e51f272	0.20502642
56	0x3bc6f31a	0.0060714604
57	0x3d009a99	0.031397436
58	0x3d518392	0.051150866
59	0x3f2442d2	0.6416446
60	0x3b7e082a	0.003876219
61	0x3bc9b5f1	0.0061557223
62	0x3c1d1961	0.00958857
63	0x3d56371a	0.052298643
64	0x3b36805d	0.0027847507
65	0x3c6ebf11	0.014571921
66	0x3ce120c2	0.02748144
67	0x3e2c20c5	0.16809376
68	0x3a6693d3	0.0008795831
69	0x3cb5aaf0	0.022176236
70	0x3c8b0349	0.01696934
71	0x3e3f80dc	0.187015
72	0x3bc4fa77	0.006011303
73	0x3cb2b766	0.021815967
74	0x3c7a0170	0.015259132
75	0x3e31eabf	0.17374705
76	0x3ab4e984	0.0013802503
77	0x3c098142	0.008392634
78	0x3c4ee48f	0.012627735
79	0x3d0beae0	0.03415954
80	0x3be06889	0.006848399
81	0x3d829d60	0.06377673
82	0x3dab0503	0.08350565
83	0x3f862750	1.0480747
84	0x3c418094	0.011810441
85	0x3ce12da0	0.027487576
86	0x3d3f4ba0	0.04670298
87	0x3f3056be	0.6888236
88	0x3c06f43a	0.008236939
89	0x3cc5f6cd	0.024165535
90	0x3cb01177	0.021492703
91	0x3e3d1d80	0.18468285
92	0x3b4f92c7	0.003167318
93	0x3d1e1d6a	0.03860227
94	0x3d3ab03e	0.045578234
95	0x3edaa058	0.42700458
96	0x3b4f6cdc	0.0031650579
97	0x3d946e2b	0.07247575
98	0x3d8eba2e	0.06969105
99	0x3f70c457	0.9404959
100	0x3b3628fd	0.0027795427
101	0x3b8ec4a3	0.004356937
102	0x3af30199	0.0018539905
103	0x3bd2674f	0.0064210068
104	0x3c1463ef	0.009057029
105	0x3c97b972	0.018521044
106	0x3cdc9702	0.026927475
107	0x3e1cdb82	0.1531811
108	0x3b6c11dd	0.003602139
109	0x3d5150a9	0.051102314
110	0x3d624f16	0.055251203
111	0x3f2a2335	0.6645997
112	0x3b6da4c0	0.0036261529
113	0x3c06bd96	0.008223912
114	0x3b53c1cc	0.0032311557
115	0x3dd82ff1	0.10556019
116	0x3bed9bfb	0.0072512603
117	0x3cdfd58f	0.027323512
118	0x3d402836	0.04691335
119	0x3f030e06	0.51193273
120	0x3be546d6	0.0069969697
121	0x3c60de7f	0.013724922
122	0x3c899639	0.016795265
123	0x3dd1386c	0.1021584
124	0x3c2750c7	0.01021213
125	0x3c8e2fdf	0.017356811
126	0x3ca16f75	0.019706467
127	0x3db14768	0.08656198
128	0x3c017fa9	0.007903972
129	0x3ce4d652	0.027934227
130	0x3d0fce83	0.035109054
131	0x3e5a1625	0.2129751
132	0x3b9b574d	0.0047406317
133	0x3c3e3ba0	0.011610895
134	0x3c8ece88	0.017432466
135	0x3d55f8d9	0.052239273
136	0x3aea6991	0.0017884244
137	0x3d12db9d	0.03585397
138	0x3d0848e1	0.033272628
139	0x3ea0b265	0.31386104
140	0x3b5f8c2e	0.0034110653
141	0x3c3d8acd	0.011568737
142	0x3cd432e8	0.02590318
143	0x3e39dbe7	0.18150292
144	0x3c39d968	0.011343338
145	0x3c7bf875	0.015379061
146	0x3c5e54a3	0.013569984
147	0x3d96d20b	0.07364281
148	0x3b95f57d	0.0045763836
149	0x3bac6ead	0.005262217
150	0x3c614c7a	0.013751144
151	0x3de4abf4	0.1116561
152	0x3b6dacc7	0.0036266313
153	0x3ada4d1b	0.0016655059
154	0x398e4af6	0.000271402
155	0x3a979744	0.0011565466
156	0x3b2a92d6	0.0026027462
157	0x3bb6e86f	0.0055819075
158	0x3c0d1496	0.008610865
159	0x3d15feb2	0.03661985
160	0x3b81ce33	0.0039613484
161	0x3c37c035	0.011215259
162	0x3acea035	0.0015764298
163	0x3d92e93c	0.07173392
164	0x3b2c896d	0.002632703
165	0x3ccfa71c	0.025348239
166	0x3d3822b4	0.04495497
167	0x3ec1a0da	0.37818033
168	0x3b5f6703	0.00340885
169	0x3c0ac079	0.008468741
170	0x3ca5d68e	0.02024391
171	0x3e2d6a6a	0.16935125
172	0x3af3f149	0.0018611337
173	0x3d4dc4f6	0.050236665
174	0x3d2dd216	0.04243668
175	0x3f03cbf7	0.514831
176	0x3baf75b1	0.005354606
177	0x3c557de8	0.013030507
178	0x3ce4211c	0.027847819
179	0x3ea2ce9d	0.31798258
180	0x3b8d4c25	0.0043120557
181	0x3bb1aa76	0.005421932
182	0x3b5d0ba4	0.0033728862
183	0x3c8edc1b	0.017438939
184	0x3b5b497e	0.0033460553
185	0x3c31cf63	0.0108526675
186	0x3c6969d4	0.014246423
187	0x3d703e6a	0.058653273
188	0x3b831637	0.004000451
189	0x3b1111c9	0.0022135845
190	0x3addd990	0.0016925801
191	0x3c147360	0.009060711
192	0x3b86e918	0.0041171424
193	0x3c6b0006	0.014343267
194	0x3cedc98c	0.02902677
195	0x3e4c2f5c	0.19939941
196	0x3ba5ee99	0.0050638434
197	0x3c337ebf	0.010955512
198	0x3c84b23d	0.016198272
199	0x3da0b8ca	0.07847746
200	0x3b37e74e	0.0028061452
201	0x3c1cd73d	0.009572801
202	0x3c9bdea9	0.019027071
203	0x3dceb1ea	0.10092528
204	0x3c11e97f	0.008905767
205	0x3cfc4856	0.030796211
206	0x3cddcddb	0.027075699
207	0x3e976011	0.2956548
208	0x3b6651c5	0.0035143953
209	0x3bca4098	0.006172251
210	0x3b40a9b5	0.0029398028
211	0x3d6697fa	0.05629728
212	0x3bd5f827	0.006529826
213	0x3c1d374e	0.009595705
214	0x3ca73d26	0.0204149
215	0x3e83538c	0.2564968
216	0x3b8692b4	0.004106844
217	0x3d1a82b1	0.037722293
218	0x3d1129cb	0.035440248
219	0x3e99ea61	0.3006163
220	0x3bd6b2ec	0.006552091
221	0x3c817cbb	0.015806546
222	0x3c917df1	0.017760249
223	0x3e064353	0.1311162
224	0x3a8c84a5	0.0010720683
225	0x3bdb2645	0.0066879117
226	0x3b2a1e46	0.0025957986
227	0x3d02ff8e	0.031981997
228	0x3ba169c4	0.0049259383
229	0x3c6b1e50	0.014350489
230	0x3cf04d63	0.029333776
231	0x3e0a61bd	0.13513847
232	0x3b0fa864	0.0021920437
233	0x3c89a3a2	0.016801659
234	0x3a9abd65	0.0011805712
235	0x3d18588d	0.037193824
236	0x3bff3c46	0.0077891676
237	0x3cfceb84	0.030874021
238	0x3cdffbd2	0.027341757
239	0x3eb306fb	0.34966263
240	0x3b4279d3	0.0029674664
241	0x3c5855d5	0.013204058
242	0x3cbb3508	0.022852436
243	0x3dce741d	0.100807406
244	0x3afc91bf	0.001926951
245	0x3c20b0d5	0.009807785
246	0x3bc022f1	0.0058635403
247	0x3d406ace	0.046976857
248	0x3b8d1bfc	0.0043063145
249	0x3c2f8a80	0.010714173
250	0x3bb682dc	0.005569799
251	0x3dbc2325	0.09186391
252	0x3b0087cf	0.0019612198
253	0x3db10945	0.08644346
254	0x3d76fa03	0.060297024
255	0x3f6470a0	0.8923435

exp_avg f4 [64]
0	0x40440ee0	3.063408
1	0xc03b25bf	-2.9241788
2	0x406d8456	3.7112021
3	0x403f2978	2.986906
4	0xbee2d8b5	-0.4430596
5	0x3fd7cad5	1.6858774
6	0x3f95719c	1.1675296
7	0x4066a7a5	3.6039822
8	0xc02513c5	-2.5793316
9	0xc04e06a6	-3.2191558
10	0x40770c0c	3.8601103
11	0x3f849f2b	1.0361074
12	0x400352a6	2.0519195
13	0x4053852a	3.3050027
14	0xc05b9c0e	-3.4313998
15	0xc012128c	-2.282382
16	0xc02f2030	-2.7363396
17	0xbfe7b12a	-1.8100941
18	0xbfa91423	-1.320927
19	0x40505878	3.2553997
20	0xbfe5a95d	-1.794231
21	0xc06b9fc4	-3.6816263
22	0xbea240ef	-0.31690165
23	0x4067f5f3	3.6243865
24	0x4013a280	2.3067932
25	0x403f9639	2.9935439
26	0x3feb6cf9	1.8392631
27	0x40620f76	3.5321937
28	0x404cf673	3.202542
29	0x4053e7c8	3.3110218
30	0xbf3d517d	-0.73952466
31	0xc0052015	-2.0800831
32	0xc04bd082	-3.1846013
33	0xc06db18f	-3.7139623
34	0xc02a0808	-2.6567402
35	0xc0431c8c	-3.0486174
36	0xbf86ea56	-1.0540264
37	0x404b9305	3.1808484
38	0x40000f01	2.0009158
39	0x40545c98	3.3181515
40	0xc0444427	-3.0666597
41	0x40195b10	2.396183
42	0x404a29b6	3.1587958
43	0x4042b1ac	3.0420942
44	0x404ebed8	3.2303982
45	0xbfae890f	-1.3635577
46	0xc02068d8	-2.5063992
47	0xc019c696	-2.4027457
48	0x401a02d7	2.4064233
49	0x402ea0df	2.7285688
50	0x403155ef	2.77087
51	0xbd535817	-0.05159768
52	0x4029e5f6	2.6546607
53	0xc04c5052	-3.1924024
54	0x402f878e	2.7426486
55	0x3e8c5a24	0.27412522
56	0x406e2f26	3.7216277
57	0x406aa695	3.6664174
58	0x3f9d68e1	1.2297632
59	0x3d7cc0ae	0.06170719
60	0x4068c3db	3.636954
61	0xbfb90586	-1.4454811
62	0x3ff57176	1.917525
63	0x401639c0	2.3472748

exp_avg_sq f4 [64]
0	0x3f512853	0.81702155
1	0x3f006af7	0.50163215
2	0x3f82d748	1.0221949
3	0x3f6afa64	0.91788316
4	0x3e09d2f2	0.13459376
5	0x3e035792	0.12826374
6	0x3d437d5c	0.047726974
7	0x3f32c0fa	0.6982571
8	0x3f0e744f	0.5564622
9	0x3f13afa7	0.576899
10	0x3f843e01	1.0331422
11	0x3e9942c2	0.29933745
12	0x3f1d57b6	0.6146196
13	0x3f5fa10e	0.87355125
14	0x3f5f0799	0.8712097
15	0x3ec00b3e	0.37508577
16	0x3f3ca856	0.7369436
17	0x3e9d7038	0.3074968
18	0x3e074377	0.1320933
19	0x3f41f2b1	0.7576094
20	0x3f294de7	0.66134495
21	0x3f618460	0.88092613
22	0x3e593990	0.21213365
23	0x3f83bc7b	1.0291895
24	0x3f39afd8	0.7253394
25	0x3ec602c6	0.3867399
26	0x3efe5715	0.49675813
27	0x3f7b844c	0.98248744
28	0x3ec2bc06	0.38034075
29	0x3f5b5b1c	0.85685897
30	0x3e49e25e	0.19715258
31	0x3efe9f2f	0.49730822
32	0x3f706f22	0.93919575
33	0x3f79c31e	0.9756335
34	0x3f2578d5	0.646375
35	0x3f3c89e6	0.73647916
36	0x3e6e4c20	0.23271227
37	0x3f0b82ff	0.5449676
38	0x3df57356	0.11984889
39	0x3f1a0ec7	0.601788
40	0x3eb85831	0.36004785
41	0x3f2fc418	0.6865859
42	0x3f2509a8	0.6446786
43	0x3f481ef5	0.78172237
44	0x3f2845df	0.65731615
45	0x3df9486b	0.12172016
46	0x3f094423	0.53619593
47	0x3e8555ca	0.26042014
48	0x3f216b34	0.63054204
49	0x3f139629	0.57651
50	0x3f2477f5	0.6424554
51	0x3e4f73b4	0.20258981
52	0x3e7fcf7a	0.2498149
53	0x3f0db0e6	0.5534805
54	0x3f46f715	0.7772077
55	0x3e27870d	0.16360112
56	0x3f35f1d4	0.71072125
57	0x3f86ce41	1.0531694
58	0x3e1fa113	0.15588789
59	0x3e458e13	0.19292478
60	0x3f6a22a2	0.91459095
61	0x3e416bf8	0.18888843
62	0x3e1dbecd	0.15404816
63	0x3f28fe07	0.66012615

exp_avg f4 [64, 64]
0	0xbe06141e	-0.13093612
1	0x3d347363	0.044055354
2	0xbe0ae3d5	-0.13563474
3	0xbe03e966	-0.12882003
4	0xbe3e04ef	-0.1855657
5	0x3e759092	0.2398093
6	0xbc5c6189	-0.013450989
7	0x3d95484d	0.07289181
8	0x3c005a4a	0.007834027
9	0x3c130899	0.008974218
10	0xbb492e68	-0.0030697826
11	0xbddfa7fe	-0.10920714
12	0xbde8eea2	-0.113736406
13	0xbded3ef8	-0.11584276
14	0x3e215822	0.15756276
15	0x3b245eda	0.002508095
16	0x3d9c3273	0.0762681
17	0x3d23e6e2	0.04001511
18	0xbe6721ce	-0.22571489
19	0xbbf36ff3	-0.007429117
20	0x3e332afa	0.17496863
21	0x3d8b9669	0.06815798
22	0x3e328cfc	0.17436594
23	0xbe11e4ae	-0.1424739
24	0xbd4af281	-0.049547676
25	0x3e03f409	0.12886061
26	0xbdced286	-0.10098748
27	0xbdf0cbd0	-0.11757624
28	0x3e6e2d48	0.23259461
29	0xbe11a262	-0.142221
30	0x3d325ea9	0.043547306
31	0x3da61ac6	0.081105754
32	0x3daafbc9	0.083488055
33	0x3cec109a	0.02881651
34	0x3d8d92cb	0.06912764
35	0x3d851eed	0.06500039
36	0x3d9a13be	0.07523297
37	0xbc31a2ee	-0.010842068
38	0x3d987078	0.07443327
39	0x3d958f0d	0.073026754
40	0xbe4306ae	-0.19045517
41	0xbe043c70	-0.1291368
42	0xbc60ada9	-0.013713279
43	0xbdb3c7e7	-0.08778363
44	0x3c2d016b	0.01055942
45	0x3d1ccdb6	0.03828212
46	0x3b67b366	0.0035354733
47	0xbd2b9eae	-0.041899376
48	0xbdc58302	-0.096441284
49	0xbd59dc03	-0.053188335
50	0xbd57d56a	-0.052693762
51	0xbe302c6d	-0.17204447
52	0x3e45dbc0	0.19322109
53	0x3b843ab9	0.0040353206
54	0xbdc8d665	-0.098065175
55	0xbd6b8652	-0.057501145
56	0x3de5650b	0.11200913
57	0xbdecf741	-0.115705974
58	0x3d826b8c	0.06368169
59	0x3d949314	0.072546154
60	0xbd320996	-0.043466173
61	0xbd1aba95	-0.037775595
62	0x3e116a86	0.14200792
63	0xbd29ae28	-0.041425854
64	0xbe28cc0e	-0.1648409
65	0x3d5a7343	0.05333258
66	0xbe27af36	-0.16375431
67	0xbdf6de8c	-0.12054166
68	0xbe1003bb	-0.14063923
69	0x3e400f2f	0.18755792
70	0xbcb210e2	-0.021736566
71	0xbbbd859e	-0.0057837507
72	0x3c98becc	0.018645667
73	0x3d74361e	0.059621923
74	0xbdc682dc	-0.09692928
75	0xbddce16a	-0.10785182
76	0xbdd458f4	-0.10368529
77	0xbe1016b0	-0.14071155
78	0x3e39b250	0.18134427
79	0x3cdc1ae3	0.02686829
80	0x3dd7b1ba	0.105319455
81	0x3d01b874	0.03167005
82	0xbe34f5bd	-0.17671867
83	0xbd809abd	-0.06279514
84	0x3e318ad5	0.17338116
85	0x3e0e3b53	0.13889818
86	0x3e27415d	0.16333528
87	0xbe3e9ce5	-0.18614538
88	0xbd390662	-0.045172103
89	0x3d73e27e	0.05954217
90	0xbdbf9753	-0.09355035
91	0xbe0ccdde	-0.13750407
92	0x3e35db36	0.17759404
93	0xbe2f1d2b	-0.1710097
94	0x3d37e9f1	0.04490084
95	0x3dcfb582	0.10142042
96	0x3ded2896	0.11580007
97	0x3dcb8723	0.09937885
98	0x3da00764	0.0781391
99	0x3dff8a83	0.12477591
100	0x3d6b0811	0.05738074
101	0xbca10133	-0.019653892
102	0x3d763605	0.06011011
103	0x3c896d28	0.016775683
104	0xbe05dec8	-0.13073266
105	0xbe0335da	-0.12813511
106	0xbd87db83	-0.066336654
107	0xbddc4885	-0.107560195
108	0xbcdf72bf	-0.027276395
109	0x3d301915	0.04299267
110	0x3cd85664	0.026408382
111	0xbcbc6c33	-0.023000812
112	0xbdbd4357	-0.0924136
113	0xbd97969e	-0.07401775
114	0xbd9de50d	-0.077097036
115	0xbe255ba8	-0.16148245
116	0x3e150ad3	0.1455491
117	0x3d466437	0.048435416
118	0xbdd38831	-0.10328711
119	0xbd747a4a	-0.059686936
120	0x3d5062de	0.050875537
121	0xbe270254	-0.16309482
122	0x3d008164	0.031373397
123	0x3d8a570d	0.06754885
124	0xbdee829c	-0.116460055
125	0xbcaf0238	-0.021363363
126	0x3dd1387b	0.10215851
127	0xbcedcfaa	-0.029029686
128	0x3e6983a7	0.22804128
129	0xbcac4103	-0.021027094
130	0x3e5aaf0d	0.21355839
131	0x3e6bfc93	0.23045568
132	0x3ea19c14	0.3156439
133	0xbed170f5	-0.40906492
134	0xbc242c57	-0.010020337
135	0xbdcbc0ec	-0.09948906
136	0xbd5920ec	-0.053009912
137	0x3d27793e	0.04088711
138	0x3da2f957	0.07957714
139	0x3e46d6d0	0.19417882
140	0x3e4a4546	0.19752988
141	0x3e505da0	0.20348215
142	0xbe77fe86	-0.24218187
143	0xbbfb0d6c	-0.007661512
144	0xbe3ba684	-0.1832524
145	0xbd702555	-0.058629353
146	0x3ed33d90	0.41257906
147	0x3d7bd36f	0.061480936
148	0xbe9b3d6a	-0.30320293
149	0xbde367e0	-0.11103797
150	0xbe9a4eb8	-0.30138183
151	0x3e77dc90	0.24205232
152	0x3db20673	0.08692636
153	0xbe455bab	-0.1927325
154	0x3e3be9f0	0.18350959
155	0x3e4b3542	0.19844535
156	0xbeb93d12	-0.36179405
157	0x3e5f5e12	0.21813229
158	0xbd7f7da7	-0.06237569
159	0xbe51fe16	-0.20507082
160	0xbe3fc6af	-0.18728136
161	0xbdd555b9	-0.10416741
162	0xbdd7f924	-0.10545567
163	0xbe0fff92	-0.14062336
164	0xbe213811	-0.15744044
165	0xbcfd4d83	-0.03092075
166	0xbe296671	-0.16542985
167	0xbda77927	-0.08177405
168	0x3e971271	0.29506257
169	0x3e44c4fb	0.19215767
170	0x3bf62419	0.0075116274
171	0x3e161eab	0.14660136
172	0xbd20d6f7	-0.039267506
173	0xbb1869d4	-0.0023256438
174	0xbd225652	-0.039633103
175	0x3d912278	0.070866525
176	0x3e1c2ca3	0.15251403
177	0x3d8958bf	0.0670638
178	0x3db99b9d	0.09062884
179	0x3e926210	0.2859044
180	0xbe915195	-0.28382555
181	0x3d213517	0.03935727
182	0x3e39a56a	0.18129507
183	0x3de38a41	0.11110354
184	0xbe1d365c	-0.15352768
185	0x3e873281	0.2640572
186	0xbd5a27be	-0.053260557
187	0xbdf47fee	-0.11938463
188	0x3e0bfebb	0.1367139
189	0x3cecd79b	0.028911402
190	0xbe4cd782	-0.20004085
191	0x3d856304	0.06513026
192	0xbe780e71	-0.24224259
193	0x3d8771d6	0.06613509
194	0xbe8d57f3	-0.27606162
195	0xbe953cbe	-0.29147905
196	0xbe5ad869	-0.21371616
197	0x3e83cbb3	0.25741348
198	0x3d039d51	0.03213245
199	0xbb0aa148	-0.002115326
200	0x3e0e935c	0.139234
201	0x3d8983b6	0.06714575
202	0xbe3f7eaa	-0.18700662
203	0xbe00d2ff	-0.12580489
204	0xbe4cde23	-0.20006613
205	0xbea03e9e	-0.31297773
206	0x3e96b36c	0.29433763
207	0x3de4f7dc	0.11180088
208	0x3e7ec8b8	0.24881256
209	0x3d687dba	0.056760527
210	0xbe9c989c	-0.30585182
211	0xbda81281	-0.08206654
212	0x3e96656d	0.29374257
213	0x3e9b3952	0.3031717
214	0x3e42b2ed	0.19013567
215	0xbe9dd71b	-0.30828175
216	0xbdee88c0	-0.11647177
217	0x3d1e11ea	0.038591303
218	0xbe56c3ec	-0.20973176
219	0xbe986f50	-0.29772425
220	0x3e2a24b1	0.16615559
221	0xbe8b173f	-0.27166173
222	0x3dacfd96	0.08446805
223	0x3e304122	0.17212346
224	0x3e1d6fc0	0.1537466
225	0x3e3d9ae2	0.18516114
226	0x3dae8e79	0.08523268
227	0x3e8c559e	0.2740907
228	0x3e4f2eac	0.20232648
229	0xbda8a0b1	-0.082337745
230	0x3d84940f	0.064735524
231	0xbbe47151	-0.006971516
232	0xbe0b7e82	-0.13622478
233	0xbe150b49	-0.14555086
234	0xbe32b0c8	-0.17450249
235	0xbe5fcd46	-0.2185565
236	0xbd73a365	-0.059481997
237	0x3c761640	0.015019953
238	0x3e0bef52	0.13665512
239	0x3d175de5	0.03695478
240	0xbe39485b	-0.18094008
241	0xbe2419db	-0.16025488
242	0xbe338af8	-0.17533481
243	0xbe27352c	-0.16328877
244	0x3e05aab1	0.13053395
245	0x3dbae59d	0.091258265
246	0xbe336742	-0.17519858
247	0xbd6ac5cb	-0.057317536
248	0xbbd4c1d2	-0.0064928317
249	0xbe6a4238	-0.22876823
250	0x3cac7b45	0.021054873
251	0x3d8fc4a0	0.07019925
252	0xbe2f85e1	-0.17140914
253	0x3cea91f5	0.02863405
254	0x3dd34525	0.10315923
255	0xbdcae41e	-0.09906791

exp_avg_sq f4 [64, 64]
0	0x3a82539a	0.0009943128
1	0x394d35a6	0.00019570309
2	0x3a781224	0.00094631524
3	0x3a4fc087	0.0007925112
4	0x3ab2b131	0.001363313
5	0x3b35af60	0.002772294
6	0x37416917	1.1528165e-05
7	0x39ae3852	0.00033229828
8	0x3781217d	1.5393593e-05
9	0x3a17a657	0.00057849794
10	0x39ff8d17	0.0004874251
11	0x3a669f26	0.00087975187
12	0x3a31ea76	0.00067869516
13	0x3a39670e	0.0007072546
14	0x3ab54585	0.0013829923
15	0x394015f8	0.00018318731
16	0x39e8a469	0.00044372983
17	0x384e2b98	4.9154827e-05
18	0x3b3d47ef	0.0028881987
19	0x39bf97c1	0.00036543424
20	0x3b0537a8	0.0020327363
21	0x3aa5cc5e	0.0012649407
22	0x3afb8e8b	0.0019192261
23	0x3aba26ea	0.0014202271
24	0x39888820	0.00026041362
25	0x3a38bafd	0.00070469064
26	0x3a161926	0.00057257933
27	0x3a71098a	0.0009194842
28	0x3b2c5624	0.002629646
29	0x3ab13f25	0.0013522847
30	0x39726d4a	0.00023119632
31	0x3a61855e	0.0008602942
32	0x3a374e20	0.00069925375
33	0x3a057405	0.00050908356
34	0x3989d44e	0.00026288856
35	0x3a37d83a	0.0007013116
36	0x39ab1fce	0.00032639358
37	0x3960f4a3	0.00021453439
38	0x3a38c487	0.0007048328
39	0x3946d6c4	0.00018962758
40	0x3ac29328	0.0014844881
41	0x3a7bc84e	0.0009604738
42	0x3a01b1ae	0.0004947436
43	0x3a13b62b	0.000563475
44	0x39997ac2	0.00029273896
45	0x3980b593	0.00024549346
46	0x390b291a	0.00013271385
47	0x39994ae6	0.00029238238
48	0x3a00b915	0.0004910392
49	0x39d932c5	0.00041427292
50	0x39a334c7	0.00031129105
51	0x3b02bf21	0.0019950347
52	0x3ac0e042	0.0014715272
53	0x3a0b0174	0.0005302646
54	0x39ad8d26	0.00033102295
55	0x3a0340da	0.0005006917
56	0x3a1d0c11	0.0005990873
57	0x3acfd5a9	0.0015856522
58	0x39418dd0	0.00018458744
59	0x3a0cbeee	0.0005369027
60	0x3a77abe5	0.00094479165
61	0x3884b2fc	6.327589e-05
62	0x3a2e4e09	0.00066492014
63	0x38ecb016	0.000112861555
64	0x3aca8094	0.0015449696
65	0x398e6598	0.00027160044
66	0x3adc9fbe	0.0016832275
67	0x3a7e9199	0.0009711027
68	0x3a41dfda	0.0007395722
69	0x3acc4bb4	0.0015586526
70	0x37884d39	1.6248423e-05
71	0x39ae7e00	0.00033281744
72	0x37d10a85	2.491964e-05
73	0x3a5dd13d	0.000846166
74	0x3ab2a1c9	0.0013628538
75	0x3a3a5aca	0.00071088655
76	0x3a2c8d86	0.0006582368
77	0x3aa32480	0.0012446791
78	0x3b11c593	0.0022243008
79	0x39578437	0.00020553252
80	0x3a37217b	0.0006985885
81	0x38133544	3.509714e-05
82	0x3adbd9d7	0.0016773295
83	0x3a27dadc	0.0006403157
84	0x3b0c2007	0.0021381394
85	0x3b381d24	0.002809354
86	0x3ac2be26	0.0014857694
87	0x3b2755c2	0.0025533293
88	0x3993fe52	0.00028227508
89	0x39842d2e	0.00025210663
90	0x3a0df922	0.0005415847
91	0x3ad47f21	0.0016212204
92	0x3ab0e1f1	0.001349507
93	0x3b10bd12	0.002208535
94	0x39849c16	0.00025293295
95	0x3a5bfb05	0.0008391592
96	0x3a63b20b	0.0008685893
97	0x3a9f305b	0.0012145148
98	0x39acf971	0.00032992245
99	0x3acd404f	0.0015659424
100	0x396e1cfc	0.00022708246
101	0x399366e0	0.00028114673
102	0x39a85426	0.00032106153
103	0x38d40e55	0.00010111617
104	0x3a22a9c8	0.0006205109
105	0x3a7f7602	0.00097450626
106	0x3a836a89	0.0010026257
107	0x3a841faa	0.0010080237
108	0x3a07aa83	0.00051752495
109	0x39a1d69f	0.00030868218
110	0x396da668	0.00022664072
111	0x38ac37e7	8.212012e-05
112	0x3a07a1d0	0.0005173953
113	0x3a42d8d3	0.0007432822
114	0x3a14cdd2	0.00056764216
115	0x3ac6d10c	0.0015168502
116	0x3a428328	0.00074200565
117	0x3a458f2f	0.00075362896
118	0x39d1fdd0	0.00040052691
119	0x39b52d1c	0.0003455662
120	0x394c6409	0.00019492222
121	0x3b0171ec	0.001975174
122	0x38f8806c	0.00011849482
123	0x39cdc087	0.0003924409
124	0x3ad4b9c9	0.0016229685
125	0x381ef489	3.7897877e-05
126	0x39a4a391	0.00031402384
127	0x38ec5e7d	0.00011270957
128	0x3b4569f8	0.0030122977
129	0x394d1118	0.00019556691
130	0x3b4167b4	0.0029511275
131	0x3b4c628b	0.0031186666
132	0x3b838abc	0.004014341
133	0x3bf8e6cf	0.007595874
134	0x38c36175	9.3164774e-05
135	0x3a1a381c	0.0005882995
136	0x395b16d7	0.00020893976
137	0x3a963088	0.0011458555
138	0x3b08d522	0.002087899
139	0x3b197e72	0.0023421315
140	0x3b0f133c	0.0021831533
141	0x3b19ba63	0.0023457042
142	0x3b7e41f8	0.0038796645
143	0x3943bf98	0.00018668023
144	0x3b0192be	0.0019771303
145	0x390d03a6	0.00013448167
146	0x3c0f30b9	0.008739644
147	0x3a8ab251	0.0010581707
148	0x3bc7db11	0.006099113
149	0x3b81312b	0.003942629
150	0x3ba687b9	0.0050820974
151	0x3b9991f4	0.0046865884
152	0x3a49d261	0.00076988904
153	0x3aba189a	0.0014198006
154	0x3ae4a10f	0.0017443019
155	0x3b54f605	0.0032495272
156	0x3bbd74a1	0.0057817255
157	0x3b6f6ab5	0.0036532108
158	0x39d2448e	0.00040105399
159	0x3b54c23d	0.0032464408
160	0x3b1d5613	0.0024007603
161	0x3b051cc6	0.002031134
162	0x3a2a4a06	0.00064960157
163	0x3b154e9a	0.0022782446
164	0x3a9f3b9b	0.0012148501
165	0x39e0f293	0.0004290534
166	0x3af4313a	0.0018630393
167	0x39748b80	0.00023321621
168	0x3b5c5423	0.0033619485
169	0x3b084e74	0.0020798715
170	0x3a8df4f1	0.0010830445
171	0x3af9321f	0.001901213
172	0x3a219511	0.0006163875
173	0x3937d38f	0.00017531052
174	0x39cf710c	0.00039566343
175	0x39d2e4a2	0.00040224666
176	0x3a9f17a8	0.0012137787
177	0x3a49915c	0.0007689202
178	0x3a53c927	0.0008078985
179	0x3b9cc558	0.0047842674
180	0x3b46ae10	0.0030316152
181	0x3a928337	0.0011178021
182	0x3aabaaa0	0.0013097115
183	0x3a983ee2	0.001161542
184	0x3a85153b	0.0010153422
185	0x3baee18f	0.0053369473
186	0x398fdbfc	0.00027438987
187	0x3a97c6ca	0.001157963
188	0x3b49116f	0.0030680557
189	0x38e5bec8	0.00010955107
190	0x3aab9cf5	0.0013093041
191	0x39b3e0fa	0.0003430916
192	0x3b946b8b	0.0045294217
193	0x3a0bf710	0.00053392444
194	0x3bd5a4bb	0.0065198815
195	0x3bad589c	0.005290104
196	0x3afda03e	0.0019350124
197	0x3b452f42	0.0030087982
198	0x38a82e1f	8.019455e-05
199	0x3ad634cd	0.001634264
200	0x3ad034aa	0.0015884836
201	0x3b29ee45	0.0025929373
202	0x3bc92880	0.006138861
203	0x3a8aacf9	0.0010580114
204	0x3b144a18	0.002262717
205	0x3bdfb22a	0.0068266587
206	0x3be15d03	0.006877543
207	0x3a943757	0.0011307996
208	0x3b840398	0.0040287487
209	0x396d9c8d	0.00022660401
210	0x3b91b038	0.0044460557
211	0x3ab76c4f	0.001399407
212	0x3bb0f338	0.0054000877
213	0x3c4a5009	0.012348183
214	0x3b062c1e	0.0020473073
215	0x3c0f8a23	0.008760962
216	0x3a69b457	0.00089151174
217	0x3ab3444a	0.0013676968
218	0x3b0babbc	0.0021312078
219	0x3bedf0cf	0.0072613726
220	0x3ad635db	0.0016342954
221	0x3bcb9636	0.006212975
222	0x39db228a	0.0004179667
223	0x3b209260	0.0024501309
224	0x3b004886	0.0019574477
225	0x3ba3a0bb	0.004993526
226	0x3a2cf7ad	0.0006598186
227	0x3be186f1	0.0068825413
228	0x3af03f67	0.0018329442
229	0x3a9093af	0.0011030341
230	0x3a1a0ed0	0.0005876841
231	0x3a231870	0.0006221598
232	0x3a969938	0.0011489755
233	0x3aa2695c	0.0012391019
234	0x3b97d133	0.004633093
235	0x3b88122a	0.004152556
236	0x3ab0c9ad	0.0013487838
237	0x3910c28f	0.00013805389
238	0x3acbb8d6	0.0015542756
239	0x3a0c89e0	0.0005361121
240	0x3ae0f889	0.0017163913
241	0x3b14ef3d	0.0022725605
242	0x3b29b60e	0.0025895867
243	0x3acecac8	0.0015776986
244	0x3a4e610c	0.00078727375
245	0x3b3ee19f	0.002912618
246	0x3af2de83	0.0018529448
247	0x39b9925e	0.00035395002
248	0x3adbc7b9	0.0016767896
249	0x3b8c9468	0.0042901523
250	0x392a9fb5	0.00016271959
251	0x39b9cc83	0.00035438323
252	0x3b84b635	0.004050041
253	0x39a2f43a	0.0003108101
254	0x39bff517	0.00036612965
255	0x3a1cde30	0.0005984036
