hw2/data/lb_no_rtg_dna_CartPole-v0_16-06-2019_19-18-33/1/model.pkl (torch_old, 66652 bytes, 18 tensors)

weight f4 [64, 4]
00000000: 2caf 023f bca8 9dbe 1ad1 6b3f a559 583f
00000010: 18b6 993d 4705 37bf ad2b 623f 4119 6a3f
00000020: d93f f9be bf38 1d3f 8f36 d3be 39f0 59bf
00000030: ba2e 953d aae4 73be 1364 043f 0f68 233f
00000040: 2913 d23e 597d c9be 7e45 763f b10a 663f
00000050: 3b98 22bf cf3c 133f d5df fcbe e01a 03bf
00000060: a0e4 c83e 20b1 68be 9404 023f 0d0f 333f
00000070: e8db 0ebf fc27 e5bd 5974 f1be 3393 ebbe
00000080: 0816 32be bec1 2d3f 110f 11bf cf0f 6abf
00000090: d723 70be ab25 ff3e cd0b 7bbf 275e 6ebf
000000a0: 9e80 f43d 2bcf e63e 3fe0 3e3e 1830 b9be
000000b0: aec7 913e 7cdc b8be f563 403f c0c2 1d3f
000000c0: 6441 553e 1307 403f cf0b fdbd 1260 3ebe
000000d0: c897 ebbd c6a8 fdbe 1358 193e d852 c73e
000000e0: 10b2 78be 8a12 163f 8e28 a03d 70e1 ddbd
000000f0: 79e8 1fbe 792e 0a3f 275a 33bf 8a47 56bf
00000100: ba40 10bf 9af6 e83e 56f6 22bf b1b6 2ebf
00000110: a080 18bf 16e5 2dbf 8177 523f 293e 123f
00000120: 90e8 01bf 577c 053e 4ca4 55bf d6ac 69bf
00000130: 5232 353f 6434 febd 1e34 133f 63e9 413f
00000140: 24d8 d13e 385a 21bf 0a93 063f 9aa9 e13e
00000150: fb38 e93e e643 0cbc 138e 003f 1ace 173f
00000160: f1d6 593e 0824 aabe 322f d83e bbc3 023f
00000170: e0ab 223f cc67 0bbf 77f6 283f b1bf 2b3f
00000180: 1970 e63e 52ea ccbe c0c5 433f aba6 2d3f
00000190: 3731 9d3e e1c4 0ebd ae0c 8e3e be8a 0b3f
000001a0: ecf3 86be 212d fabe 47db 473f 862e 103f
000001b0: c3ba 0e3f ef14 0bbf f4e2 543f 8679 403f
000001c0: ac44 95bd 13c4 ec3e b969 20bf b928 69bf
000001d0: 1899 15be b653 d93e 4512 0dbf 4790 5fbf
000001e0: ff49 0c3e 930b 433f cad4 4bbf 992e 04bf
000001f0: b0ca e8be a062 403d ca64 3fbe 04af 12bf
00000200: fa1d 18bf 20ca 113f 7f9a 38bf 2067 57bf
00000210: eab5 a33e bfd2 243f f899 263e f403 d33e
00000220: adf7 763e 3db0 81be eda0 043f 8921 493f
00000230: 505e 2fbe 602b 4f3d 3677 19bf 3a0a cabe
00000240: f24e 283e a64e f9be 0760 443f 9bf0 533f
00000250: db08 37bf 82f1 d43e c1f5 14bf e686 f6be
00000260: 200c 893e e570 99be ecaa 2d3f 2a36 443f
00000270: 0368 243e 0f19 3a3f 7c18 02bf 29d5 22bf
00000280: 801c 463f c550 f23e d15a 233f 5e39 ff3e
00000290: d05a 9f3e 5599 edbe d851 0f3f e7c5 483f
000002a0: f829 0abd 92de 52bf f61c 1b3e 18fa 7d3e
000002b0: d819 c6be 8798 c73e 5347 1bbf ff7f 22bf
000002c0: ff96 a33e a8e7 34bf 01aa 4e3f 29f0 4a3f
000002d0: bc97 19bf 8032 353f 5b09 12bf 47e1 63bf
000002e0: b90c f43e eddc 05bf 2787 ff3e 63f5 3f3f
000002f0: df74 b03e 5123 82be e86c 663f 8c5d 363f
00000300: 8ca6 493f e2fc 693e 216e 303e 40b3 883e
00000310: 8cdd f73e f597 1dbe 23a1 643f 0e8d 503f
00000320: 5022 3a3f a1d2 59bd f45b fc3e f023 e73e
00000330: 4b61 13bf 0019 df3e 068e 21bf 716b 53bf
00000340: 369e bcbe bdbe 4f3e db25 08bf 50e7 4abf
00000350: 6651 8cbe e4e1 e83e f188 2bbf ca01 e6be
00000360: 0e70 1abe d53b 293f c34d 22bf 0a41 08bf
00000370: b4bb f13e f36a 9dbe 9b46 653f a7af 4d3f
00000380: 0656 0c3f f09d 5bbe 51fd b43e 3147 1a3f
00000390: cdc4 4bbe 2134 3a3f c894 e4be 1650 28bf
000003a0: 07fa 1abf e5ad 253f 6346 1dbf 138a 49bf
000003b0: a058 c63e 5325 d7be 9141 2b3f 66ba 193f
000003c0: b5e2 d23e a972 aebe afb5 fb3e e736 653f
000003d0: 89e6 8bbe 50b5 0e3f 758a 3cbf e5da 63bf
000003e0: cd38 1d3e 1d4a d3be af79 3a3f f6e5 443f
000003f0: 922b 06bf 4a38 463f 6034 26bf 3158 62bf
0.5104854 -0.30792797 0.9211594 0.84511787 0.07505435 -0.7149243 0.88347894 0.91444784
-0.48681524 0.6141471 -0.41252562 -0.85132176 0.07284303 -0.23817697 0.517152 0.63830656
0.41030243 -0.39353445 0.96199787 0.89860064 -0.63513535 0.5751466 -0.4938952 -0.51212883
0.39236927 -0.22723818 0.50788236 0.6994484 -0.558043 -0.11189267 -0.4715908 -0.46010742
-0.17391217 0.6787375 -0.56663615 -0.9143037 -0.23451172 0.49833426 -0.9806488 -0.93112415
0.11938594 0.45079932 0.1864023 -0.36169505 0.28472656 -0.36105716 0.7515252 0.6162529
0.20825726 0.75010794 -0.12355768 -0.18591335 -0.11503559 -0.49542826 0.14975004 0.38930392
-0.24286675 0.5862204 0.07820235 -0.108340144 -0.15616025 0.5397716 -0.70059437 -0.8370291
-0.56348765 0.45500642 -0.6365713 -0.68247515 -0.59571266 -0.6792768 0.822136 0.571261
-0.5074549 0.13035713 -0.8345382 -0.9127935 0.7077991 -0.124123365 0.575014 0.75746745
0.40985215 -0.6302829 0.52568114 0.44074708 0.45551285 -0.00856111 0.5021679 0.5929886
0.212734 -0.33230615 0.42223507 0.5107991 0.6354351 -0.54455256 0.66001076 0.6708937
0.450074 -0.40022522 0.7647362 0.6783244 0.3070161 -0.034855727 0.2774405 0.5450858
-0.26357973 -0.48862556 0.78068966 0.5632099 0.55753726 -0.5432882 0.83158803 0.7518543
-0.07288489 0.46243343 -0.6266132 -0.9107776 -0.14609182 0.4244668 -0.55106 -0.87329525
0.13700102 0.76189536 -0.79621565 -0.516336 -0.45467138 0.046969056 -0.18690792 -0.572983
-0.5942074 0.56949043 -0.7211074 -0.8414173 0.31974727 0.64384073 0.16269672 0.41213953
0.24117918 -0.25329772 0.51808053 0.78566796 -0.17125821 0.050578475 -0.59947526 -0.39460927
0.16436365 -0.48692816 0.76709026 0.8278901 -0.7149789 0.41590506 -0.5818749 -0.48149794
0.26767063 -0.29968944 0.6783893 0.7664515 0.16055302 0.72694486 -0.5081861 -0.63606507
0.7738724 0.47327247 0.6381045 0.49848455 0.31123972 -0.46406046 0.5598426 0.78426975
-0.03373143 -0.82370865 0.15147766 0.24802434 -0.38691592 0.38983557 -0.6065571 -0.63476557
0.31951138 -0.7066598 0.80728155 0.79272705 -0.59997153 0.7078018 -0.57045525 -0.8901562
0.47665957 -0.5229023 0.499078 0.74983805 0.34464166 -0.2541757 0.9000993 0.7123649
0.78769755 0.22850373 0.17229511 0.26699257 0.48411214 -0.15389998 0.89308375 0.8146523
0.72708607 -0.053179387 0.49288905 0.45144606 -0.5757033 0.4357376 -0.63107336 -0.8258582
-0.36839455 0.20287605 -0.5318276 -0.79259205 -0.27405852 0.4548484 -0.6700583 -0.4492324
-0.15081808 0.6610692 -0.63399905 -0.5322424 0.4721352 -0.30745658 0.8956086 0.8034615
0.5481876 -0.21446967 0.35349515 0.6026488 -0.19899292 0.7273579 -0.4464476 -0.657472
-0.6053776 0.64718467 -0.61435527 -0.7872631 0.3873949 -0.42020664 0.6689692 0.60050046
0.4118859 -0.34071854 0.4916205 0.895369 -0.27324322 0.5574541 -0.7364877 -0.8900588
0.15353699 -0.4126748 0.72841924 0.7691339 -0.52410233 0.7742964 -0.6492367 -0.8841582

bias f4 [64]
00000000: a0d5 7cbd 46f3 963e 2750 10be dbb3 ce3e
00000010: 4c97 213e 0ea4 dbbd 9fff 543e 5c8f 83bd
00000020: 4e8a 6ebd 9c40 8fbe 7d0e 4cbe 9503 153e
00000030: 78af e83d 9617 db3d b092 92be 3b81 22bd
00000040: 5df5 e5bd 5a23 473d a458 d23d 220b 0e3e
00000050: f206 893d 25a0 8a3d e95e 853e 6540 143e
00000060: a382 bf3d d6e0 773e 1f76 bcbc b0c3 1d3e
00000070: d8b3 4fbe 8d78 60be a112 54bd 1013 6bbd
00000080: 9364 32be ed85 523e 79b3 233e e839 19be
00000090: 582e 433e 2390 6fbe b71f 213e 0031 3d3d
000000a0: 427d 0f3e 0788 003e b092 663d aba9 35be
000000b0: d4d0 833d c610 41be d5ec 803d e24f d13d
000000c0: 8035 b53d 1ed8 e33d be80 033e de76 433d
000000d0: 4b22 29be 68c1 ddbd 4b72 5b3e 80be ff3c
000000e0: f682 143e c85f 02ba bf4d 10bc 5f23 79bd
000000f0: d40a 8c3c cf87 4d3c 1d8e 32bd fa35 78bc
-0.061727166 0.29482478 -0.14093076 0.40371594 0.15780371 -0.1072465 0.20800637 -0.06423828
-0.058237366 -0.2797898 -0.19927402 0.14552148 0.11361593 0.10697858 -0.2862754 -0.039674025
-0.1122844 0.0486177 0.10270813 0.13871434 0.06690778 0.067688264 0.26048973 0.1447769
0.09351089 0.24206862 -0.023005543 0.1540668 -0.20283449 -0.21920986 -0.05177558 -0.057391226
-0.17421179 0.20558901 0.15986432 -0.14963496 0.19060647 -0.23394828 0.15734755 0.04618931
0.14012626 0.1255189 0.056292236 -0.17740504 0.06436315 -0.18854055 0.06295172 0.102203146
0.08848095 0.111252055 0.1284208 0.047720782 -0.16516988 -0.10827905 0.21430318 0.031218767
0.14503083 -0.0004973379 -0.008807599 -0.060824748 0.017095007 0.012544586 -0.04359256 -0.015149588

weight f4 [64, 64]
00000000: 1ed5 1fbf a7a4 e9be 5186 3c3f ba61 dbbe
00000010: 0c81 11bf 93e1 f03d 5530 fdbe 4fe3 f33d
00000020: 66e8 e53e 7093 303f bb8b 39be f4e2 99be
00000030: f5a7 acbd d54d 3e3d d8c7 19be 07ec f23e
00000040: f2d9 053f eca2 b5be 8d2f d53e c682 bdbe
00000050: 3e5d 2fbd 34f5 29be fcaa 1ebd 39cd 28bf
00000060: c7d5 2cbf 8d44 5e3d c17e 6abe 0b26 2cbf
00000070: 1bb7 1f3f 2a17 fc3e f373 683e 14e4 b23e
00000080: 4f21 153f 41b4 833d 1ec5 1cbf 3575 1b3e
00000090: d05a d5be b6d1 b33e 2f30 42bf b336 b03e
000000a0: 28df 8bbe 025a 2ebf d571 ae3d ba56 c43e
000000b0: f4db f4be 7339 423f c475 eabe 9e7f 1abf
000000c0: 94ac 3abe d2d7 39bf 07ee f3bd c12b c93e
000000d0: 8338 453f 0154 373e 8199 f93e 19f5 ccbe
000000e0: aad0 f7bd 14e5 fc3e f9f1 413f f060 b4be
000000f0: 2915 06bf 47f9 0c3f 970a 92be 1cb7 313f
00000100: 847f 15bf d1f2 36bf e6f5 1a3f cf93 bbbe
00000110: 3d7f bdbe 4154 993e 4ed1 1abf 446f 1d3e
00000120: 48d6 023f b7b9 a63e df09 053d 442a 8bbe
00000130: e00d 13bc 1509 943c e34b c3be 73c3 383f
00000140: 9f7e d03e 3e94 47be 28d4 f33e 9692 22bf
00000150: 8d61 cd3c ffb6 453d 8bcd 64be 98ac debe
00000160: 67da 3fbf 51a8 21be 9fe1 9dbe cdbd 33bf
00000170: f7ac b83e c0ac b13e b70b a63e 105c 6d3e
00000180: 541e 453f 2f20 04be b5ac 02bf b121 8e3e
00000190: 7fcd dbbe 9a21 4e3e 1551 18bf 7b4e b23e
000001a0: e01d 0abf 9318 0abf 047c fb3c c92d a73e
000001b0: ab05 39bf 580c 3b3f b60f 11bf f8a8 3dbf
000001c0: 036d 97be b0af 44bf 0ac6 98be ce40 023f
000001d0: 3bef ef3e 682e 163c a826 8b3e e5a7 39bf
000001e0: c843 b2be 47e8 a33e b9d6 1f3f 50bf acbe
000001f0: 8fdc 2cbf bede 0f3f 6970 09bf 6d5a 053f
00000200: 7ef9 03bf ed07 febe b6d4 f13e 8915 483e
00000210: eaac c8be 9637 a8be d392 043f 350a 01bf
00000220: 31a8 cbbe fb7b 273f 3486 25bf 02e4 0e3f
00000230: 59fc e5be c920 153f 0b11 b4be 4abe a6be
00000240: d545 83be 446a 34bf ae33 a33e d679 123f
00000250: d989 163f 6218 953e 1f12 173f e396 01bd
00000260: d05c 1c3f 14a2 c8be 8aca aabe 8c48 f5be
00000270: 7a2a be3e 0952 923e 06c4 373f 2c63 2abf
00000280: dc3f b93e f4a6 0fbe 1646 233c 9f34 0f3f
00000290: faf6 edbe 432d dabe 54a8 863e e45e 263f
000002a0: 18ba 223f a817 5ebd 2acb c43e 3e3a 1d3f
000002b0: e540 0a3f bfa6 ce3e c65b d5be e808 133f
000002c0: 6cb1 b53e 1170 8d3e 69dc ad3e 24d8 fcbe
000002d0: 4159 dbbe 2a80 f9be fd5d 853e d45a 083f
000002e0: b9c5 263f 5e94 d23e dd7c f3be ce1c 063f
000002f0: 27d7 df3e ccc4 b3be 8efb 9abe 8ea3 9bbe
00000300: 0e3a 17bf 7626 ccbe dd6d 2a3f cdf1 26be
00000310: fdd2 b4be 96c4 703e ece3 0fbf 4183 843e
00000320: 30d9 e53e fc15 2c3f 8904 dabc cee1 02bf
00000330: 468a 7bbd 547c 773e 5b34 073f 3ff9 9a3e
00000340: ea40 0a3f 30df 9bbc 8577 bf3e 3bc5 09bf
00000350: 5012 f0bd dbcf 1dbf 2b25 a83e 8afb abbe
00000360: b437 9cbe 37cf 29bf ba26 f93d 5ebc 0abf
00000370: babb c53e b7d1 0a3f 2c40 1fbe 8453 043f
00000380: 7fd2 3e3f 4be8 edbe deba a6be 8b40 283f
00000390: 557d 3fbf 3d1c e73e c7fc b7be 31a3 003f
000003a0: 9cd5 1cbf f22f 3ebf e837 533e 85cb 3e3f
000003b0: 305d 04bf 4ed1 ec3e 7877 32bf 8ef0 d5be
000003c0: eddb b4be 691e 12bf 2a29 3bbe 1489 0b3f
000003d0: c2a4 2d3f 25d4 813e 47a3 77be 0552 94be
000003e0: 004c fbbe 1049 263f 4ab3 033f 0215 74be
000003f0: 53fb 17bf 7b7c 993e 6d5b cebe a713 f73e
-0.62434566 -0.45633432 0.7364245 -0.42847997 -0.56837535 0.11761775 -0.49450937 0.1190859
0.44903868 0.6897497 -0.18119709 -0.30055964 -0.08430473 0.046460945 -0.1501764 0.474457
0.52285683 -0.35475862 0.4163784 -0.37013835 -0.042813532 -0.16597444 -0.038737282 -0.65938145
-0.675137 0.054264594 -0.22899915 -0.6724555 0.6238877 0.49236423 0.22700481 0.34939635
0.5825395 0.06430865 -0.61238277 0.1518143 -0.41670847 0.35120934 -0.7585477 0.34416732
-0.27318692 -0.6810609 0.085178055 0.38347417 -0.4782406 0.7586891 -0.45792973 -0.6035098
-0.18229896 -0.7259494 -0.119106345 0.39291194 0.77039355 0.17903139 0.48749927 -0.40030745
-0.121003464 0.49393523 0.75759846 -0.35230207 -0.5237604 0.5506787 -0.28523704 0.6942003
-0.583977 -0.7146426 0.6053146 -0.36636207 -0.37011138 0.29947093 -0.60475624 0.15374476
0.5110822 0.32563564 0.032480117 -0.27180684 -0.008975476 0.018070737 -0.38143834 0.7217323
0.40721604 -0.19490144 0.476228 -0.6350492 0.02507093 0.04827022 -0.22344033 -0.43491054
-0.7494263 -0.15786864 -0.30836198 -0.7021149 0.36069462 0.3470211 0.32430813 0.2317965
0.769994 -0.12902902 -0.5104478 0.2776008 -0.4293022 0.20130005 -0.5949872 0.348255
-0.53951836 -0.5394375 0.030698784 0.3265212 -0.72274274 0.7306571 -0.566646 -0.7408595
-0.29575357 -0.7683058 -0.29838592 0.50880134 0.46862206 0.009166338 0.2717793 -0.7252181
-0.34817338 0.3201315 0.62437016 -0.3373971 -0.67524046 0.5619925 -0.5368715 0.52091104
-0.5155257 -0.49615422 0.47232598 0.19539465 -0.39194423 -0.3285491 0.51786536 -0.504062
-0.39776757 0.65423554 -0.646579 0.5581666 -0.44919088 0.5825315 -0.35169253 -0.32567054
-0.25639215 -0.7047465 0.31875366 0.57217157 0.5880409 0.29120165 0.59012026 -0.031638037
0.6107912 -0.39186156 -0.3335765 -0.4790691 0.37141782 0.28578213 0.71783483 -0.66557574
0.36181533 -0.14028531 0.00996544 0.5593967 -0.4647749 -0.42612657 0.263003 0.6498854
0.63565207 -0.05422178 0.38436252 0.61416996 0.5400527 0.40361592 -0.4167158 0.57435465
0.35486925 0.27624562 0.33957222 -0.49383652 -0.42841533 -0.48730594 0.2604827 0.5326359
0.6514545 0.4112882 -0.475562 0.523877 0.43718836 -0.35111082 -0.30270046 -0.3039822
-0.5907296 -0.39873093 0.6657389 -0.16303177 -0.3531722 0.23512492 -0.56207156 0.2588139
0.44892263 0.67221045 -0.02661349 -0.511258 -0.061411165 0.24168521 0.52814263 0.30268285
0.540053 -0.019027323 0.37395874 -0.53816575 -0.11722243 -0.6164529 0.32840857 -0.33590347
-0.30511248 -0.6633181 0.1216559 -0.54193676 0.38619787 0.5422625 -0.15551823 0.51689935
0.7453994 -0.46466288 -0.32564443 0.65723485 -0.74800617 0.45138732 -0.3593504 0.5024901
-0.6126344 -0.7429191 0.20626795 0.74529296 -0.5170469 0.46253437 -0.69713545 -0.4178509
-0.3532404 -0.5707765 -0.18277422 0.5450604 0.67829525 0.25357166 -0.24183379 -0.28968826
-0.4908142 0.64955235 0.5144545 -0.23836139 -0.59367865 0.29977784 -0.40304127 0.4825718

bias f4 [64]
00000000: f6d2 c9b9 3e62 253d 041f 1cbf ad8a 1e3e
00000010: 3711 853c 1e5c 03bf 8169 20be b33b 1ebf
00000020: 9fb4 78bd 9393 0c3b f135 c73d 8c72 4e3d
00000030: e0a0 e4be 7cf1 023d 4dd6 57bd e173 093e
00000040: 1c6a 53bb ef3a bcbd 2ac6 7f3e ce71 dfbe
00000050: f5ee 883e e42a d4be b8fa 433e 74ec 9e3d
00000060: 8c22 fdbd 0302 ea3d 56ae 203d 5c93 b5bc
00000070: 3f8e 423e 1a18 9e3e b29c 263d 7f96 31be
00000080: e48b 24bc 088f adbd d0c7 e5bd 1e70 e13d
00000090: da14 82be b0af 0ebe 6488 ac3e b134 143e
000000a0: a2a3 943c 479e 9ebd 2c41 9cbe 01fc c43d
000000b0: b529 8abe b0b2 2a3e 32fb 8abd 0689 03be
000000c0: a1b8 a3bc 6334 1b3d abdd e1bd 18df 773e
000000d0: a5bc 093e 700a aebe c874 b73d a1ac 8fbe
000000e0: db1b c3bd 675f b5bd 03cc 97be 9517 0e3f
000000f0: b2f4 383c 47f3 2ebe f324 d1be ec9e 9fbd
-0.00038494886 0.040376894 -0.60984826 0.15482588 0.01624356 -0.51312435 -0.15665247 -0.61809844
-0.06071913 0.0021450266 0.097270854 0.05040221 -0.44653988 0.03196858 -0.052694608 0.1342311
-0.003225929 -0.09190928 0.24977937 -0.43641514 0.2674481 -0.41438973 0.1913861 0.077599436
-0.12360105 0.11426165 0.03922876 -0.022164993 0.18999575 0.30877763 0.04067678 -0.17342566
-0.010043118 -0.08474547 -0.11219752 0.11007713 -0.25406533 -0.13934207 0.33697808 0.14473225
0.018144432 -0.07745033 -0.30518472 0.096183784 -0.26984945 0.16669726 -0.06786193 -0.12845239
-0.019985499 0.037891757 -0.11028608 0.24206197 0.13450868 -0.33992338 0.08957821 -0.28061393
-0.095267974 -0.08856087 -0.29647836 0.55504733 0.011288809 -0.1708499 -0.40848503 -0.07793984

weight f4 [2, 64]
00000000: 701c 363f 9df0 5e3f 5e92 35bd 033a 543e
00000010: 0214 35bc c896 f63c 3300 ae3e b32f 92bc
00000020: 4a63 f5bc 1d69 5ebf fdcc 43be 29e0 2abf
00000030: 2d01 8a3e 8d2c 04bf d25a e63e 671b 8dbe
00000040: 8dcb 643e 2af0 83be d8be c43e a41d bf3e
00000050: cc91 99be 8fc2 c03d 1061 143e fa8a 4f3f
00000060: be8f 313f 4991 c2be 990c 8f3e f3fd 7cbe
00000070: 3f06 333f 09c6 1c3f c67a 54bf b914 1bbf
00000080: 2647 3ebf de44 bbbe 26bb 983e 2e9e 373f
00000090: ac98 37bf ec11 9a3e 43da 98bd dc24 edbe
000000a0: 2d85 3f3f 3710 3cbf b6fc 29bb 8b3a 0dbf
000000b0: 4acc 84be 0198 c03e 3423 a7be e483 3abf
000000c0: 16ae cbbe 3334 d53e 3bab 4f3f 2142 edbd
000000d0: d2b8 203f b7d5 283e 25fa 053f 7059 4cbf
000000e0: 1e01 4abf 7f4c 5cbf 2bb9 093d 6d30 3b3e
000000f0: b31a 28be e635 53be 91c6 d1bc f673 f03e
00000100: 1ee7 a4be d0c6 e9be 123a bcbe 3928 aabe
00000110: f85c 8bbe 2a45 6ebe 7e58 e7be 7a8c 52be
00000120: bf30 a8bd 3c7c 0d3f 8592 de3e 05c5 d13e
00000130: a7d2 c0be 62f1 99bc 393a adbe 97c2 163e
00000140: cd03 cdbe 03d1 0d3f 9405 5f3e 46c3 14be
00000150: 97fe 803e 7d4d 963d bfcc a8be b78f 38bf
00000160: a18b bbbe e8e6 f23e fdc8 b3be 901d 7e3e
00000170: f3c7 eebe f30b 8bbe 567d 003f dc7d 293f
00000180: 25f3 e73e 5e68 143e f71e 8fbc 3065 37bf
00000190: 77dd 323f d7ee bbbe 818b c03e f838 2b3f
000001a0: 1753 59bf 8ae1 363f 8cdf 333d 785d 0c3f
000001b0: ab59 cb3c 8602 c6be aa6b 8c3e 6302 353f
000001c0: 23b5 473f d500 3fbf 2905 3bbf 4fb4 c13d
000001d0: 3247 2fbf 2243 98bc c75a 62bf 0b12 243f
000001e0: 09f7 e23e 21cc 5c3f ea46 e4bd 1162 a13e
000001f0: 9c47 b6be ef5e aebd 1a11 26bd 2087 09bf
0.7113714 0.87085897 -0.04432904 0.20725255 -0.0110521335 0.030101195 0.33984527 -0.01784501
-0.029954571 -0.8687914 -0.19121166 -0.6674829 0.26954022 -0.5163048 0.44991165 -0.2755997
0.22343273 -0.25769168 0.38426852 0.37327302 -0.29994047 0.09412109 0.14490151 0.81071436
0.6935996 -0.3800147 0.279393 -0.24706249 0.69931406 0.6123968 -0.8299984 -0.60578495
-0.74327314 -0.3657598 0.29830283 0.7172574 -0.71717334 0.30091798 -0.07463505 -0.46317184
0.74812585 -0.7346224 -0.002593798 -0.55167454 -0.2593711 0.3761597 -0.32644045 -0.728575
-0.39781255 0.41641387 0.8112065 -0.11584879 0.62782013 0.16487776 0.52334815 -0.7982397
-0.78907955 -0.86054224 0.033623856 0.18280192 -0.16416435 -0.2062603 -0.02560738 0.4696347
-0.32207578 -0.45659494 -0.36763054 -0.33233812 -0.27219367 -0.23268571 -0.45184702 -0.205614
-0.082124226 0.5526769 0.4347116 0.40970626 -0.37660715 -0.018791858 -0.33833483 0.14722668
-0.40041962 0.5539705 0.21779472 -0.14527616 0.25194237 0.073389985 -0.3296871 -0.7209429
-0.36629966 0.47441792 -0.3511428 0.24815965 -0.46636924 -0.27157554 0.5019125 0.6620767
0.45302692 0.14492938 -0.01747082 -0.71638775 0.6986918 -0.36705658 0.37606433 0.668838
-0.8489241 0.71437895 0.043914363 0.5483012 0.02482303 -0.386738 0.2742589 0.70706767
0.7801077 -0.74610645 -0.7305475 0.09458219 -0.6846801 -0.018586699 -0.88419765 0.6409003
0.44329098 0.86248976 -0.11146338 0.3152013 -0.3560151 -0.08514201 -0.040543653 -0.5372181

bias f4 [2]
00000000: 62de 7c3e c3ce a4bd
0.24694207 -0.08047249

exp_avg f4 [64, 4]
00000000: 88c8 69bf e2b7 19bf 6754 31bf 5e24 c8bf
00000010: 71df 76bf 0c8f dc3c d51e 8ebf a9cd 61c0
00000020: f511 af3f a824 9fbc 26b9 9f3f d38e 8640
00000030: ffb5 0ebf 6fe8 d83e 2109 e6be c91b 0fc0
00000040: 8a4a 7fbf 8aed bdbe b3ef 5cbf 78b6 19c0
00000050: 3540 cc3e c02d 55be 34d3 903e 1d7c ae3f
00000060: 580d 62bf 2f0e b1be 666a 04bf c1c3 bbbf
00000070: 08d3 0c3f 4380 bd3e 00db 843e 3ef6 093f
00000080: c5ef a03f 6800 1c3e c67f 903f d7bb 5f40
00000090: 01b8 863f 14ba a33e e5d9 683f 60c5 2740
000000a0: 5a8c 11be 7df9 c3be c106 23be 6ff1 bf3d
000000b0: 4572 60bf 992b c9be 7064 f3be 8ea7 a5bf
000000c0: d6d3 75be a3b5 2abf 5ce8 11be 0019 ef3e
000000d0: 40d5 123e c4aa 103f 1415 c83d 142d 00bf
000000e0: 5f89 82be c0e4 b2be 9f2c 38be f4e1 aebd
000000f0: ea14 a33f f14e 193d 73ac 923f 0df5 6f40
00000100: c5c0 883f 3151 db3e d398 3e3f b744 0440
00000110: d7fd 7bbe 05d8 023e 8c71 f1be a60a c2bf
00000120: 1900 613f d978 073f c4d8 323f bbda cf3f
00000130: ad2a 66bf 8c28 babe 8ae1 36bf fc1c f2bf
00000140: 6df2 7bbe 857d d33e ac1c 49be 5d4b a6bf
00000150: fc29 07bf d65f b9bc 7000 0fbf dc43 dabf
00000160: 3453 dcbc e805 ee3e b58d 11bd a2e2 5bbf
00000170: 9a26 9dbf 8c39 dcbe 0d0c 7ebf bc8b 33c0
00000180: 2881 9cbf dac9 f3be b989 5dbf 544b 19c0
00000190: 191d 1abf 759d 87be 8781 fbbe 04e9 9dbf
000001a0: d71c 30be 94f5 6c3e 1365 cbbe 99ae b7bf
000001b0: ba58 9dbf 8818 13be 6bfb 8bbf ebb3 5dc0
000001c0: 2485 903f 0b0c edbb 90cb 913f 4db0 6d40
000001d0: 60be 743f b187 d53e cf3e 483f b17e 0340
000001e0: 07e6 9a3e 4690 d9bd 0855 f33e b9ba c13f
000001f0: 2252 2f3f 4e83 e93e 4e52 ae3e 3f22 3d3f
00000200: 684e a83f ce0f 823e ccdd 8e3f a1d8 5940
00000210: c0e7 01bf 95bd acbe 6de3 ddbe dd8e 65bf
00000220: b35e a3bf d27a b2be 65d6 82bf e8a3 3fc0
00000230: 6976 113f 1d82 c13e a8f3 ee3e 4550 823f
00000240: 5435 79bf d564 b6be 3306 57bf c629 13c0
00000250: 888c 1c3f f6b0 933e de61 b23e 1bc8 743f
00000260: 7668 95bf 94f5 ddbe 6c54 67bf 8357 21c0
00000270: fd4b 0e3f 9237 b63d c06d 213f 208a e63f
00000280: 2ae5 d2be f45c 97be 827b aebe b2a2 31bf
00000290: eab2 9dbf 85cc 96be 74e6 7ebf 6ad0 3ec0
000002a0: 4672 7a3e c538 373f 52df eb3d e69e 1cbf
000002b0: 7235 4d3f 14bc d93e 8f96 273f 0ab5 cd3f
000002c0: 5fbc 99bf f021 5abe 6134 81bf f561 46c0
000002d0: 40ec bb3f 1ba0 2f3e 32b6 a53f 10a2 8240
000002e0: 0e38 96bf e32d db3d f813 91bf 6e23 79c0
000002f0: fbbb 9bbf 7e12 07bf e33d 58bf 71a8 11c0
00000300: e490 0abf 3292 c4be b5f0 f1be 6f03 79bf
00000310: 8741 8ebf c3c3 e1be 833c 54bf 5659 10c0
00000320: 7af9 f3be 22e9 a1be 7d48 62be 35e6 f2be
00000330: c1f9 7d3f 3273 843e bbaa 373f ccae 0c40
00000340: 945e 903f 20c5 a83e 4fad 523f 7d20 1b40
00000350: 6e7a 523e 29d0 3dbe 4963 9b3d bb7a 253f
00000360: aa3f 333f 40b9 153d 70e9 343f a3ff 0d40
00000370: 1cef 8fbf 7ed6 b03d 0aba 85bf 878e 64c0
00000380: f9ad 06bf 37f4 85be 4b8e 71be f663 24bf
00000390: 9676 663f ff60 34be f972 813f b436 5a40
000003a0: 3d88 9a3f 61ee d03e 769d 5f3f f661 2240
000003b0: 4f6f 71bf c101 09bf f660 05bf d18d a3bf
000003c0: 9b16 92bf a4fd 97bd 3a94 77bf c7bd 4bc0
000003d0: c160 a03f 4ee3 ab3e 7be2 6d3f 5e20 3140
000003e0: 142d 65bf a0f7 76be 4296 52bf 64ad 18c0
000003f0: e6ba ae3f db74 bb3c af55 9b3f 882e 8140
-0.9132161 -0.6004621 -0.6926941 -1.5636098 -0.96434695 0.026923679 -1.1103159 -3.5281775
1.3677355 -0.019426659 1.2478378 4.2049346 -0.55746454 0.42364833 -0.4492884 -2.2360709
-0.9972311 -0.3709529 -0.8630325 -2.401762 0.39892736 -0.20818233 0.28286135 1.3631626
-0.8830161 -0.34581134 -0.5172485 -1.4669114 0.5500951 0.37011918 0.25948334 0.5389136
1.2573172 0.1523453 1.1288993 3.4958398 1.0524904 0.31977904 0.9095748 2.6214218
-0.14213696 -0.38276282 -0.15920545 0.09372222 -0.8767436 -0.39291075 -0.47537565 -1.2941759
-0.2400659 -0.66683406 -0.14248794 0.4669876 0.14339161 0.5651057 0.09769645 -0.50068784
-0.2549543 -0.34940147 -0.17985772 -0.08539191 1.2740757 0.0374288 1.1458877 3.7493317
1.0683829 0.42835382 0.7445194 2.066694 -0.24608551 0.12777717 -0.47156942 -1.51595
0.87890774 0.52918774 0.6986201 1.6238626 -0.8990887 -0.3635906 -0.71437895 -1.8915095
-0.24604197 0.413067 -0.19639844 -1.2991749 -0.5279844 -0.022628706 -0.5586004 -1.7051959
-0.026895143 0.4648888 -0.035535533 -0.8589269 -1.2277405 -0.43012655 -0.9923714 -2.8054037
-1.2226915 -0.47614938 -0.86538273 -2.3952227 -0.6020065 -0.26487318 -0.4912226 -1.2336736
-0.17198502 0.23140556 -0.3972555 -1.4350158 -1.2292702 -0.14364827 -1.0936102 -3.4641063
1.1290631 -0.0072341016 1.1390247 3.7138855 0.9560299 0.41705087 0.7822084 2.0546076
0.30253622 -0.10623221 0.4752581 1.5135108 0.684847 0.4560799 0.34047168 0.7388038
1.3148928 0.25402683 1.1161437 3.403847 -0.5074425 -0.3373839 -0.43337575 -0.8967112
-1.2763275 -0.3485933 -1.0221678 -2.994379 0.56821305 0.3779458 0.4667027 1.0180746
-0.97347 -0.35623804 -0.83993834 -2.2994246 0.61151934 0.28845948 0.34840292 0.95617837
-1.1672504 -0.43351424 -0.9036319 -2.5209663 0.555847 0.08897318 0.6305809 1.8010902
-0.41190463 -0.29563105 -0.34078604 -0.6938888 -1.2320225 -0.2945291 -0.99570394 -2.9814706
0.24457654 0.71571 0.11517204 -0.6117996 0.80159676 0.42526305 0.6546411 1.6070874
-1.2010611 -0.21302009 -1.009411 -3.0997288 1.4681473 0.17150919 1.2946227 4.082283
-1.1735857 0.107021116 -1.1334219 -3.8927875 -1.2166742 -0.5276259 -0.8446943 -2.2759058
-0.54127336 -0.38392788 -0.47253957 -0.97270864 -1.1113747 -0.44094667 -0.82904834 -2.2554526
-0.47651273 -0.3162318 -0.22097965 -0.4744126 0.9920922 0.25869137 0.7174489 2.1981688
1.1278863 0.32962894 0.822957 2.423858 0.20554516 -0.18536438 0.075872965 0.64640397
0.7001902 0.03655362 0.706687 2.2187278 -1.1244845 0.08634661 -1.04474 -3.5711992
-0.5260921 -0.26162884 -0.23589437 -0.6421503 0.900247 -0.17615126 1.0113212 3.4095888
1.2072827 0.4080687 0.8734964 2.537229 -0.9431047 -0.535183 -0.52101076 -1.2777654
-1.1413149 -0.07421425 -0.9671055 -3.183458 1.2529527 0.33571857 0.92923707 2.7676005
-0.8952191 -0.24117899 -0.82260525 -2.385583 1.3650787 0.02288287 1.2135524 4.03693

exp_avg_sq f4 [64, 4]
00000000: 6eb7 973c 96f0 543c 0a94 743c 856e de3d
00000010: 7642 b83c 5565 253d c3c9 453d 53d1 303f
00000020: 5f61 3b3d e90f 8e3d 6df0 803d 723b 863f
00000030: 72f9 de3b a3e1 823d 67bc 2c3c 9f89 d13e
00000040: 49a2 ba3c 05a2 973c 29d5 d73c 9f17 983e
00000050: 5078 8b3b 9e7a 8c3c 542c 913b 0215 173e
00000060: 808f a03c c9dc f63b 14bc 1b3c a88e f03d
00000070: 0563 063c 80e9 573b 6945 083b 4c2b 5e3c
00000080: 16e4 273d 8883 0b3d 63c5 4a3d 1542 2d3f
00000090: 598d d13c 131b ac3c 7eef f43c eda3 b83e
000000a0: 5e87 333a 40d8 f13b 4bf2 6e3a b9dd 703c
000000b0: 186b 9d3c e0e2 d63b a084 ff3b b96b b63d
000000c0: 7f76 003b a77a a93c 816d 9a3a 50ab 543d
000000d0: dae2 653a 09c1 8d3c 3af2 6c3a c832 523d
000000e0: f88a 0d3b a602 473b 0769 6c3a f07c 233b
000000f0: 4204 273d 5121 493d c2ae 563d 4868 503f
00000100: a233 d73c 8abd 833c 4994 9b3c 5cb7 633e
00000110: 4ef9 1f3b 1187 7b3c 7881 043c 58cf 063e
00000120: bb5c 8c3c 9ca4 4d3c b4d5 7a3c 8e7a f73d
00000130: fefe a53c 2634 253c 2525 913c c82d 373e
00000140: 9c3a 183b 1ac5 ad3c a7ab 583b 1f8f 183e
00000150: f130 2c3c adf6 393b 1af0 5c3c c8cb 1e3e
00000160: 4fae 6f39 a3a3 b83c 3ee6 a23a e6f7 c03d
00000170: f9c2 163d 91d6 a63c 5a21 133d 7aed d13e
00000180: 9e41 143d ea44 883c e408 dc3c e0e3 983e
00000190: be1c 1a3c 7f58 4f3b a9d5 113c f32e 973d
000001a0: d119 9f3a d098 783c d851 d33b a57e 003e
000001b0: 910d 133d 32a7 2d3d dfdd 3c3d 4bdf 2d3f
000001c0: 8630 f93c 8bb2 533d 2a10 513d 4e1e 4a3f
000001d0: d9b4 ac3c cf68 523c 4991 ac3c 0b02 553e
000001e0: 0e75 283b 0aee 4a3c f25a 0b3c af5b 043e
000001f0: 5c06 3f3c 1e9d a33b af06 6a3b 94b6 cc3c
00000200: 2118 2b3d d101 103d 66f1 403d 546e 223f
00000210: 9d75 093c c9bd b73b 6674 e63b 2888 2a3d
00000220: 5263 223d 49b2 c03c bb3e 203d 648e f43e
00000230: c342 f63b 5741 8c3b 853d f23b 98b8 3e3d
00000240: ce61 b23c 694a 823c f8d5 cb3c 9349 893e
00000250: ecb2 1d3c b74f 513b 4dcb 8c3b cbcd 483d
00000260: 183d 053d 98e3 8e3c 2010 f23c 62fe a83e
00000270: 0b30 013c 1a95 2d3c fc85 6a3c 5801 2b3e
00000280: 8bab 983b e052 2f3b 3563 703b b7cd ab3c
00000290: 31d1 143d 5d38 d63c a944 173d c771 f53e
000002a0: 1b2c fd3a ef7b c73c deb0 a83a 69c5 8f3d
000002b0: 6ccb 783c 3f86 e83b c90e 753c 62f9 f93d
000002c0: 7447 123d a190 e33c 7f9f 1f3d 48c4 073f
000002d0: e8fb 5a3d 83dd 473d a649 863d 0c14 6e3f
000002e0: 47b5 023d 3be7 923d e959 533d 4899 683f
000002f0: d9db 143d 38cc 783c d5d9 ce3c 60e0 873e
00000300: 519c 1e3c 23cc d53b 653a 063c 9327 463d
00000310: dd52 f93c a628 6d3c c779 c53c 2726 843e
00000320: 919b c83b 89c0 213b 5f1f c63a 9721 343c
00000330: 5ec9 b93c b5bf a93c e61f 993c 4b35 8d3e
00000340: 42df f43c df0f a83c 5dd9 c63c 118a a23e
00000350: 0c63 f83a 14fc be3b 85b3 513a af51 303d
00000360: f4ce 483c c5fb cd3c dc54 973c 40ad 8f3e
00000370: 2152 ec3c d857 873d b522 2f3d d3cb 433f
00000380: 441f f53b 5986 0e3b aebe fe3a 8615 c33c
00000390: 8bce 9f3c 9d6e 563d 7eb7 263d 4d8c 2c3f
000003a0: fe6b 113d b741 a33c 2c5c e33c e638 b23e
000003b0: c8d8 b63c f39e 023c 9176 133c 81b1 a33d
000003c0: 648c f33c c56b 413d b274 123d 2032 183f
000003d0: 6de4 203d ccdb bd3c c328 033d d9fa d63e
000003e0: 8c2b 963c aa55 b93c 0b41 c43c d6a1 9a3e
000003f0: 5b5a 3d3d f14f 743d 7eba 733d 8ded 753f
0.018520083 0.012996813 0.014927873 0.10860924 0.022492629 0.04037984 0.048288118 0.69069403
0.045747157 0.06936628 0.062958576 1.0486891 0.0068046385 0.06390693 0.0105429655 0.4092531
0.022782462 0.018509874 0.02634676 0.2970552 0.0042562857 0.017148312 0.004430333 0.14754108
0.019599676 0.007533644 0.009505291 0.117459595 0.008202319 0.0032945573 0.0020793325 0.0135601275
0.040989004 0.034060985 0.04950465 0.6767896 0.025580095 0.021009004 0.029899355 0.36062565
0.00068484794 0.0073805153 0.0009115084 0.0147013 0.019216105 0.0065578073 0.0077977926 0.08907265
0.001960188 0.020688368 0.0011781902 0.05192119 0.000876946 0.01730396 0.000903878 0.05131796
0.0021597724 0.0030366569 0.0009018336 0.0024946295 0.040775545 0.04910404 0.052412756 0.8140912
0.026269738 0.01608159 0.018991606 0.22237915 0.0024410072 0.015352027 0.008087508 0.13165033
0.017134061 0.012551453 0.01530974 0.12083922 0.020263191 0.010083234 0.017717907 0.17888558
0.0023228293 0.02121215 0.0033061297 0.14898346 0.010509715 0.002837579 0.013484979 0.15507424
0.00022857751 0.022538966 0.0012428237 0.09422283 0.036807034 0.020365985 0.03592048 0.41001493
0.03619539 0.016634423 0.026859708 0.29861355 0.009406267 0.003163844 0.008901038 0.07382002
0.0012138431 0.015173152 0.0064489655 0.12548311 0.03590161 0.042395778 0.04611003 0.67918843
0.030418646 0.051683944 0.051040806 0.7895249 0.021082329 0.012842371 0.021065371 0.2080156
0.0025704536 0.0123858545 0.00850557 0.129256 0.011659231 0.004993095 0.003570955 0.024989404
0.041771058 0.035157982 0.047105215 0.634496 0.008389858 0.005607341 0.0070329187 0.041633755
0.0396455 0.023522513 0.039122324 0.47764885 0.007515283 0.00428025 0.0073925876 0.04656276
0.021775153 0.015904622 0.024882302 0.26813945 0.009625178 0.0031938383 0.0042966963 0.049024384
0.032528967 0.01744251 0.029548705 0.3300658 0.0078849895 0.010594631 0.014314171 0.16699731
0.0046591214 0.0026752278 0.0036680226 0.020972116 0.036332313 0.026149923 0.036930714 0.47938368
0.0019315513 0.024351088 0.0012870093 0.07020075 0.015185218 0.0070960815 0.014957138 0.12205769
0.035712674 0.027778925 0.038970467 0.53033876 0.053462893 0.048795234 0.06557016 0.9299934
0.03191116 0.0717301 0.051599417 0.9085889 0.036342476 0.015185408 0.025250355 0.26538372
0.009680823 0.006524579 0.008192633 0.048377585 0.03043502 0.014475023 0.02410592 0.25810358
0.0061220606 0.002468141 0.001511555 0.010994337 0.022679027 0.020721296 0.018691968 0.27579722
0.029891614 0.02051538 0.024273569 0.3174596 0.0018950417 0.00582839 0.0007999468 0.04304665
0.012256373 0.025144467 0.018473081 0.28061867 0.028847756 0.06608552 0.04275771 0.76482886
0.007480534 0.0021747558 0.0019435489 0.023813974 0.019507667 0.052351583 0.040702336 0.6740158
0.03550338 0.019928796 0.027753912 0.34809035 0.022320166 0.007972467 0.009000436 0.079928406
0.02973003 0.047221918 0.03575582 0.59451485 0.039280344 0.023176096 0.032021295 0.41988257
0.018331312 0.022623856 0.023956796 0.30201596 0.046228748 0.05964655 0.059504025 0.960656

exp_avg f4 [64]
00000000: 6c7c 75c0 949e 87c0 90f6 ae40 fb39 84c0
00000010: 2689 3fc0 a54b 4340 e78d 8dc0 b9d8 5d40
00000020: 1065 b840 e741 8140 457e 713e 533f 8dc0
00000030: 5426 81bf 6e69 c6bd 9156 97bf 47da b440
00000040: 6965 a140 7e7c 09c0 429e 8d40 491d a1c0
00000050: cdb6 01c0 75ce aebe 2498 afbf 5fee 97c0
00000060: b25d a0c0 1891 d7bf dc74 a7be 5a86 92c0
00000070: d96c 9c40 2d73 8240 d5ba be3f 5372 6740
00000080: 148b a540 ec54 b4bf eb0f 9dc0 ab4c cd3f
00000090: d112 7cc0 2241 4d40 dd64 95c0 632c 3d40
000000a0: 844e 3fc0 9b4e 9ec0 9b4f 883f c929 1140
000000b0: a9d9 a3c0 16c9 9e40 4109 94c0 d97b 9fc0
000000c0: 4b43 dbbf 429f a2c0 b6c6 53c0 c723 ad40
000000d0: 79d7 a540 3d7b dd3f 81a1 5340 0673 b5c0
000000e0: 66b0 50c0 3e3f 7140 0e92 b340 2e6e 8ec0
000000f0: 9661 acc0 45c1 b740 694f 55c0 4b3b bf40
-3.835719 -4.2381077 5.467598 -4.1320777 -2.9927459 3.051492 -4.423572 3.4663527
5.7623367 4.0392947 0.23583324 -4.41398 -1.0089822 -0.09688078 -1.1823293 5.651645
5.043629 -2.1482234 4.4255686 -5.034825 -2.0267823 -0.3414189 -1.3718305 -4.747848
-5.0114374 -1.6841154 -0.32706344 -4.5789003 4.888287 4.0765595 1.4900767 3.6163528
5.1732273 -1.4088416 -4.908193 1.6039022 -3.9386485 3.2071004 -4.6685624 2.9558342
-2.9891672 -4.9470954 1.0649294 2.2681754 -5.12032 4.9620466 -4.6261296 -4.983868
-1.7129911 -5.0819407 -3.3090034 5.4106174 5.182553 1.7303234 3.3067324 -5.670291
-3.2607665 3.769485 5.611579 -4.4509497 -5.3869123 5.7423425 -3.3329718 5.975988

exp_avg_sq f4 [64]
00000000: f619 243f 0a72 4c3f 863e 7d3f bc27 f63e
00000010: ad85 163f e9d7 a93e a59c 0b3f 80cc ad3e
00000020: cdb5 893f 6b00 2b3f cb95 ff3d c970 0a3f
00000030: e955 283e 52a7 0f3e 1440 123e 5531 813f
00000040: e5f4 3a3f 3fdd a03e 430f 393f 566e 3d3f
00000050: 5a23 483e ea13 203e 0a71 4d3e 421a 483f
00000060: d822 443f 6e77 3e3e 8528 1b3e 0ab9 4a3f
00000070: 0711 603f dd83 1f3f 0485 5c3e 7b52 b43e
00000080: cc07 723f 1193 2f3e aeae 543f a76e 5b3e
00000090: 6a64 243f b6c4 993e 73a8 373f 834c ed3e
000000a0: 8271 833e 1cb2 533f 10b9 313e 923b af3e
000000b0: 8e55 5a3f 8de3 813f dcc3 4e3f 8a30 403f
000000c0: a7ad 453e fe6f 483f d25f a13e c3e8 4b3f
000000d0: 5e72 493f 42ef 303e 7a3a fc3e 7f42 743f
000000e0: 0332 a53e c666 353f 2227 683f 4aba 0b3f
000000f0: b6a4 593f e8b0 763f fba8 213f 33fe 8d3f
0.64102113 0.7986151 0.9892353 0.4807719 0.58797723 0.3317254 0.54535896 0.33945084
1.0758606 0.6679751 0.124797426 0.54078346 0.16439022 0.14028671 0.14282256 1.009318
0.7302993 0.31418797 0.7228891 0.73996484 0.19544736 0.15632597 0.20062652 0.78165066
0.7661567 0.18600246 0.15152176 0.791886 0.8752598 0.6231058 0.21535116 0.35219178
0.9454315 0.17145945 0.8307904 0.2142893 0.6421572 0.3003289 0.7174141 0.46347436
0.25672537 0.8269365 0.17355752 0.34225136 0.85286796 1.0147568 0.8076761 0.75074065
0.19304524 0.78295887 0.31518418 0.7965204 0.78690135 0.1727877 0.49263364 0.95413965
0.32264718 0.70859945 0.9068471 0.5458113 0.85016954 0.9636369 0.6314847 1.10932

exp_avg f4 [64, 64]
00000000: bb3d 803e f265 923e 7a4d 65be b495 333e
00000010: 5909 8e3e ec58 f5bd 346b e43d b736 c6bd
00000020: 081f 82be ce0b 93be 2597 94bd c1e8 db3d
00000030: 35ec 9c3d dbcc 413d 7be6 36bd d12a 50be
00000040: b052 97bd 345f 753d 5286 85be b055 063e
00000050: 408c 983d 9738 cf3b 8892 193e 4b65 cb3d
00000060: c60c d23d 7ba8 c2bc 1bdc 1c3d c2e1 463e
00000070: 0d4c 62be daf5 10be 2953 18bd cea4 5fbd
00000080: 8b6a 7dbe 62a4 19bc 425d a23d 1ca3 e63c
00000090: ae75 253e 709f a6bd 121b d43d 8862 e1bc
000000a0: 6934 ba3d b1d5 e53d d8f7 73bc 0d2d 21bd
000000b0: abf7 623e 9a8e 8fbe 657a 103e 4a5f 053e
000000c0: d668 8ebc ed0a 4e3e a34b dc3d 8872 5dbe
000000d0: ee52 babd 304b bfbd c023 d3bc 7c80 643e
000000e0: 7fcd df3d b643 6bbd d836 5bbe 9349 d93d
000000f0: 1444 593e 8fae 82be a5e0 203e add5 a4be
00000100: 118b 963e 297a ce3e ea44 9fbe cc5e 653e
00000110: def9 b23e 3df0 26be 11d6 2a3e 077f 26be
00000120: 763c bbbe 8235 c8be 8429 cfbd 687b 2c3e
00000130: a23e c63d 8b46 883d 31bc b3bd 867a 93be
00000140: 0a4a d2bd 1d33 723d e8a3 9bbe 7892 3a3e
00000150: 4789 d03d 8c2f e93c 4f77 463e b11b 133e
00000160: 0f8b 1a3e ca46 063c d3de 513c 6362 833e
00000170: 4fb7 9dbe fc8d 50be 83ff bebc 82a6 e1bd
00000180: 0406 adbe f708 cf3c d4ee f13d 3ce4 fc3b
00000190: ff85 613e 5c24 08be 5cc2 1b3e f8a1 bbbc
000001a0: 0c1d 0f3e fe2f 253e 8a65 35bc 1c08 94bd
000001b0: 427d a13e 8b7d c7be 6f72 373e ac50 423e
000001c0: e3e9 823c 23f9 8e3e 8bf7 2f3e 0126 97be
000001d0: a00e febd c126 05be 5ad8 88ba b5bf 933e
000001e0: e480 2a3e 5a5b 8ebd 8be1 9abe 6da9 2f3e
000001f0: 79b4 923e 46af b8be 9c71 363e f183 e5be
00000200: 7601 653d bb72 8b3d a267 89bc 336e 2b3c
00000210: 159e c23d 031c 793d 9424 0ebd 7ca0 b13d
00000220: ac26 b03c a96e 99bd bd38 ea3c 126a 68bd
00000230: b8df ae3d 7664 3ebd c5ec e5bb 130b db3c
00000240: 8660 f73b 7fed 833d 5093 1dbd 120d 81bc
00000250: 143d 8ebd d486 093c 44cf 59bc dda5 363c
00000260: dbd9 adbc c19d ff3c c0a4 9c3d e557 303d
00000270: 36a2 18bd 1aa1 30bd 3628 98bd d53c a73d
00000280: a842 11bd b5e8 b03c 3cbe 513b 8d57 23bd
00000290: 495b 533d af75 123d 4281 8f3b 2a7f 0fbd
000002a0: 6325 e8bc 36cb 983b fde1 2dbd a6d7 36bd
000002b0: 6f08 65bc aa9a 36bd 4f52 e83c eda7 c7bc
000002c0: 34d5 24bc a147 6ebc c546 96bd 482b 883d
000002d0: 6779 3eb9 f4ec 823d c5db 87b8 b18c 1ebc
000002e0: 7169 85bd 5b6b dcbc af68 3f3d 932a c4bd
000002f0: b44b bdbc 49b1 4a3d c2cf 4d3d c780 ce3c
00000300: ab40 6f3d ceb9 8f3e a5bf 42be ff54 3b3c
00000310: f07e 0b3e d93b 48bc b1b3 9a3d 169d dbbd
00000320: 24c9 85be e8d6 69be 3eeb 3e3b 0a5d d53d
00000330: 0064 933d 34ab a9bc 94a3 79bd 2ade 3bbe
00000340: db18 3cbd e2db 203d 1d9b 2bbd b47f 853d
00000350: 535c 0abc 20fa 543d fb72 12bc 12d4 c73d
00000360: 53bd c93d 4be8 093e 5c89 17bd c2f8 fb3d
00000370: 9f6a 4ebe f7a6 2dbe f1fe 0fbc d3cb f9bd
00000380: d1f5 3cbe cf07 e73d f096 ae3d f04c 05be
00000390: 75b3 1a3e 421a 9fbd ffde dd3d 0e31 35bd
000003a0: 8a84 9e3d 1d16 e73d ed77 d7bc e5f1 00be
000003b0: 4438 5c3e 90c5 78be 4390 a83d fbac e43d
000003c0: 4889 e63d 8af0 fe3d 273b b63d 56f5 edbd
000003d0: 7170 23bd 4abb fa3a 14b2 0b3d 0a1a b73d
000003e0: a8f1 783d c998 8bbd bb30 2cbe fa59 153e
000003f0: 541b 073e 5bbd 5dbe 4238 3a3d 29c8 88be
0.25047097 0.28593403 -0.22392836 0.17537576 0.27741507 -0.11979851 0.1115326 -0.09678405
-0.254143 -0.28719944 -0.07255391 0.10737754 0.076622404 0.047314506 -0.044653397 -0.20328833
-0.07388818 0.059905246 -0.2607904 0.13118625 0.074486256 0.0063238847 0.14997303 0.099314295
0.102563426 -0.023761978 0.038295846 0.19422057 -0.22099324 -0.14156285 -0.037188683 -0.05460053
-0.24747674 -0.009377571 0.07927944 0.028153948 0.16158172 -0.08135879 0.10356726 -0.027512804
0.09092028 0.11222399 -0.0148906335 -0.039349604 0.2216479 -0.28038484 0.1410919 0.13024631
-0.017383974 0.20121355 0.10756614 -0.21625721 -0.09097849 -0.09340513 -0.025773883 0.22314638
0.10927867 -0.05743762 -0.2140764 0.10609736 0.21217376 -0.25523803 0.15710695 -0.32194272
0.29402974 0.40327576 -0.31107265 0.22399443 0.3495626 -0.16302581 0.16683222 -0.16259395
-0.36569566 -0.39103323 -0.1011534 0.16843951 0.09679915 0.0665408 -0.08776129 -0.28804415
-0.10268028 0.059130777 -0.30398488 0.18219936 0.101824336 0.028465055 0.1938145 0.14366032
0.15092109 0.008195588 0.012809473 0.25661 -0.30803916 -0.20366663 -0.023315197 -0.11018087
-0.33793652 0.02527283 0.11813131 0.0077176373 0.22023772 -0.1329512 0.15210861 -0.022904381
0.13975924 0.16131589 -0.011071572 -0.07228109 0.31540877 -0.3896297 0.17914747 0.18976086
0.015980667 0.2792445 0.17184274 -0.29521182 -0.12405133 -0.13003065 -0.0010440454 0.28857198
0.1665073 -0.06951018 -0.302502 0.17154475 0.28653315 -0.36071223 0.17816776 -0.44827226
0.055909596 0.068089925 -0.016773049 0.010463285 0.09502808 0.06081773 -0.034702852 0.08673188
0.021502815 -0.0749181 0.028591508 -0.05674178 0.08538765 -0.046482526 -0.0070167505 0.026738679
0.0075493483 0.06441783 -0.038470566 -0.015753303 -0.069452435 0.008393962 -0.013294045 0.011147943
-0.021222046 0.031203153 0.07648611 0.043052573 -0.03726407 -0.04312239 -0.07429545 0.081659
-0.03546396 0.021595338 0.0032004258 -0.039878417 0.05160073 0.035756763 0.0043794224 -0.035033382
-0.02833814 0.0046628965 -0.042451847 -0.044639252 -0.0139790615 -0.044581093 0.02835956 -0.024372065
-0.010060597 -0.014543445 -0.07337717 0.0664888 -0.00018165038 0.063928515 -6.478237e-05 -0.009677098
-0.06514252 -0.02690666 0.046730693 -0.09578433 -0.023107387 0.04948548 0.05024696 0.02520789
0.05841128 0.28071445 -0.19018419 0.011433839 0.13622642 -0.0122213 0.07553805 -0.10723321
-0.2613002 -0.22835886 0.0029131914 0.104181364 0.07196808 -0.020711519 -0.060947016 -0.18346468
-0.04592214 0.039272197 -0.041895974 0.06518498 -0.008444863 0.05199635 -0.008938546 0.09757246
0.09850564 0.13467519 -0.03699623 0.12303306 -0.2015786 -0.16958223 -0.00878881 -0.121970795
-0.18453147 0.11280786 0.08524883 -0.1301763 0.1510752 -0.0776868 0.10833549 -0.044236235
0.077401236 0.11283515 -0.026302302 -0.12592275 0.21505839 -0.24294114 0.08230641 0.11165806
0.11256653 0.12448223 0.08898001 -0.1161906 -0.039902154 0.0019129303 0.034105375 0.089405134
0.060777336 -0.06816251 -0.16815464 0.14585105 0.13194019 -0.21654265 0.045463808 -0.2671521

exp_avg_sq f4 [64, 64]
00000000: 4b27 a43b 67f3 bc3b 3055 5f3b de6b 7b3a
00000010: d37e ac3b 3d53 a43a bf50 123a 5d4a 613a
00000020: 569a a83b 3916 b03b 51c0 023a ccd7 543a
00000030: 311f d63a 0184 313a 5881 ac39 72ac 503b
00000040: c615 a239 3cbe a03a f8f8 aa3b 7c78 343a
00000050: a47a 8f3a a407 3e39 5af1 613a c46c 103a
00000060: e510 253a c084 373a 06fe 353a bd89 1a3b
00000070: 56af 5b3b 8722 dd3a d649 683a dd5e 083a
00000080: 4812 763b 7f6c 313a 6c33 9a39 b0fe 523a
00000090: 0e3a 0a3b e68e 9439 2230 173a 3d32 703a
000000a0: 096f 8a39 519b 5b3a f892 2a3a 345d 203a
000000b0: b504 773b c5e8 ab3b be75 d23a dd09 6f3a
000000c0: b297 8539 249b 023b 9ab7 513a 223c 6e3b
000000d0: 9cad a539 2f38 8e3a ac88 793a 908a 453b
000000e0: 5885 703a 6043 633a d619 623b 203f de3a
000000f0: 3221 4c3b f215 a73b 8a6e 2a3b b6fd fc3b
00000100: be78 e83b ac45 393c 7362 de3b 510f c93a
00000110: ba60 033c a4f0 063b c53e a33a 1ab7 033b
00000120: c7c0 383c a654 1f3c 23d1 443a 273f fd3a
00000130: 36ae 0f3b 5540 773a d8dd 033a 7699 df3b
00000140: b8f6 233a b1c2 d83a 98da f03b 054e b33a
00000150: 8660 d93a 27a7 8839 f445 b23a b014 9b3a
00000160: 3367 c03a eee1 7c3a 3467 363a bd2b 853b
00000170: f0d1 d73b dc5f 583b bc30 883a bb5c bb3a
00000180: 1ad5 e73b 1693 763a 58ee 373a fb23 983a
00000190: 6261 773b 8b83 373a 2c9f ac3a 671a b73a
000001a0: 284e 303a 2ea8 ee3a bd01 5b3a d20a 8b3a
000001b0: fe6f 043c 3c04 273c 4c93 2c3b 29d3 083b
000001c0: 68f8 c139 5c63 843b 4dcf e53a f508 e73b
000001d0: a047 1e3a 184d db3a ec74 a83a 938b ab3b
000001e0: 409f e83a 3b8c bb3a d1fc ee3b 1712 843b
000001f0: b4a6 c43b ecd8 313c d04b 6d3b 1db5 813c
00000200: ab68 8c39 6ccd 8739 a505 8a37 55ea ef36
00000210: 6d8a 193a e257 9d39 3c4c fd38 b2d0 113a
00000220: 76b3 3638 ceb8 a839 ac36 e638 ae78 8939
00000230: 11a8 0b3a d5eb 5739 3596 b837 93d2 6a38
00000240: e05e c636 a081 b639 1dd0 1a39 4ee2 0a38
00000250: bb79 c039 a662 6b36 ffcb 5638 4779 be36
00000260: fcb5 2b38 2e1f 4538 22b6 f039 4547 e738
00000270: 5320 a438 901a e438 36d4 e539 dc54 f839
00000280: fb19 8f38 be0a b237 0d2b ff35 c74f dd38
00000290: 70d2 2c39 9332 0e39 f617 1636 094c 1239
000002a0: 9fcb 9e38 f1d4 eb35 6eb0 3839 55a8 f338
000002b0: aaf9 b437 4a96 e438 8280 7f38 aaec 6e38
000002c0: 1911 7737 6054 0338 fd6d e239 beb3 a039
000002d0: 72be 0036 5a10 b339 7a0a ce37 b10a 3237
000002e0: a52e b839 2d63 9838 d4bd 2939 5fdf 213a
000002f0: aedb 2a38 9872 3a39 750c 6939 64f4 7138
00000300: d471 cc39 e92f be3b 95b3 4a3b 15c2 fa36
00000310: c8d7 a63a 2a71 9739 0384 333a ee62 f63a
00000320: 1b99 db3b fd87 723b a045 7c38 7718 be3a
00000330: 5b87 cb39 1850 dd38 023b 2739 1f6a 693b
00000340: 046e 7339 ab23 6339 b380 9239 0ca3 ee39
00000350: 6e0b 6e39 22c0 1139 e4ea 4f38 ace6 413a
00000360: ccd9 853a 8391 8d3a 4be7 d339 3c0f 913a
00000370: 1b44 513b b4da 083b 9241 3339 411f 0c3b
00000380: d786 2f3b 2892 423a 7514 193a 06b2 8f3a
00000390: 943f d73a 15ff 2c3a 6e7d 7e3a 22a5 8539
000003a0: 1460 233a 90ef 903a bf1f e238 223c 833a
000003b0: 8e6a 933b faf9 963b 4124 163a be60 ac3a
000003c0: b709 7c3a fce6 cb3a 98f6 a83a 5abd 113b
000003d0: cbb4 1539 7d59 6539 456d 2838 b323 7b3a
000003e0: 6839 4a3a f51b e439 d648 5d3b 1071 583b
000003f0: d694 033b d0d0 af3b 7a20 8339 6cd6 ed3b
0.005009567 0.0057663205 0.0034077875 0.00095909636 0.005264142 0.0012537014 0.000558149 0.000859415
0.0051453514 0.005373743 0.0004987764 0.00081193144 0.00163362 0.0006771684 0.00032902765 0.0031841067
0.0003091527 0.0012263726 0.0052176677 0.00068844086 0.0010946584 0.00018122658 0.0008619033 0.00055093714
0.0006296768 0.0007000677 0.00069424545 0.0023580634 0.0033521256 0.0016871252 0.00088611 0.0005202124
0.0037547518 0.00067681813 0.0002941148 0.00080488157 0.0021091732 0.00028335227 0.0005767365 0.00091627595
0.0002640414 0.0008377331 0.00065068854 0.0006117404 0.0037692015 0.005246254 0.0016056818 0.0009118596
0.0002548076 0.0019928897 0.0008000076 0.003635176 0.00031600602 0.0010850484 0.0009518962 0.0030142404
0.0009175143 0.00086694025 0.0034500263 0.0016956069 0.0031147716 0.0050990516 0.0026005828 0.0077206744
0.0070944717 0.011308115 0.0067866384 0.0015339648 0.008018667 0.002059021 0.001245462 0.002009815
0.01127643 0.009724772 0.00075079704 0.0019321189 0.0021923906 0.00094318885 0.0005030311 0.006823714
0.00062547205 0.0016537515 0.007350277 0.0013679868 0.0016584552 0.0002606448 0.001360117 0.0011831727
0.0014679193 0.0009646703 0.00069581275 0.004064052 0.006586306 0.003301612 0.00103905 0.0014294604
0.007074964 0.0009406073 0.0007016412 0.0011607403 0.0037747254 0.00070004974 0.0013169996 0.001396966
0.00067255134 0.001820808 0.0008354446 0.0010608083 0.008083342 0.010193881 0.0026332913 0.0020877814
0.00036996906 0.004040165 0.0017533094 0.0070506283 0.00060378946 0.001673135 0.0012852228 0.0052351444
0.0017747656 0.001430876 0.0072933217 0.004030477 0.006001318 0.010854941 0.0036208518 0.015833432
0.00026780865 0.00025902258 1.645351e-05 7.150035e-06 0.0005857114 0.0003001085 0.0001207818 0.0005562409
4.3559317e-05 0.00032181147 0.00010977438 0.0002622059 0.0005327473 0.00020591852 2.2004455e-05 5.598606e-05
5.9119047e-06 0.00034810323 0.00014764113 3.3112527e-05 0.0003671179 3.507515e-06 5.1211562e-05 5.67656e-06
4.0939063e-05 4.69975e-05 0.00045912067 0.00011028213 7.82615e-05 0.00010876835 0.00043836393 0.0004736547
6.8236106e-05 2.1224256e-05 1.901151e-06 0.00010552961 0.00016481592 0.00013561016 2.236569e-06 0.0001395197
7.5719545e-05 1.7570839e-06 0.00017613333 0.00011618497 2.1573931e-05 0.00010899881 6.091642e-05 5.6964032e-05
1.4726328e-05 3.1311414e-05 0.00043188027 0.00030651496 1.918434e-06 0.00034153723 2.4561992e-05 1.0612116e-05
0.00035129968 7.266398e-05 0.00016187812 0.00061749475 4.073575e-05 0.00017781032 0.00022225252 5.7686484e-05
0.0003899472 0.005804051 0.0030929793 7.4731747e-06 0.0012729103 0.00028885278 0.00068479794 0.0018797794
0.006701601 0.0037007325 6.0146325e-05 0.0014503141 0.00038820025 0.0001055302 0.00015948343 0.0035616232
0.0002321527 0.00021661694 0.00027943178 0.00045516377 0.00022701707 0.00013899853 4.9571405e-05 0.00073967385
0.0010212003 0.0010800812 0.00040417383 0.0011067162 0.0031931463 0.002088231 0.00017095197 0.0021380933
0.0026783252 0.00074222917 0.0005839535 0.0010963089 0.0016422146 0.00065992895 0.00097080215 0.0002549077
0.00062322733 0.0011057723 0.00010782433 0.0010012428 0.0044987863 0.0046074362 0.0005727448 0.001315139
0.0009614485 0.001555651 0.0012890873 0.0022238106 0.00014277098 0.00021872479 4.0156086e-05 0.000958021
0.00077142427 0.00043508378 0.0033765337 0.0033026375 0.0020077727 0.0053654686 0.00025010464 0.007258227

exp_avg f4 [64]
00000000: 3083 6f3d d36a b03d 7611 763e 2608 8b3d
00000010: 40f3 0a3d cbb6 833e e521 8e3e 9841 663e
00000020: 91d0 563d bc38 85be 7e58 52be f583 54be
00000030: cdff 963e cd90 0dbd 0d05 6c3e fda6 11be
00000040: 71ac 093e 2f6c 15be 4cf8 053b 10a9 d23e
00000050: 1b2d 8bbe 8c32 593e 2ab6 4b3d dfbe 833e
00000060: 3777 453e 67b5 70be a5b6 eb3d 2aeb 80bd
00000070: 4820 8e3d a304 463e 2d03 50be 890f 07be
00000080: 7cde 5cbe 593a 96bd f7fc 093e 13c8 493e
00000090: 266d f8bd ae5b 7e3e 3fca 74be 44bc 7abe
000000a0: 38da 973e 49f3 bbbe 3ed1 5b3d 055e ecbe
000000b0: 0d38 a43d dd5d 0d3e e556 44be 333f 6ebe
000000c0: d29e abbe 1dea 893e dcfe 033f 16a4 23be
000000d0: d43e 8b3e d2c5 893e 44f9 bb3e befc 72be
000000e0: d091 03be 06b8 7fbe 99fc 163e 8831 08be
000000f0: 784c 5a3d 8e08 6b3a 9def 5c3e 2875 373e
0.05847472 0.08614125 0.24030098 0.067886636 0.033923388 0.25725397 0.27760234 0.2248596
0.052445 -0.26019847 -0.2054157 -0.20753463 0.29492036 -0.03456192 0.23048802 -0.14223857
0.13444687 -0.1459205 0.0020442186 0.4114461 -0.2718285 0.21210688 0.049734272 0.2573156
0.19283758 -0.235067 0.11509446 -0.06294854 0.06939751 0.19337706 -0.20313711 -0.1318952
-0.21569246 -0.07335348 0.13475405 0.19705229 -0.121301934 0.2483966 -0.23905276 -0.2448588
0.29658675 -0.3670905 0.053666346 -0.4616548 0.08018503 0.13805337 -0.19173773 -0.23266296
-0.33519608 0.26936427 0.5156076 -0.15980563 0.27196372 0.26908737 0.36713612 -0.23729226
-0.12848592 -0.24972543 0.14744796 -0.13300145 0.053295583 0.00089658133 0.2157578 0.17915785

exp_avg_sq f4 [64]
00000000: 06f7 de3b 35a3 2d3c ce10 533b 21a7 053b
00000010: 58a2 f13a d5fb 373b 6ea8 8b3b cc6a 4e3b
00000020: 873e 313b 6b93 223c ffd1 003b f046 b63b
00000030: 02f4 6f3b 6779 6939 83b7 e53a 09f5 593b
00000040: c38b 293b 73f0 263b 3e49 053a 46fa 003c
00000050: 8a95 663b 5646 523b 27bb ef3a e26c 4a3c
00000060: 889a 943b 7d1e 8c3b a03c 8e3b 0fe5 003b
00000070: 0486 bd3b a8ac ea3a 8f7d 2d3c 0d3f 2b3c
00000080: 5e57 f03b 4f82 b23a 768f 1e3b 94ec 183c
00000090: fab4 453c 5c15 213b a235 6a3b 2a84 833b
000000a0: 9536 633c 1b9f 293c 8e4a a23a 746d 243c
000000b0: 8915 8a3a e334 1e3b cdf7 9b3b e384 313c
000000c0: 34cc c33b 2fd3 973b 094e 713c cc8a 843b
000000d0: b687 f83b 84df 873b ffc8 0b3c 3287 133c
000000e0: 94ac f83b effa 953c 8e97 ae3b 42c4 9b3a
000000f0: cfc9 b539 35bb 173b 4695 523b 500e 843b
0.00680435 0.010597994 0.0032206061 0.0020393806 0.0018435223 0.0028073688 0.0042620217 0.0031496761
0.0027045326 0.0099228425 0.0019656417 0.0055626556 0.0036613946 0.00022265837 0.0017526004 0.0033257625
0.0025870658 0.0025472909 0.00050844613 0.00787217 0.0035184347 0.003208538 0.0018290029 0.012355061
0.004535023 0.0042760954 0.004340723 0.001966778 0.005783798 0.0017904239 0.0105890175 0.010452044
0.0073346337 0.0013619157 0.0024194396 0.009333748 0.012067074 0.0024579382 0.0035737534 0.004013558
0.013867994 0.010352875 0.0012381838 0.010035861 0.0010534982 0.002414041 0.0047597648 0.010834905
0.0059752706 0.0046333293 0.014728078 0.004044866 0.0075845374 0.004146518 0.008531808 0.009004401
0.0075889323 0.018308131 0.0053281253 0.0011884051 0.0003467337 0.0023152356 0.003213243 0.0040300265
