hw2/data/lb_rtg_na_CartPole-v0_16-06-2019_20-39-51/11/model.pkl (torch_old, 40470 bytes, 24 tensors)

weight f4 [32, 4]
00000000: c47c 523f 5bba 133f c0d2 04bf 8107 3dbf
00000010: 1698 c03e 8edb 4b3f 9456 4bbf 0544 5bbf
00000020: ea48 37bf 4b6b 6cbf a0e5 b43e 92ef 113f
00000030: 2e04 273f 488d 523f 6aa9 03bf bcef 5cbf
00000040: f1bb 12bf 0a32 21bf fc19 293f 4b33 3a3f
00000050: 69ac 4c3f a2e6 633f dd84 63be 68fd 1fbf
00000060: 1620 0cbe 690b 13be d131 783f c583 6c3f
00000070: 4353 ae3e 24a5 0c3f 8216 7dbf 9786 72bf
00000080: ba89 50bf e00d 41bf 00c0 ea3e 72d9 713f
00000090: f865 1dbf 0911 24bf f6e3 103f 5327 c63e
000000a0: 959f bd3e 6927 4a3f 1347 4ebf aaab 3ebf
000000b0: f343 273f 5bee 813f af25 39bf 8007 19bf
000000c0: 57fe 1e3e 5c8b 6d3e 1bb2 14bf 9bed 45bf
000000d0: d9cb 123f fcd5 503f 683c a7be 43d7 80bf
000000e0: 7732 c2be 4543 74bf e5f1 0e3f 0f9b 273f
000000f0: a232 8abe d61e 54bf 6e99 483f f4af 643f
00000100: e2bf 94be aca3 0ebf 8f22 4f3f aa41 343f
00000110: 6a4a 113f 7f23 1a3f 9dda 7fbf 739d 64bf
00000120: 1479 a13e ef56 1d3f 643d bdbe bc36 7ebf
00000130: 11bb 6b3f 3ffa 7c3f 84cf 56bf 5176 2bbf
00000140: 2228 3b3f c9ef 663f 5da3 6fbf 2f01 1cbf
00000150: 2fa0 753f b42f 6a3f 9ec2 7cbf 432d d9be
00000160: a943 463f 7753 523f e8e8 41bf f35a 26bf
00000170: c3a1 8a3e 05d9 33bd d467 f2bb 45c9 8f3d
00000180: c688 01be d575 8a3e da1e 073f 7283 d63e
00000190: 1747 3ebe 8159 933d 55c6 fa3d 39e4 f13e
000001a0: 75c4 3bbf 0f91 80bf b670 2a3f 786d 843f
000001b0: 9469 19be d8f5 78be 2718 053f da4c 4a3f
000001c0: 2580 3d3f bb11 c23e db6d 67be 37b8 0abf
000001d0: 9944 3c3f 9569 313f 5fe8 ebbe 0e08 49bf
000001e0: 9567 17bf 5282 ffbd e28b 193f deaf b03e
000001f0: ae7a d93e ddd7 4b3f cd68 eabe e889 78bf
0.8222163 0.5770623 -0.5188408 -0.73839575 0.37616032 0.7963189 -0.7942898 -0.85650665
-0.71595633 -0.92351216 0.3533144 0.5700618 0.6524075 0.8224683 -0.5143038 -0.86303306
-0.57318026 -0.6296698 0.66055274 0.72734517 0.7995058 0.8902379 -0.22218652 -0.6249604
-0.13684115 -0.14359821 0.96951014 0.92388564 0.340479 0.54939485 -0.9886247 -0.9473662
-0.81460154 -0.75411797 0.4584961 0.9447242 -0.61483717 -0.64088494 0.5659784 0.38701877
0.37035814 0.78966385 -0.805772 -0.7448069 0.6533806 1.0150865 -0.72323126 -0.5977707
0.1552671 0.23197693 -0.5808427 -0.7731568 0.57342297 0.81576514 -0.32663274 -1.0065693
-0.37929127 -0.95415145 0.5583785 0.65470976 -0.26991755 -0.8285955 0.78359115 0.89330983
-0.29052645 -0.55718493 0.8091211 0.70412695 0.5675417 0.6021041 -0.9994295 -0.8930275
0.31537688 0.61460775 -0.369609 -0.9930227 0.92082316 0.98819345 -0.83910394 -0.6697741
0.7310811 0.90209633 -0.9360865 -0.60939306 0.95947546 0.9147904 -0.9873446 -0.42417344
0.7744699 0.8215861 -0.7574601 -0.6498253 0.2707654 -0.043908138 -0.007397631 0.07020811
-0.12649831 0.27043024 0.5278145 0.4189716 -0.18581806 0.07194806 0.1224486 0.47244433
-0.73346645 -1.0044268 0.66578233 1.0345907 -0.14981681 -0.24312532 0.5198998 0.79023516
0.7402366 0.37904152 -0.226005 -0.5418734 0.7354217 0.6930173 -0.46075723 -0.78527915
-0.5914243 -0.124760285 0.5997907 0.34509176 0.4247641 0.79626256 -0.45783082 -0.9708543

bias f4 [32]
00000000: c1fa 91bd 569e 44bd bfd9 6abd a29f 3ebb
00000010: bc52 093c 1ed4 88be d694 073e aa15 47be
00000020: e6ea 6d3d 93b6 a83e 5625 1ebe 57a8 abbe
00000030: 22b8 b3bd e1ff 0c3b 0d15 4d3e 0b6e 283e
00000040: 106b 683e b5f9 3abe b5fb 76bd d863 71bd
00000050: 754b 5ebd c60f 5e3d 72cb ddbd 850c 68be
00000060: d9c5 193e 027b 973e 0ef6 5ebc 5ac3 ff3d
00000070: 7e2a 82bd 514b fdbd cbb8 c03e d8a0 35be
-0.07127906 -0.048002563 -0.057336565 -0.0029086848 0.008381542 -0.26724333 0.1324037 -0.19441858
0.058085345 0.32951793 -0.1544393 -0.3352687 -0.08775355 0.002151482 0.20027561 0.16448228
0.22697091 -0.18259318 -0.06029864 -0.05893311 -0.05427118 0.05421426 -0.1082982 -0.22661026
0.15016879 0.29586035 -0.013608469 0.12488432 -0.06355761 -0.12367881 0.37640986 -0.17737138

weight f4 [32, 32]
00000000: 0d27 cfbe 531e 4cbf 4717 da3e 7388 aebe
00000010: 658a 9d3e 2785 aebe d1ce c53e a7ef 40bf
00000020: c39f 1b3f 15c4 85bd d4d7 11bf b894 0abf
00000030: 3e37 1fbf 4bfc e6be 51c6 0d3f 1256 3c3f
00000040: fe40 953c 6d0c 2ebf 1378 aabe 442c 4dbf
00000050: c765 3ebf 868d 51be e85c 33bf 67bf 8f3e
00000060: 6ac5 a4bd 2ce4 08bf 81fd 1e3f 3927 823e
00000070: 5103 da3e 861d b6be 6234 41be 94ba 5abf
00000080: 584d 63bf 7a22 22bf aa66 b43e d062 adbc
00000090: 30fc 1abe 1337 92bd 6368 fd3e 5ce2 35bf
000000a0: b14a f73e 0af2 91be 815e 2abf d357 24bf
000000b0: 9cd1 e5be 8e51 e8be 88ed 6b3c de82 513f
000000c0: e799 46bd dea6 11bf e30e 3bbf 21ce 32bf
000000d0: 68ec 51bf 581f 14bf 259c cdbe dd04 cb3e
000000e0: 6359 2cbe e79e 77be 2d19 403f e9fa 813d
000000f0: 4fb9 0b3e e248 bdbe cbf4 e5be 5978 d5be
00000100: e64b 1b3f 17eb fc3e e51d 903e 337d 233f
00000110: fb83 c5be 022f cf3e 4810 25bf 7bba 7abe
00000120: ec1b abbe 2efa adbe eaeb 373e 154f bdbe
00000130: 1bdf 353f ddda c13e 56db ed3e e52f bc3d
00000140: 336d 0abf fd91 ef3c 7cd3 e73e 2557 9e3e
00000150: 5115 043f c1d1 36be 86f9 e73d 8984 b03e
00000160: 3b53 a4be 3b57 ccbe e71c bbbe af60 afbe
00000170: b2ed 1a3f 0f57 363f 50ec 48bf 8797 153f
00000180: 0fb8 dcbe f876 45bf 9a28 2c3f 782b d2be
00000190: 1078 25be 18f3 68bc 6d52 543f ad61 5fbf
000001a0: 7c56 383f 0366 88be ea02 0bbf 557f 1ebf
000001b0: 26e9 56be 2a62 4dbf 6b0f 9f3e 170d 2e3f
000001c0: 1beb b03e 5fd0 37bf 2f87 64bf 7b78 6abf
000001d0: 11be e9be a939 35bf c629 1abf 511d af3e
000001e0: 12f2 e4be 0a2b a2be fe8c 283f 7719 573e
000001f0: 166b 60bd 248c f2bd 075d 35be b529 59bf
00000200: 2232 1f3f 4269 1d3f 7625 f83e d72a 693e
00000210: f095 f5be e01e 053f b54c 33be de24 eabd
00000220: 1e8f 62be 5fc4 9cbe 94d6 c1bc 94a2 2fbe
00000230: c687 0f3f 2fd1 173f 11b2 b73e 0c1b 96be
00000240: 5d41 3dbe f98b b2bc 0fdb 223e 9098 023f
00000250: 7cef 733e 6d99 04bf 9695 0a3f a67e 9e3e
00000260: 45f2 17be 0958 17bf 300e 29bf c4b7 d0be
00000270: 8732 0d3f 5b29 863e 7369 a8be 8380 f73d
00000280: 6056 f83e 5a54 4c3f b3fe 1ebf 7565 bd3e
00000290: 8edb efbd dd92 703e b707 80be 7e0b 063f
000002a0: 1a80 98be 4b91 cd3d be03 1b3f 0927 303f
000002b0: 51e6 843e cb8b 563f c7d0 8cbe b928 05bf
000002c0: 3a21 9fbe c006 513f f1b4 353f 5262 b03e
000002d0: 233e 4e3f e1b4 393f 356f 4f3f 9828 03bf
000002e0: 26d3 063e 2840 f23e b166 26bf 4419 fcbe
000002f0: d779 63be 9942 6a3e f994 c93e f3dc 3f3f
00000300: b05e b53d bacb d63d 9820 1a3f 43b6 163f
00000310: 318b d6be 1dfe e93e b392 45be 9325 59be
00000320: 18fe 03bf 864c b7be 1931 86be 2d79 5fbe
00000330: 8d72 d93e b9aa 973e ec25 403f bd49 9b3e
00000340: f72a 1fbe f563 5bbe 0403 dd3e 4b04 953e
00000350: 994c 873e 5c54 ccbe b7d7 053f a916 2b3f
00000360: 0efa bebe a241 15bf b021 b1be 32e1 ccbe
00000370: 26f6 2d3f a1fa ad3e b8b5 91be d1d4 1dbc
00000380: aa3d aabe 28a5 e2be 8239 27be aa3d d1be
00000390: 8a5e d03e 4b32 5bbf d9a3 edbe 5bf5 173f
000003a0: ae1a 293f 0980 d93e 096b d83e 52b8 4d3e
000003b0: fc7b 00bf feac 62bf c634 d4bd 50f5 133d
000003c0: 6ecd 2e3e 6b33 363e 1819 bbbe 6941 20bf
000003d0: adef 96be 25c7 aa3e 809d fabe f430 cfbe
000003e0: a717 383e fe7c 003f 8af4 0e3f bfa1 053f
000003f0: 75a2 dcbe 371a ddbe c29e f93e 9ed0 bc3e
-0.4045948 -0.7973377 0.42595884 -0.34088477 0.3076965 -0.34085962 0.3863435 -0.7536568
0.6079065 -0.0653154 -0.5696995 -0.54133177 -0.6219367 -0.4511436 0.5538073 0.7356883
0.018219467 -0.6798771 -0.33294734 -0.8014567 -0.7437405 -0.20464143 -0.7006364 0.28075716
-0.08045466 -0.5347316 0.62105566 0.2542055 0.42580655 -0.355694 -0.18867639 -0.85440946
-0.8878989 -0.6333386 0.35234576 -0.021165282 -0.15135264 -0.07139411 0.49493703 -0.7104852
0.48299173 -0.28504974 -0.6655045 -0.6419651 -0.44886482 -0.4537472 0.014399894 0.8184031
-0.048486616 -0.56895244 -0.7306959 -0.6984578 -0.8200135 -0.57860327 -0.4015819 0.39652148
-0.16830973 -0.2418171 0.75038415 0.063466854 0.13644908 -0.36969668 -0.44913325 -0.4169338
0.60662687 0.4939811 0.28147808 0.63862914 -0.38577256 0.40465552 -0.6447797 -0.24485199
-0.3341974 -0.33979934 0.17961088 -0.36974397 0.71043557 0.37862292 0.46456403 0.09188823
-0.54072875 0.029244417 0.45278537 0.3092586 0.51595026 -0.17853452 0.1132689 0.34476116
-0.3209475 -0.39910302 -0.36545488 -0.3425345 0.60518944 0.7122659 -0.78485584 0.5843434
-0.43109176 -0.77134657 0.67249453 -0.4104879 -0.16159081 -0.014218114 0.8293827 -0.87258416
0.72006965 -0.2664033 -0.5430132 -0.61913043 -0.20987377 -0.8022791 0.3106645 0.67988724
0.3455437 -0.71802324 -0.89268774 -0.9159009 -0.45652822 -0.7079111 -0.6021999 0.34202054
-0.44715935 -0.3167346 0.65840137 0.21005808 -0.054789625 -0.11843136 -0.17711268 -0.84829265
0.6218587 0.61488736 0.4846608 0.22770248 -0.47965956 0.52000237 -0.1750973 -0.11432813
-0.22124907 -0.3061857 -0.02366189 -0.17151862 0.5606655 0.59303564 0.3587804 -0.2931751
-0.18481965 -0.02179526 0.15903877 0.5101404 0.23821825 -0.5179661 0.541345 0.30956
-0.14838512 -0.59118706 -0.66037273 -0.40765202 0.55155224 0.26203427 -0.3289295 0.120850585
0.485034 0.7981621 -0.6210739 0.36991468 -0.117117986 0.23493524 -0.25005886 0.52361286
-0.29785234 0.10037478 0.60552585 0.6880956 0.25956967 0.8380706 -0.27503034 -0.5201526
-0.31080037 0.81650925 0.7097922 0.34450012 0.80563563 0.72541624 0.81029063 -0.51233816
0.13166484 0.47314572 -0.65000445 -0.49238026 -0.22214447 0.22876967 0.3937147 0.74946517
0.08855951 0.104880765 0.60205984 0.5887186 -0.4190307 0.45701686 -0.19294243 -0.2120574
-0.5155959 -0.3580057 -0.26209334 -0.21823569 0.42470208 0.2962244 0.75057864 0.30329695
-0.15543734 -0.2142485 0.43166363 0.29104838 0.26425627 -0.3990811 0.5228228 0.6683145
-0.37300152 -0.5830327 -0.34596014 -0.4001556 0.6795372 0.33980277 -0.28458953 -0.009633259
-0.3325017 -0.4426663 -0.16330531 -0.40867358 0.40697128 -0.85623616 -0.46414068 0.5935876
0.66056335 0.42480496 0.4226916 0.20089844 -0.50189185 -0.88545215 -0.10361628 0.03612262
0.17070553 0.17793052 -0.36542583 -0.6259981 -0.29479733 0.3335506 -0.48948288 -0.40467036
0.17977773 0.5019072 0.55841887 0.5219993 -0.43092695 -0.43184063 0.48753935 0.36877912

bias f4 [32]
00000000: 8454 a03e 9645 c53e a872 943e 4714 903e
00000010: 6bae a13e 61a3 73be a8a0 a33e b0d4 86be
00000020: 211d cfbe 848e f73e 24ae 663e ecd7 773e
00000030: d37a 4ebe 2d7b a2be f777 b9be 3130 ae3e
00000040: c540 a1be 6f02 3dbe 243d 433e 9d8a 983e
00000050: 5764 babe fb55 28be 97e5 35be 220c bebe
00000060: 59d1 4b3e 6c89 c93e dad5 b3be 8d05 d6be
00000070: 7aec ecbd d612 97be febd 953e 0eb0 8abe
0.3131448 0.38529652 0.28993726 0.2814047 0.31578383 -0.23792793 0.31958508 -0.26334143
-0.4045191 0.48350918 0.22527367 0.24203461 -0.20164041 -0.317346 -0.36224338 0.34021142
-0.31494728 -0.1845796 0.19066292 0.29793254 -0.36404678 -0.16439049 -0.17763363 -0.37118632
0.19904079 0.39362657 -0.35124093 -0.4180111 -0.11568542 -0.29506558 0.29246515 -0.27087444

weight f4 [32, 32]
00000000: 25c8 1fbf a0e6 1abf 8ae5 cb3c e813 64bf
00000010: a361 103e e69b 393f e37d fcbe 12de 0dbf
00000020: 4c0a f73e 7dc5 823e 8b4a 4cbf 680e d6be
00000030: d528 ef3e 0e11 7dbe 5ac4 f63e 664d 233e
00000040: 1141 cd3e c1a8 ba3e 308e c23e 005c 45bf
00000050: 3c5f 313f 72b4 15bd 187b c23e 82e3 093f
00000060: 0909 22bf f687 1b3e ca5d e4be ba06 013f
00000070: f2f8 823e 39e4 8ebe 4e1c d93d c086 a93e
00000080: c384 2dbf e047 31bf 98e4 f73a cc32 55bf
00000090: 1705 d33e 1303 683f 9a07 87bd d621 f2be
000000a0: 3219 da3e 9d90 dabd 57c9 febe f25d 5dbf
000000b0: e76c 163f e32d 8ebe a19c 2b3e 2b85 d33e
000000c0: 1f76 673e 34bd e83e 31c3 863e ecb2 3cbf
000000d0: 8bf0 433f 73a1 593d 9a48 a93e d10d 1d3f
000000e0: ca24 8bbe b1e3 bdbd 7253 85be 5175 133f
000000f0: 3b18 2f3f f16b e73d 2207 a2bc ce45 263f
00000100: e740 24bf fce9 fdbe faf7 313f ce05 39bf
00000110: 9ff6 023f 9c92 433f 8746 f7be 459b f7be
00000120: 55ae 4f3f fcd5 7f3e d9ec f5be ab76 8fbe
00000130: 4337 9bbe ed0c 0ebf 5aec f93d b5b1 383e
00000140: eb7d 68bc 86e0 cfbe 0441 423f d324 f6be
00000150: bc81 40be a4a2 d7be c184 263f 5258 503f
00000160: b3df e5bd 56bb 853e 790a a3be 260c 5d3f
00000170: 7660 5e3e fc04 eebe 67f3 503f 6dd9 973e
00000180: c3e8 f23e 07f9 973e 5b1f 303f 0188 083f
00000190: 7cc9 cb3d 76f1 bcbe 47a2 823e efcc e9be
000001a0: 3566 49bf 0065 b63e 6f8b 803e 8d68 943e
000001b0: 40d0 46bf f0ea a9b8 23f8 06bf 7ca5 1bbc
000001c0: ec84 25bf ebf2 d2be 2345 bbbe e8e9 213f
000001d0: 22e6 c9be cb3a a9bd 8aa9 1cbf fa5d 37bf
000001e0: 9876 313f ca44 4b3e aac5 193e 869f 3cbf
000001f0: b78d eebe 15b3 1ebf b3c1 bb3e fa25 15bf
00000200: a25d 23bf c2ac 45bf 4019 b83d b0ea 28bf
00000210: 1754 f53e 20c5 ae3e 9e93 04bc 9286 bbbe
00000220: 81d8 513f 0ec2 383e 2e44 2bbf 9eb2 47bf
00000230: 0d62 cd3e 8c3e b0bd f9d5 543e b0d0 d73e
00000240: 3374 033f 6c08 703e 3f46 f83e 97e7 adbe
00000250: 6bb7 fc3e 8c41 14be c748 8b3e 410d 2f3f
00000260: c871 0fbf de71 43be 617d fabe b126 033f
00000270: 6d79 403f ad9d a63e d09c 043f ccbd 5a3f
00000280: 7278 3ebf a706 aabe 9169 013f 6704 54bf
00000290: d098 c13e 41e0 e93e 8396 9abd 5ae4 87be
000002a0: 34cf 0e3f 5cf6 1f3e ba5c 60bf d7b7 12bf
000002b0: 7357 00bc 69a0 d1be 6758 a73e 6ade 8d3e
000002c0: 255c 673e 15ee d3bc d1f4 843e a634 58bf
000002d0: 6839 ab3e 4b87 38be 452d 4c3f 9b74 f43e
000002e0: 6b68 1cbf 7514 563e d5a5 c1be df97 673f
000002f0: 024b b13e 05cb c5be 00c7 e43d 1c89 5d3f
00000300: 56fb 4abf 62fa 94be 1b1f d3be b1b9 8fbe
00000310: 207e 09bf 6228 8f3e 9c66 10bf b8c7 c33e
00000320: afda be3e 561e bfbe 8f85 e4be 7177 debe
00000330: 5c1b 883e de16 3d3f 66e0 e73e a12b 0cbf
00000340: fae7 a13e c7ca 0b3f 7b7b 863e 7c70 edbe
00000350: aa9e f53e 7185 2b3f e5f9 4b3f 4338 7a3e
00000360: 15f7 cabe 7bf9 ddbe 4324 083e 76c7 2e3f
00000370: 6a54 933e 7ea2 123f 76e7 03bf 848e 843e
00000380: 03b3 0c3f cd90 323f b08b 593e f3ce 283f
00000390: 611f 90be a3c0 debe 8a45 0ebc 0035 b53e
000003a0: 04a6 ebbe a01d 68be bbf3 083f aa2f d03e
000003b0: 9caf 83be 30b2 ce3b 0f60 40be 9fc1 c7be
000003c0: 6660 20bf a9bc 24bf 5468 89be 709d 183f
000003d0: 6a15 6abe 1a1f ebbe 80b1 f9be 3b61 5dbf
000003e0: a684 f63e 89f5 b73e 917c 0d3f 41ee 25bf
000003f0: 42f2 11bf 7c99 c4be a058 94bc 0689 2bbf
-0.6241477 -0.60508156 0.024889726 -0.89092875 0.14099745 0.7250351 -0.49314794 -0.5541698
0.48250043 0.25541297 -0.79801244 -0.41807866 0.4671084 -0.24713537 0.4819668 0.15947494
0.40088704 0.36456874 0.37999105 -0.77093506 0.6928594 -0.03654904 0.37984538 0.53862774
-0.63295037 0.15188584 -0.44602805 0.5040089 0.25580555 -0.27908495 0.10601102 0.3311062
-0.67780703 -0.692503 0.0018912731 -0.83280635 0.4121482 0.9062969 -0.06593247 -0.4729144
0.42597347 -0.10672114 -0.49762985 -0.86471474 0.5875992 -0.27769384 0.16758968 0.41312537
0.22603653 0.4545685 0.26320794 -0.73710513 0.76538914 0.053132486 0.33063203 0.6134921
-0.27176505 -0.09271944 -0.26040226 0.57600886 0.6839635 0.11299885 -0.019778792 0.64950264
-0.64161533 -0.49592578 0.6951901 -0.7227448 0.51157564 0.76395583 -0.48295996 -0.4836065
0.81125385 0.24983972 -0.48032263 -0.28020224 -0.303156 -0.55488473 0.122032836 0.1803654
-0.014190177 -0.40600985 0.75880456 -0.4807497 -0.1879949 -0.42116272 0.65046316 0.81384766
-0.11224308 0.26119488 -0.31843928 0.8634666 0.21716484 -0.46488178 0.816214 0.2965807
0.47443208 0.2968218 0.68797845 0.53332525 0.099505395 -0.3690297 0.25514433 -0.45664164
-0.7867158 0.35623932 0.2510638 0.28986016 -0.77661514 -8.1023085e-05 -0.52722377 -0.009499904
-0.6465595 -0.41200957 -0.36576185 0.6324754 -0.3943339 -0.08263167 -0.61196196 -0.7162777
0.69321585 0.1985046 0.15016809 -0.73680913 -0.46592495 -0.6199201 0.36671218 -0.5826107
-0.6381475 -0.7721673 0.08989191 -0.65983105 0.47915718 0.3413477 -0.008091835 -0.36626107
0.81970984 0.18042776 -0.6690091 -0.78006923 0.4011387 -0.0860568 0.20784749 0.42151403
0.5134918 0.23440713 0.48491094 -0.33965752 0.49358687 -0.14478129 0.27203962 0.683796
-0.5603299 -0.19086406 -0.48923782 0.51230913 0.7518528 0.32542172 0.51801777 0.8544586
-0.74402535 -0.332082 0.50551707 -0.8281922 0.378119 0.45678905 -0.07548239 -0.26541406
0.55784917 0.15621322 -0.8764149 -0.5731177 -0.0078333495 -0.40942696 0.32684633 0.2770875
0.22593744 -0.025870362 0.2596803 -0.84455335 0.33442235 -0.1802036 0.79756576 0.47745213
-0.6109683 0.20906241 -0.37821832 0.9046611 0.3462754 -0.38631454 0.11170769 0.8653734
-0.7928976 -0.29097277 -0.4123467 -0.2807136 -0.53708076 0.27960497 -0.5640657 0.3823831
0.37276217 -0.37327832 -0.44633147 -0.43450502 0.26583374 0.7386302 0.4528839 -0.5475407
0.31622297 0.5460629 0.26266083 -0.4637488 0.47972614 0.6700049 0.79678184 0.24435525
-0.39641634 -0.433544 0.13295083 0.68273103 0.2877534 0.57279193 -0.51525056 0.2588998
0.5496065 0.697522 0.21244693 0.6594078 -0.2814894 -0.43506345 -0.008683572 0.35391998
-0.46025097 -0.22667551 0.53496903 0.40661365 -0.25719917 0.0063078627 -0.18786643 -0.3901491
-0.6264709 -0.6435037 -0.2683741 0.5961523 -0.22859731 -0.45922166 -0.48768234 -0.86476487
0.48148078 0.35929516 0.552682 -0.6481667 -0.5701028 -0.3839835 -0.018108666 -0.67005956

bias f4 [32]
00000000: 7daa babe a105 c3be 7275 d7be ef45 083f
00000010: 9e19 54be 0c84 a1be d434 14be fd35 b03e
00000020: 415d 933e 2e54 9bbe 72f5 bc3e 8ed6 eb3e
00000030: 6d99 dc3e b98d 7bbe fd10 cebe dfa7 debe
00000040: d4d5 ffbe bda4 b33e 5b30 c8be 54b8 bb3e
00000050: 52b1 98be e561 d6be 5fd4 9ebe 79aa 89be
00000060: fe59 a0be f8d4 6a3e c0e3 82be a17a b63e
00000070: 7fe8 383d 2069 6dbe 4831 bc3e 6735 063f
-0.36458197 -0.38090232 -0.4208179 0.5323171 -0.20712897 -0.31546056 -0.14473277 0.3441619
0.28782085 -0.30337662 0.3690601 0.4606213 0.43085805 -0.24565782 -0.40247336 -0.4348745
-0.49967825 0.35086623 -0.39099392 0.3666407 -0.29822785 -0.41871563 -0.310214 -0.26887873
-0.3131866 0.22932804 -0.25564384 0.35640433 0.0451436 -0.23184633 0.3675635 0.52425236

weight f4 [2, 32]
00000000: 2fd4 913e f3fb 283f 6b04 6d3f e7a2 be3e
00000010: f457 e13e 038a e13e ad0d 04bf 930e a7be
00000020: db86 02bf af24 f63e d161 73bf fbf7 ddbe
00000030: f83e 45bf 8bc5 7dbe 7a7b 383f 2889 c23e
00000040: c0a1 603f 9fe1 ac3d df96 2e3f 0d20 1abf
00000050: 7710 083f 0fb0 2e3f 6409 42bf e27b bebd
00000060: 7f9d 123f 20c4 173f 3b80 8cbd 6620 23bf
00000070: c023 813d 411e 4d3e 1c0f 41bf 80f0 86bd
00000080: 97a9 19bf c540 38bf a987 51be 43f6 8cbe
00000090: 7067 41bf fb17 d2be f3b6 b23e 80c2 2d3f
000000a0: 0ff8 013f 9696 e0bd ce31 603f 73b1 393e
000000b0: 6bcb 5b3f 6d15 df3c dd09 08bf acb0 32bf
000000c0: 3e91 f9be 20b2 98be 3ab5 b6be 4149 a03e
000000d0: ec9e 24bf 448d f9be 9f88 eb3d 55a4 9cbe
000000e0: 8780 63bf daa6 95be 478e e83e 504e 303f
000000f0: 52ef 13bf 92a2 3abf 8304 563f 1b29 873e
0.28482196 0.66009444 0.92584866 0.3723366 0.44012415 0.44050607 -0.5158337 -0.32628307
-0.50987023 0.48074862 -0.9507113 -0.43353257 -0.7704921 -0.24782388 0.7206341 0.37995267
0.8774681 0.08441471 0.6819896 -0.60205156 0.53150123 0.68237394 -0.7579558 -0.093009725
0.5727157 0.5928364 -0.068603955 -0.6372131 0.06305647 0.20031072 -0.7541368 -0.065888405
-0.600244 -0.7197383 -0.20461906 -0.27531633 -0.7554846 -0.4103392 0.34905204 0.6787491
0.5076913 -0.10966222 0.87575996 0.18134098 0.85857266 0.027231896 -0.5314005 -0.6980083
-0.48743623 -0.298234 -0.3568514 0.31305888 -0.64304996 -0.4874059 0.11500668 -0.30594125
-0.8886799 -0.2922886 0.4542105 0.68869495 -0.5778705 -0.7290431 0.83600634 0.26398548

bias f4 [2]
00000000: e522 cfbe 46ba cb3e
-0.4045631 0.39790553

exp_avg f4 [32, 4]
00000000: 8e5f 1cbd 7237 a4bd a125 873d 839a 893e
00000010: 21af 1fbd a72c a7bd 40b1 893d 4153 8c3e
00000020: 1f09 053d c628 9d3d 000b 87bd d48a 8dbe
00000030: 53c1 b4bc 2c7d 47bd 770c 1b3d f427 263e
00000040: f6b9 253c e04c 903c 6e42 80bc d716 83bd
00000050: b8cd 7dbc 840a efbc 9486 063d 56a2 033e
00000060: 026e 1c3d 3724 aa3d 7adb 6ebd 3f61 7bbe
00000070: 2be0 38bd 29a3 cebd 06c3 973d 0570 a03e
00000080: 8a26 443d 54f7 ce3d 3edb acbd ba43 b1be
00000090: fb03 413c 1056 b63c 4709 63bc 5ecf 85bd
000000a0: 273c e5bc d5e2 62bd de5a 4e3d 174b 4c3e
000000b0: 9920 4fbd d782 eebd 9bbf cb3d c1b6 d63e
000000c0: c839 febc d5d4 7abd 60f0 453d dde8 493e
000000d0: 73a4 1ebd 8e8e adbd 6c94 8f3d 31a4 953e
000000e0: 7554 af3c 86d2 313d eb4a 2dbd 2a97 29be
000000f0: b3f9 603d 9c3f f13d 231c bfbd 50ad c6be
00000100: a1b9 1a3c 4825 993c 4b39 88bc c2a6 8abd
00000110: 11f8 44bd 6b37 cabd dc06 a33d d61d a73e
00000120: 84c9 49bd 9988 d0bd 87e0 ad3d dba0 b13e
00000130: caf7 69bd 49ab f7bd 69ab d03d 41a7 d73e
00000140: c991 38bd f2fd cfbd 7496 a43d cfea ab3e
00000150: 2f54 14bd 37f1 abbd 6cf6 943d 5460 9c3e
00000160: 2a1e 53bd 5ff5 f0bd cc56 bc3d 1210 c73e
00000170: aa41 e93b 9570 063c 27bb 73bc f547 4bbd
00000180: d2a9 823a f9b0 bcba c79a 9d3a a80c 9e3a
00000190: ab01 2f3b 7bee e13a 131b ccb7 931b 93bb
000001a0: 1c32 5a3d 07e7 df3d 22e3 c2bd bf9b c7be
000001b0: a349 833c 1d2e de3c ba79 cbbc dfdd ccbd
000001c0: be76 8dbb 56a2 cbbb 4c12 4e3b 1195 923c
000001d0: a7af b7bc 94e6 36bd d911 1c3d 7b28 1f3e
000001e0: bfd5 1a3c 2aa3 6e3c 61a0 e1bb e783 17bd
000001f0: 40d3 8ebd 8012 27be a622 023e b6eb 0a3f
-0.038177066 -0.08018388 0.06598974 0.26875696 -0.038985375 -0.08162814 0.06723261 0.27407268
0.0324794 0.076737925 -0.06593895 -0.2764498 -0.02206484 -0.048703358 0.037853684 0.16226178
0.010115137 0.017614782 -0.015656676 -0.06400841 -0.015490942 -0.029179819 0.032843187 0.12854895
0.03819085 0.08307689 -0.058314778 -0.24548815 -0.04513566 -0.10089714 0.07410245 0.31335464
0.047888316 0.10105768 -0.08440255 -0.34621984 0.011780734 0.022257835 -0.013857192 -0.06533693
-0.027982784 -0.055392105 0.050379626 0.1995052 -0.050568197 -0.116460495 0.09948655 0.41936305
-0.031033412 -0.06123813 0.048324943 0.19717737 -0.03873105 -0.08474456 0.07010731 0.2922683
0.021402577 0.04341366 -0.042307775 -0.16561571 0.05492563 0.11779711 -0.093315385 -0.38804102
0.009443671 0.018694535 -0.016628882 -0.06770088 -0.048088137 -0.098738514 0.07960293 0.3263995
-0.049264446 -0.10182304 0.08490091 0.34693035 -0.057121076 -0.12093217 0.10188944 0.42119792
-0.045060907 -0.10155858 0.08036509 0.33577582 -0.036213096 -0.083956175 0.07273564 0.30542243
-0.05154244 -0.11765551 0.09196243 0.38879448 0.0071184235 0.008205553 -0.014876164 -0.04962917
0.0009968823 -0.0014396004 0.0012024277 0.0012058215 0.0026703875 0.001723721 -2.4331302e-05 -0.004489371
0.053270444 0.10932737 -0.095159784 -0.38986012 0.016026324 0.027121598 -0.024838317 -0.10003256
-0.0043171337 -0.0062144203 0.0031444011 0.017893346 -0.022422625 -0.04465349 0.03810296 0.15542786
0.009450375 0.0145652685 -0.0068855737 -0.036991026 -0.069738865 -0.16315651 0.1270853 0.54265916

exp_avg_sq f4 [32, 4]
00000000: b966 8738 6a03 b139 a795 1d39 b2db 3a3b
00000010: bdd4 8f38 4dde b939 5066 2739 1cd6 463b
00000020: 16a5 4638 4ac3 a539 cad7 4239 d024 6e3b
00000030: 18d5 f137 9583 3639 caf8 9b38 8dd9 c93a
00000040: d6a8 d836 01bd e537 289d 5537 c0e1 8039
00000050: ed48 6137 df48 9638 e377 4c38 3c13 6a3a
00000060: 164a 7e38 1c28 ad39 13f1 f738 b4ca 1a3b
00000070: d0c4 be38 b083 063a d130 5c39 3d03 893b
00000080: 10ee de38 390a 0f3a aa58 8f39 a1ca a83b
00000090: 6031 5a37 cb8c 4538 6937 ca37 598b f139
000000a0: 9019 0b38 58ba 1a39 4f09 b338 0871 c33a
000000b0: d4c1 0339 f4bb 3c3a 7fca f539 4e33 123c
000000c0: bbb9 3038 315c 4639 6c93 ac38 b663 c93a
000000d0: fcfb 9d38 6911 e839 5333 5a39 7493 873b
000000e0: b9cf 9f37 5f3a ba38 8d55 7c38 c02b 863a
000000f0: 213d 1139 8c8d 3a3a 69e7 b239 00c4 d53b
00000100: 8218 a736 eb5c e737 ef7e 5937 947b 8339
00000110: 03a0 db38 5b96 fe39 8bd4 7839 102d 903b
00000120: a28b eb38 9c43 103a e696 9139 4dc4 a93b
00000130: d4af 2239 ec7b 553a 98a5 e339 3513 073c
00000140: 13e3 c138 707d 133a 1e75 7e39 e3f4 9e3b
00000150: 4c3c 7838 f834 c739 926b 7339 2c22 943b
00000160: d0e7 0439 059f 4a3a b42e b639 d23c e53b
00000170: d83a 0536 87ca 1437 5c8a c036 3a77 a038
00000180: dcdb 0536 83b9 df36 e645 8936 8498 8938
00000190: e246 2736 e00d e736 db47 8b36 f292 9138
000001a0: 355e 1639 a149 383a ae2b ce39 4371 f03b
000001b0: 04e2 6d37 63ca 4b38 8718 fc37 b8b1 0a3a
000001c0: 97ba 8036 41a2 5337 7859 d836 f417 fc38
000001d0: fba0 d637 8b43 0839 1b82 7338 337d 933a
000001e0: 76ab 2c37 5c2f d637 4e23 8137 2ac2 8c39
000001f0: 74f3 7c39 d5aa c23a 594e 403a 5de8 6f3c
6.456435e-05 0.00033762614 0.00015028437 0.0028512296 6.858397e-05 0.00035451577 0.00015964475 0.0030340021
4.7360627e-05 0.00031616754 0.0001858167 0.003633786 2.8828668e-05 0.0001740589 7.4373165e-05 0.0015399918
6.4569567e-06 2.738694e-05 1.273238e-05 0.0002458226 1.3428024e-05 7.166131e-05 4.8749043e-05 0.0008929258
6.0627317e-05 0.00033027015 0.000118227814 0.0023619356 9.096565e-05 0.00051313173 0.0002099902 0.0041812942
0.000106301275 0.00054565404 0.00027341145 0.0051511084 1.3005309e-05 4.7099584e-05 2.4106079e-05 0.00046070924
3.316399e-05 0.00014756003 8.537119e-05 0.0014911005 0.0001256534 0.0007199638 0.00046880913 0.008923365
4.2134645e-05 0.00018917095 8.2290586e-05 0.0015364799 7.533279e-05 0.0004426346 0.0002080922 0.004137451
1.9051005e-05 8.8800436e-05 6.0161157e-05 0.0010236427 0.0001385105 0.0007116429 0.0003412322 0.006523609
4.979841e-06 2.7580614e-05 1.2963762e-05 0.0002507834 0.00010472538 0.0004855868 0.00023730301 0.004399903
0.00011231682 0.00055032386 0.00027768983 0.0051808716 0.00015515025 0.0008143771 0.0004342019 0.008244325
9.245253e-05 0.00056262966 0.00024266957 0.00485097 5.9183963e-05 0.00037995703 0.00023214359 0.004520675
0.00012674858 0.0007729384 0.00034748542 0.0069957757 1.9852796e-06 8.868642e-06 5.738153e-06 7.651602e-05
1.994652e-06 6.6675143e-06 4.0910554e-06 6.561077e-05 2.4926198e-06 6.8859517e-06 4.150888e-06 6.9415095e-05
0.0001434021 0.00070300145 0.00039323926 0.0073377206 1.4178924e-05 4.858746e-05 3.0052162e-05 0.00052907644
3.836419e-06 1.2614358e-05 6.447717e-06 0.00012020758 2.558575e-05 0.00012995132 5.8056885e-05 0.0011252522
1.029192e-05 2.5532841e-05 1.5394438e-05 0.00026847544 0.00024123286 0.0014851937 0.00073358935 0.014642802

exp_avg f4 [32]
00000000: a358 92be da41 88be c625 d43e 2271 413e
00000010: 8fe8 26be 90f3 563d 098f 9b3e 4ae9 b5be
00000020: e24d 953e 29c5 c4be f195 ccbe ab15 c4be
00000030: f993 40be 1f6e 4fbd a05b bd3e d064 be3e
00000040: b9b7 e8bd 2f4e bfbe afb2 8cbe c943 67be
00000050: b0b6 98be eb3b d7be a194 69be 9e92 8d3e
00000060: 024c bebe 3b2c a4be ca76 803d 8845 0ebe
00000070: ad62 ae3e 3499 513d 246b cfbe 4c01 a0be
-0.2858325 -0.2661274 0.4143507 0.18890813 -0.16299652 0.052478373 0.30382565 -0.35529548
0.29160982 -0.3843167 -0.39958146 -0.3829778 -0.18806447 -0.05064213 0.36983967 0.3718629
-0.11363167 -0.37364337 -0.27480075 -0.22584452 -0.2982688 -0.420379 -0.22810604 0.27650923
-0.37167364 -0.32064995 0.06272657 -0.13893712 0.3405966 0.051171497 -0.4051143 -0.3125099

exp_avg_sq f4 [32]
00000000: c94a 8d3b c19d 883b 658b a63b 087a 993b
00000010: c01a 183b 47dd a63a 6823 8a3b 5f8d a93b
00000020: d2b6 b33b 2b8c 003c e260 9b3b 9ecf b23b
00000030: e17f 273b a57d 873b d226 833b cc41 e63b
00000040: e709 cb3a 4736 c53b 0eae b83b 68e9 e03b
00000050: 22ad a73b 58f2 ad3b 7d93 c03b f293 273b
00000060: f900 bf3b 7121 8f3b f5b7 f83b 45c2 333b
00000070: 5d0c ac3b 907d 2e3b f3d9 fa3b 38a1 0d3c
0.0043118936 0.0041691964 0.005082535 0.0046837367 0.0023209304 0.0012730741 0.0042156465 0.0051743235
0.0054844404 0.007845919 0.004741774 0.005456879 0.00255584 0.004134851 0.0040024305 0.0070268866
0.0015490622 0.0060184333 0.0056359833 0.0068637617 0.0051170746 0.0053084306 0.005876957 0.002557036
0.0058289734 0.004368 0.0075902888 0.0027429026 0.0052504973 0.0026625134 0.007655376 0.008644395

exp_avg f4 [32, 32]
00000000: 9b79 673c bc5f 033d d6e9 dcbc c4c6 cf3c
00000010: d6c1 88bc 4d19 d53b fce7 e7bc 5ce0 403d
00000020: fc3e 2dbd 545e 093c 6b9c 1d3d 93b7 073d
00000030: 06ab 093c f36d 1e3d 97d3 06bd 1707 31bd
00000040: 2dee fcbb f45d 513d e45e 053d a07d ee3c
00000050: 5c59 903c fc46 e53c c027 8d3c f2c4 0fbc
00000060: c768 9e3c 4c72 7f3c c901 72bd f809 17bc
00000070: aa45 32bb 09ec 9a3c fe15 9c3c df90 483d
00000080: c388 f73b 776e b23c dac3 b1bc 371b 9b3c
00000090: 6740 13bc 0f9d c53b 126d 60bc 9227 f93c
000000a0: 46a9 edbc 40ec 103c b4a7 c73c 13f9 b73c
000000b0: 2022 1cb8 7675 e03c 3165 b9bc c811 ebbc
000000c0: 4473 cbbb 07c3 003d ad19 b13c f1d1 ae3c
000000d0: c062 5a3c c998 b83c 8b07 563c 9a77 b4bb
000000e0: f5ad 8d3c 6fa1 823c 8bc0 27bd 5653 92ba
000000f0: c89e 60bb abaa 3d3c 2d9e 913c 2f43 063d
00000100: 453c d8bb d700 a9bb 2e64 1cbc e250 65bc
00000110: c271 ba3c 8f97 03bb 9757 033c 32af 0e3b
00000120: 4200 ad3b 7a09 413c addf a13b db3b 3b3c
00000130: 97ea 49bc c138 3fbc 493b 56bc f616 4a3a
00000140: 1e4e 8a3b 85b7 8dbb 9023 d7bb 4407 8dbb
00000150: a1af 42ba e67c 283c f5e7 4aba fbbc bbbb
00000160: d5da 903c 5166 803c 7b6c 653c 9a26 a63c
00000170: 9c99 a3bc ebbe 5ebc 9ff1 203c 2444 41bb
00000180: bb13 7a3c 7e86 113d 1084 f2bc 891c eb3c
00000190: 1390 96bc 357a e93b 4450 febc f53f 573d
000001a0: 0086 40bd 6786 253c 31cd 2a3d e722 153d
000001b0: 2072 0b3c e646 313d 2771 11bd 6d7f 43bd
000001c0: 2a43 18bc a915 663d 75db 123d 549e 053d
000001d0: ffaa a23c 8481 003d 0baa 9f3c a8dc 04bc
000001e0: 2a6c af3c f189 933c 626d 87bd 8ae1 1ebc
000001f0: 3263 56bb 08d6 a83c c9dd af3c 2845 5e3d
00000200: d4b8 b0bb 9ed4 78bb 237c 0ebc ad5c 78bc
00000210: 9d4b bb3c 4dc1 22bb 6c89 593b d4a7 d03b
00000220: 9fd4 613b 14c9 333c 90e6 053c 32b9 733c
00000230: ebcf 16bc 5635 37bc 2fbf 7dbc f038 1cbb
00000240: 1eb0 563b 7d16 bb39 6c63 9fbb 8425 8ebb
00000250: a874 2fba e5bd 183c 81b8 b9b9 28f1 9cbb
00000260: 17a5 8c3c b1a0 623c 8051 523c c220 963c
00000270: 4c97 acbc 3753 56bc 61fa 033c 6faa 013a
00000280: e8ac a5bc 5eb1 28bd c3cf f63c 5f45 0cbd
00000290: 5dc3 df3c 88da 0bbc 0423 1f3d 2eae 6ebd
000002a0: 50b1 5c3d d085 babb 2f4c 43bd d5ac 1fbd
000002b0: 8bcb 7fbc 7d55 4fbd 0f41 1c3d eb8d 5e3d
000002c0: 7718 273c ef13 87bd e0da 2dbd 0c76 16bd
000002d0: 53fb b0bc 43b4 fbbc c469 adbc 8797 233c
000002e0: 6e8c 97bc dc95 59bc b4c6 9c3d 8c23 963c
000002f0: a7ca 19bb 233d e3bc e9bf 9ebc b73a 7ebd
00000300: 97c7 eab8 af24 b0ba 0db1 d7bb d74e d7bb
00000310: a66b f53b ebce 9fb8 a930 e63a a5dc bb3a
00000320: 11a5 923a 620a 023b 26db e43b 3033 f63b
00000330: c026 2cbb f1fc a4bb 43b3 26bc 43d9 9dba
00000340: 6f1a cb3b bf24 e23a ba9e d4ba d18e 7dba
00000350: ef92 1aba 19a8 bd3b 7ce1 a3ba 2e81 17bc
00000360: ee90 123c 13e5 a93b 3c76 933b 7d41 d23b
00000370: eef8 eebb 906d 59bb 6b09 473b d785 edb8
00000380: 651b 103b ad47 133b 3990 fd3b 4a08 763c
00000390: 3e70 97bc 2470 403b 2a93 143b 3fcd 0cbc
000003a0: e0f7 f6ba 4ce9 e7bb 8ed2 47bc 6fc8 82bc
000003b0: 731d 593b 1d04 2a3c 96e4 8e3c c268 973b
000003c0: c40c b9bb bd55 b8bb 17fa 2f3b 2e23 853b
000003d0: 6499 ae3a 6639 febb c917 b33a 3d61 083c
000003e0: 929b 6cbc 8c66 14bc 0d21 2cbc 4eda 4abc
000003f0: faad 953c 3a9e 203c 4b23 8dbb da40 26bb
0.014128114 0.03207372 -0.02696697 0.025363334 -0.01669399 0.00650326 -0.028308861 0.047088966
-0.042296395 0.008384306 0.03847925 0.033134054 0.008402592 0.038679074 -0.03291663 -0.043219652
-0.0077188225 0.05111499 0.032561198 0.029112637 0.017620735 0.02798795 0.017230868 -0.008774983
0.019337071 0.015591215 -0.059083734 -0.009218685 -0.0027202168 0.018911378 0.019053455 0.048966285
0.007554145 0.02178119 -0.021699835 0.018933875 -0.008987523 0.0060306857 -0.013697879 0.030414376
-0.02901138 0.008845389 0.02437196 0.022457635 -3.722508e-05 0.02739976 -0.02263126 -0.028695002
-0.006208809 0.031435993 0.021618688 0.021340342 0.013329208 0.022533791 0.013063322 -0.0055074217
0.017294863 0.015946118 -0.040955108 -0.0011163752 -0.0034274329 0.011576335 0.01777562 0.032778915
-0.0065989816 -0.005157571 -0.009545369 -0.013996335 0.022759322 -0.002007935 0.0080164885 0.0021771905
0.0052795717 0.011782045 0.0049399943 0.011427845 -0.012323997 -0.011671246 -0.013075658 0.000770911
0.004220738 -0.0043248557 -0.0065655187 -0.0043038446 -0.00074266834 0.010283684 -0.0007740253 -0.0057293153
0.017682472 0.015673788 0.014002915 0.020282079 -0.019970708 -0.013595323 0.009823232 -0.0029490078
0.015263493 0.035528652 -0.029603988 0.02870013 -0.018379247 0.007125164 -0.031044133 0.05255123
-0.047002792 0.010102845 0.041699592 0.03641024 0.008511096 0.043280505 -0.0355083 -0.047728945
-0.009293357 0.056173 0.03585382 0.032621697 0.019856928 0.031373516 0.019490262 -0.008109249
0.021413881 0.018010112 -0.0661266 -0.009697327 -0.0032712934 0.02060987 0.02146806 0.05426517
-0.005393127 -0.0037968527 -0.008696589 -0.015158814 0.022863204 -0.0024834455 0.0033193482 0.006367663
0.0034459007 0.010973234 0.008172646 0.014875697 -0.009204845 -0.01118215 -0.015487476 -0.0023837648
0.0032758783 0.00035684175 -0.004864147 -0.0043379683 -0.00066931034 0.009322618 -0.00035423416 -0.0047894903
0.017168565 0.013832257 0.012836814 0.018326167 -0.021068238 -0.013081363 0.0080553 0.0004946356
-0.02022405 -0.041184776 0.030128365 -0.034245845 0.027314836 -0.008535989 0.038851753 -0.05827158
0.053880036 -0.005692221 -0.047680076 -0.038983185 -0.015612493 -0.050618637 0.038147982 0.054334562
0.010198704 -0.06595599 -0.042445064 -0.036733672 -0.021604216 -0.030725604 -0.021168597 0.009984857
-0.01849958 -0.013280358 0.07655087 0.018327497 -0.0023466737 -0.027739113 -0.01937862 -0.062067714
-0.00011195166 -0.0013438667 -0.0065823854 -0.0065706777 0.0074896393 -7.620252e-05 0.0017562109 0.0014332725
0.001118811 0.0019842614 0.0069841323 0.0075134262 -0.0026268214 -0.005035036 -0.010174575 -0.0012042898
0.0061982195 0.0017253383 -0.0016221621 -0.00096724654 -0.00058965286 0.005787861 -0.0012503113 -0.009247107
0.008945687 0.0051847785 0.0045001786 0.006416498 -0.0072928583 -0.0033176877 0.0030370604 -0.0001132597
0.0021988985 0.0022473142 0.00773814 0.015016625 -0.018486138 0.0029363716 0.0022670724 -0.008593856
-0.0018842183 -0.0070773717 -0.012196196 -0.015964715 0.0033129125 0.010376957 0.017442983 0.0046206424
-0.0056472737 -0.005625455 0.0026851946 0.0040630316 0.001332086 -0.0077583073 0.0013663705 0.008323965
-0.014441388 -0.009057652 -0.010505927 -0.012381149 0.018271435 0.009803349 -0.0043071858 -0.0025368244

exp_avg_sq f4 [32, 32]
00000000: 4a99 5037 933a 6138 4b3b 8138 8ceb 1338
00000010: e7dd 0838 4310 2636 8cf1 9338 b60b 4239
00000020: 266a cd38 77fe 0437 086f 3639 4af4 3339
00000030: 3739 0637 4358 8238 3d07 3939 2b1d 1239
00000040: 6ef2 d936 e9f0 5c39 0962 6b38 7ead 1f38
00000050: c6aa 7837 609d 7c38 bc6c 7637 c690 e337
00000060: 91ae 9238 a3d8 ce37 ae58 2139 d486 5d37
00000070: e12f 4838 bd85 8f37 065d a837 ecf5 2a39
00000080: 0b70 3f36 dc47 b537 99c4 2938 58b6 c137
00000090: cc0d ce37 8571 0836 2869 9337 2827 a738
000000a0: 953a 2c38 5b6f 0337 26c3 ad38 629f c838
000000b0: 2326 9c34 9495 ed37 22ca d438 7c95 7d38
000000c0: ed09 9236 5129 a938 0dc8 b237 459a 9a37
000000d0: 2f33 0337 df34 2538 4c12 0337 c8c4 8a37
000000e0: ca28 6238 5ac9 c637 b05a 8638 5f69 2f37
000000f0: 8107 1f38 ee93 f436 b614 9437 8b56 9138
00000100: 2f8b 9b36 7786 8636 1ba1 ee36 ad9d a737
00000110: c039 4438 dce6 0135 4467 0637 5f16 6d36
00000120: 8774 aa36 c285 3537 9d75 ec36 1998 6f37
00000130: e55c 5c37 58ba 7a37 67a2 9737 d7b1 4d36
00000140: deba 0836 b7de 0637 18b6 bf36 7922 4136
00000150: 8ac2 9334 f050 0237 4afc 7734 caf7 9236
00000160: 88f5 d237 4ee4 9937 4357 c537 55e6 1238
00000170: 2980 1138 7115 9237 fe79 d936 fe26 9236
00000180: 947d 6e37 dae3 8838 74a5 9d38 4dc6 4038
00000190: 5830 3138 c299 4a36 6c87 b338 f924 7239
000001a0: dd63 fb38 4fea 3d37 6710 5b39 3af0 5c39
000001b0: e7bb 1037 9a59 a338 7c4a 6039 3b96 3139
000001c0: 947d 1437 b64e 8539 af25 8d38 05ca 4638
000001d0: c4f1 9c37 fd8c 9f38 91b2 9c37 5f5d 0538
000001e0: d839 b838 7299 0938 ec3e 4939 885a 8c37
000001f0: 62e4 8238 a3e1 ab37 ba23 d837 5e90 5039
00000200: 1776 4136 5553 d835 a5b8 c836 fb22 7d37
00000210: 7e52 1538 4362 1235 644a 4036 ff3e a136
00000220: 8439 0236 a264 1c37 a67f 1037 40df 8b37
00000230: b39d f236 14ed 0e37 9cfe 9f37 8847 1d36
00000240: 77e0 9e35 fbcd 9c36 25d3 2436 8e7d cf35
00000250: dc5c 9f33 5f2c de36 5807 1533 7d8c 7636
00000260: 16b4 aa37 7ab3 6837 c392 4d37 f622 c737
00000270: f570 fd37 b58e 5037 0c5e a636 562e 0e36
00000280: 6c1c e937 42b6 c738 1b98 a238 c951 6b38
00000290: 2774 5538 404f 8a36 099c 0a39 4382 9439
000002a0: c366 3139 7a2e cf36 5242 8739 cc49 7139
000002b0: 62cd cf37 8522 f338 fd09 7339 5cf0 6a39
000002c0: 7290 1737 5275 b939 7c3b d838 0124 8938
000002d0: 10c8 c537 202d 9938 9e11 c437 37d5 1138
000002e0: 73a3 9c38 1211 b637 0580 9439 568b de37
000002f0: 07c3 4838 b936 2138 8479 ad37 63c6 8d39
00000300: 4b4b b632 ff36 0235 f56b 7736 e603 f636
00000310: e48c 0c37 1cd1 4933 c216 8034 6a32 8834
00000320: 2d2e 0135 a36c c634 85b6 b436 590b e936
00000330: d062 1735 3a02 9936 85a0 4437 cc7f fc33
00000340: fb52 9036 0a75 9d34 2247 1b35 8d49 0535
00000350: 2092 2d34 66e2 3236 5a08 ae34 22f6 1037
00000360: 013c 0c37 61d4 1a36 89bc 9936 281b a336
00000370: 64a8 f536 e126 0036 b9a0 1735 9bdc a333
00000380: 037c e334 aef6 b634 4c60 8c36 94d3 5937
00000390: 8388 ad37 a510 4235 f483 1935 5097 ac36
000003a0: 42ae b534 c3ab 8436 3eb1 2037 19bb 7c37
000003b0: 9c0e 6535 474a cd36 1ff8 9c37 c854 da35
000003c0: f771 0136 9e7f 2c36 268f 0335 56d9 8335
000003d0: 94d4 dc33 9ac3 9236 ab76 f133 8ba3 a036
000003e0: 08ad 5a37 d7e3 c336 9060 d136 4e3b 2137
000003f0: 67cf ad37 0c1f cd36 2429 d635 48dc 4235
1.24334565e-05 5.369873e-05 6.1622435e-05 3.52669e-05 3.263159e-05 2.4745393e-06 7.054498e-05 0.00018505644
9.7949334e-05 7.92706e-06 0.00017398235 0.00017161775 8.000344e-06 6.215323e-05 0.00017645671 0.00013934511
6.4953265e-06 0.00021070581 5.611967e-05 3.807013e-05 1.4821713e-05 6.022805e-05 1.4688059e-05 2.7127924e-05
6.994338e-05 2.4657993e-05 0.00015387192 1.3204019e-05 4.7728307e-05 1.7109205e-05 2.0070478e-05 0.00016304076
2.8526435e-06 2.1610344e-05 4.0475836e-05 2.3092303e-05 2.4563538e-05 2.0331656e-06 1.7572733e-05 7.970474e-05
4.1062554e-05 7.834135e-06 8.285632e-05 9.5664305e-05 2.9085012e-07 2.8322254e-05 0.00010146598 6.045912e-05
4.3522946e-06 8.066244e-05 2.131241e-05 1.8430068e-05 7.820126e-06 3.9388306e-05 7.8124685e-06 1.6542515e-05
5.3920587e-05 2.3697201e-05 6.40651e-05 1.04553465e-05 3.7915543e-05 7.288988e-06 1.765262e-05 6.930259e-05
4.635563e-06 4.009165e-06 7.111708e-06 1.9981375e-05 4.6783825e-05 4.839219e-07 8.011066e-06 3.5328774e-06
5.0799604e-06 1.0819584e-05 7.04704e-06 1.4280923e-05 1.31346505e-05 1.4944548e-05 1.8076227e-05 3.0650897e-06
2.037435e-06 8.038877e-06 5.713442e-06 2.8779307e-06 2.752243e-07 7.767449e-06 2.309545e-07 4.3799855e-06
2.5148285e-05 1.8345334e-05 2.3524864e-05 3.5023626e-05 3.4690052e-05 1.741454e-05 6.4813057e-06 4.3556784e-06
1.4215144e-05 6.527426e-05 7.5171614e-05 4.596105e-05 4.2245112e-05 3.0189844e-06 8.5606094e-05 0.00023092692
0.00011987214 1.1319832e-05 0.00020891578 0.00021070326 8.626818e-06 7.789135e-05 0.00021390052 0.00016936
8.850726e-06 0.0002542638 6.730423e-05 4.7395024e-05 1.870923e-05 7.607972e-05 1.86798e-05 3.179663e-05
8.784578e-05 3.2806252e-05 0.00019192294 1.6731457e-05 6.241423e-05 2.0489859e-05 2.5765843e-05 0.00019890207
2.8827978e-06 1.6117507e-06 5.98196e-06 1.508812e-05 3.5601195e-05 5.453223e-07 2.865353e-06 4.8055076e-06
1.9404988e-06 9.321755e-06 8.612789e-06 1.667405e-05 7.2305206e-06 8.519059e-06 1.9072839e-05 2.343646e-06
1.1837245e-06 4.6731416e-06 2.4560807e-06 1.5459243e-06 7.4209055e-08 6.621281e-06 3.4698445e-08 3.6738631e-06
2.0349438e-05 1.3870065e-05 1.2253123e-05 2.3738929e-05 3.021255e-05 1.2430993e-05 4.958134e-06 2.118662e-06
2.7789e-05 9.5230076e-05 7.753094e-05 5.6104534e-05 5.0891333e-05 4.1219464e-06 0.00013218833 0.00028325812
0.00016918317 6.1744913e-06 0.0002579862 0.00023011043 2.4771962e-05 0.00011593573 0.00023178007 0.0002240552
9.033933e-06 0.0003537336 0.000103107624 6.539375e-05 2.3577391e-05 7.304014e-05 2.3373224e-05 3.4769266e-05
7.4691045e-05 2.170404e-05 0.00028324142 2.6529346e-05 4.786535e-05 3.8436356e-05 2.0679792e-05 0.00027041425
2.1221828e-08 4.8508804e-07 3.6868707e-06 7.331825e-06 8.377454e-06 4.6989143e-08 2.3858416e-07 2.5368655e-07
4.812344e-07 3.6959418e-07 5.385666e-06 6.945262e-06 5.6395675e-07 4.5600145e-06 1.1719884e-05 1.17579106e-07
4.3011946e-06 2.9328686e-07 5.784551e-07 4.965339e-07 1.616504e-07 2.6655848e-06 3.2416102e-07 8.640376e-06
8.358621e-06 2.307141e-06 4.5817037e-06 4.86094e-06 7.3211722e-06 1.9096117e-06 5.6485766e-07 7.630407e-08
4.2372275e-07 3.4079625e-07 4.1835356e-06 1.298347e-05 2.0686775e-05 7.229485e-07 5.718896e-07 5.1436145e-06
3.3840666e-07 3.9539023e-06 9.578011e-06 1.5063933e-05 8.533041e-07 6.118123e-06 1.871219e-05 1.626694e-06
1.9288834e-06 2.570428e-06 4.900961e-07 9.823514e-07 1.0283216e-07 4.37391e-06 1.12440226e-07 4.7874105e-06
1.30340995e-05 5.837977e-06 6.2399267e-06 9.610156e-06 2.0719786e-05 6.1130904e-06 1.5956216e-06 7.2591183e-07

exp_avg f4 [32]
00000000: 5abc c8bc 061a 33bc 5559 f5bc ea24 d9bc
00000010: af8d 27bd 7c7b d83c cc9b 7abc 2d8d 323d
00000020: 2608 8f3c f026 0bbd 1cfa 02bd 1dc1 4c3c
00000030: 9b98 193d 0d40 1e3d 0e49 9d39 b928 5dbd
00000040: 9975 6c3a c804 1dbc 2a0c 72bd 5666 f6bc
00000050: 1aef a03c 639d 573d 1b7a c23c 43d2 8b3d
00000060: 14b0 3d3c 99a2 ebbc 56c4 2f3d 9efd e63c
00000070: deb5 e9bc 8cf8 593d f4fb 86bd 8d66 473d
-0.024503876 -0.010931497 -0.029949823 -0.02650686 -0.040906604 0.02642607 -0.015295934 0.043591667
0.01745994 -0.03397268 -0.031976804 0.012497214 0.03749905 0.038635302 0.00029999804 -0.053993914
0.0009020209 -0.0095836595 -0.05909363 -0.030078094 0.019645263 0.05264033 0.023739865 0.068272136
0.011577625 -0.028764056 0.04291185 0.028197106 -0.028529104 0.05321555 -0.06591025 0.048681784

exp_avg_sq f4 [32]
00000000: b3a0 0f3a b276 ad39 fdca cd38 d3e8 333a
00000010: bc81 ec38 4c50 2f3a 397a 2638 380c e038
00000020: e0b8 f039 8d33 b338 7500 1e3a da64 5d39
00000030: 8a88 df39 dfb7 c538 b306 9837 24a0 1539
00000040: 61f8 a338 6a47 7b38 3fbf 0939 c882 023a
00000050: e85a 9639 f924 a939 b603 cc39 ff69 a33a
00000060: bea3 a038 5e28 4b39 442d cd38 cba8 1b3a
00000070: bc01 c638 0e52 9a39 a9f3 be39 df39 573a
0.0005478963 0.00033085566 9.812971e-05 0.00068630016 0.00011277522 0.00066876854 3.9691313e-05 0.00010683428
0.0004591411 8.544987e-05 0.000602729 0.00021113773 0.00042635604 9.427941e-05 1.8122932e-05 0.00014269404
7.81871e-05 5.9909573e-05 0.00013136583 0.00049785944 0.0002867796 0.0003226174 0.00038912677 0.0012467502
7.659894e-05 0.00019374627 9.783593e-05 0.0005937933 9.441699e-05 0.00029434304 0.00036421165 0.00082102226

exp_avg f4 [32, 32]
00000000: 635d 0d3c a622 713b aebc bfbb d2a9 943c
00000010: b557 38bc 8c12 e0bb 1a8d c4ba 8373 793c
00000020: fc98 36bc 3520 fcba ef6a 1e3c ad70 3b3c
00000030: f323 a5ba aad8 673c 45e1 7a3a b61b 83bc
00000040: 69a4 82bb 9540 c0ba 353c 2cbc 38e9 ee3b
00000050: 93a9 50bb f562 0f3b bcb9 bcbb 7d5c 40bc
00000060: 6d2a 143b 960e 9fbb 39e0 743c fb12 b0bb
00000070: 0832 c7bb 19ca 9a3a 6e14 40bb a2af b3bb
00000080: 51c4 9c3c 2cfa 4b3c 1647 c8bb ede7 133d
00000090: 6ea3 54bc a453 37bc 38e3 f8bb a5b6 af3c
000000a0: d666 afbc f349 a0ba 9b84 ab3c ce18 a83c
000000b0: 74db dabb 6631 973c adcc cf3b e4e6 bdbc
000000c0: fcfc 21bc 19a2 ccbb 7857 34bc 36b4 823c
000000d0: 1bfa 1bbc ea65 023a 657c 64bc eeb1 b5bc
000000e0: f95b a43b 6fb9 bb3a 06b7 ce3c 8668 22bc
000000f0: 1fcd 49bc e319 e1ba f2cc 02bb eaa0 3ebc
00000100: cb57 8f3b c31b 62b9 86a0 37bc b543 3a3c
00000110: db35 7bbc f220 c1bb 86c4 82bb 35e5 963c
00000120: ca1e 10bc 5e7f 79bb ec3a d03b 9e45 153c
00000130: 89db df39 7f77 8a3c 658a 3d3b 9a5a 8cbc
00000140: 915a f53a 9d3b a73a a061 08bc dc8a 4e3b
00000150: 3724 ff3a c91b 593b 1309 9cba d61e fbbb
00000160: ced5 b23a 6cda 3fbc 3114 923c c2a2 a8bb
00000170: 6fb1 6bbb e0fe 4f3b d9eb 8bbb 91fb 66bb
00000180: 9d68 d4bc 2b50 b3bc a332 5bbc a547 34bd
00000190: 721c c9bb 8eae 0b3c bb35 f0bb 3f28 f13a
000001a0: 50a7 9f3c e17b 76ba cab6 b6bc 5ccd 9dbc
000001b0: 40b0 3a3c 068a 183b 031b fb3b 726e bc3b
000001c0: 3f9c a63c 1d27 1c3c 1401 5b3c ccec bbbc
000001d0: 5282 b43c aa99 623b 7d12 af3c 5383 cf3c
000001e0: d422 6cbb 00d9 cdbc 4fef a0bb 2b8b 163c
000001f0: fde3 743c 34cd f73b 1078 45bb 5846 663c
00000200: 6dab 5d3c d337 de3b c2c4 02bc 099f e03c
00000210: 53f0 76bc 2201 1fbc 69ae 59bb 34a2 a83c
00000220: 906e 87bc c609 42bb 750f 753c d52d 883c
00000230: 0a8d 4abb 9ff1 9a3c fc7f 173b f7a1 b3bc
00000240: ebc9 babb 6502 29bb 397a 5bbc 6222 3a3c
00000250: 5ab6 acbb ba29 273b 06c7 14bc 48d3 8dbc
00000260: a73e 573b 295e 9fbb e903 b03c d7c3 06bc
00000270: 13b2 13bc c3da 4d3a f4fc 6fbb 2a51 0cbc
00000280: 1532 973b ab92 b73a 64d5 eebb 6212 313c
00000290: 4688 34bc d5de a3bb 5b40 17bb 6e58 6b3c
000002a0: 9a34 fcbb ca14 1cbb 66a0 c33b 955f 063c
000002b0: b0f9 2439 f7ab 563c f89e b93a b5c5 57bc
000002c0: c312 4eba 5bef 8838 03cc f4bb 0f41 5b3b
000002d0: 26cc 0639 e635 0b3b a824 f0ba 9a18 e0bb
000002e0: f8fa a13a ea7d fcbb 4f9c 623c 947f 87bb
000002f0: 90a8 86bb 3208 213b 5391 50bb 05e9 4dbb
00000300: cf5b 513c 8686 3c3c 15c8 223c b315 a53c
00000310: 4e68 073c 6954 1dbb 5cc2 773b d46c 0fbc
00000320: b228 efbb a8ad 5a3a c4dd 253c 3b00 d53b
00000330: a099 f1bb f1a5 03bc 5dee 6abb cca9 393b
00000340: d00b 1cbc e8b3 a8bb 83c4 30bb 6291 443c
00000350: 6248 48bc 64c6 2cbb 4bc0 41bc dcef 39bc
00000360: 9c60 cc3a 1377 953c 0cb7 80bb d44c 6ebb
00000370: c101 babb ca30 cebb 7b36 5e3b ae5a e3bb
00000380: 34f0 92bc 6c7a 45bc eb09 da39 d0ea 05bd
00000390: 5c02 d93b 9f80 123c 59c6 723a a49b 2dbc
000003a0: 4ebf 8c3c a30b d73a a5b5 90bc 417a 87bc
000003b0: 5e73 e53b f357 1fbc 9bfd ccb9 2fba 733c
000003c0: 5221 1d3c 0630 a33b 69a9 383c e6c9 81bc
000003d0: 84d8 313c abfc 70b8 f356 673c 10b4 a43c
000003e0: 1fa8 61bb b0ce e9bb 0e4f 68bc a7c3 093c
000003f0: 09a9 253c 5275 673b 56ba 383a 20fd 2f3c
0.008628222 0.0036794334 -0.00585135 0.018147383 -0.01125138 -0.0068381485 -0.0014995665 0.015225294
-0.011144873 -0.0019235673 0.00966905 0.011440438 -0.0012599215 0.014150778 0.0009570311 -0.016004425
-0.0039868844 -0.0014667684 -0.010512401 0.0072909854 -0.0031839355 0.0021879051 -0.005759446 -0.011740801
0.0022608296 -0.0048540337 0.014946037 -0.0053733564 -0.0060789622 0.0011809497 -0.0029309052 -0.0054835835
0.01913658 0.012449782 -0.0061119897 0.036109854 -0.012978418 -0.011189375 -0.007595446 0.021449396
-0.02141134 -0.001222907 0.020937255 0.02051964 -0.006678993 0.018456172 0.006341538 -0.023181386
-0.009886976 -0.0062449095 -0.011007182 0.015955072 -0.009520079 0.0004974293 -0.013945674 -0.02217957
0.005015847 0.0014322231 0.025233757 -0.009912616 -0.012316971 -0.0017173853 -0.0019958583 -0.011635045
0.0043744794 -0.00021563382 -0.011207705 0.011368682 -0.015332664 -0.00589382 -0.0039907126 0.018419841
-0.008796403 -0.0038070302 0.0063546803 0.009110836 0.0004269744 0.016902683 0.00289216 -0.017133046
0.0018719007 0.0012758855 -0.008324057 0.0031515872 0.0019465749 0.0033128134 -0.001190456 -0.007663588
0.0013644041 -0.011709791 0.017831894 -0.0051463554 -0.0035963913 0.003173761 -0.0042700586 -0.003524516
-0.02592879 -0.021888813 -0.013378772 -0.044013638 -0.006137424 0.008525504 -0.007330624 0.0018398835
0.01948896 -0.00094026147 -0.022303957 -0.019262962 0.01139456 0.0023275628 0.007663132 0.005750471
0.020338176 0.00953081 0.013366956 -0.022940062 0.022034798 0.0034576454 0.02137112 0.025331175
-0.0036031501 -0.025127888 -0.0049113403 0.009188454 0.014946935 0.007562304 -0.0030131377 0.014054857
0.013529641 0.006781557 -0.007981481 0.027419584 -0.015071946 -0.00970486 -0.0033215529 0.020585157
-0.016532212 -0.0029607876 0.0149572985 0.016623417 -0.003090682 0.018914042 0.0023117056 -0.021927817
-0.00570034 -0.002578878 -0.013395839 0.011360737 -0.0052707614 0.0025507049 -0.009080654 -0.01731266
0.003284374 -0.0048635197 0.02148624 -0.008225403 -0.009014624 0.00078527274 -0.0036619278 -0.008564273
0.0046141245 0.0014005502 -0.0072886217 0.010807605 -0.011018818 -0.005000929 -0.002307913 0.014364345
-0.0076967003 -0.0023816102 0.0059700487 0.0082014995 0.00015733275 0.013102523 0.0014161756 -0.013169696
-0.0007861072 6.529569e-05 -0.007470609 0.0033455526 0.00012855287 0.0021241843 -0.0018321471 -0.0068388702
0.001235812 -0.00770544 0.013831212 -0.0041350815 -0.0041094497 0.0024571535 -0.0031824901 -0.0031419408
0.0127782365 0.011506682 0.009935399 0.020151949 0.008264614 -0.0024006611 0.0037805056 -0.008753974
-0.0072985524 0.0008341917 0.010123674 0.0065002716 -0.00737305 -0.008035169 -0.0035847642 0.0028329967
-0.009524301 -0.0051483996 -0.00269726 0.011997553 -0.012224289 -0.0026363367 -0.011825631 -0.011348691
0.0015592757 0.018245256 -0.003928071 -0.003636171 -0.0056764786 -0.006292437 0.0033906985 -0.0069383
-0.017936803 -0.012053113 0.0004158759 -0.032694638 0.0066225957 0.0089417985 0.00092611235 -0.01059619
0.017181065 0.0016406666 -0.01766474 -0.016537787 0.007002278 -0.009725559 -0.00039098863 0.014875933
0.009590464 0.00498009 0.011270859 -0.015843343 0.010854844 -5.7455774e-05 0.014119851 0.020105392
-0.0034432483 -0.007135235 -0.014179004 0.008408464 0.010111102 0.003531773 0.0007046809 0.010741502
