hw2/data/sb_rtg_dna_CartPole-v0_16-06-2019_20-33-20/11/model.pkl (torch_old, 40470 bytes, 24 tensors)

weight f4 [32, 4]
00000000: be2a 303f f190 8c3e 35c4 04bf 50ca 37bf
00000010: 6348 343e 304f dc3e f392 49bf 5992 53bf
00000020: aa5d cd3e ea8e 223d 62c0 3f3e 9175 f53e
00000030: 6faa cf3e 1bb2 943e ff19 09bf f784 5bbf
00000040: bc42 9abe d3c4 1abe 4b8d f13e 2650 66bd
00000050: 6fa6 ecbe 72be 8fbe 8e32 293f 8457 973e
00000060: 93cd 47bd dae4 403e 4dab 7f3f a38e 693f
00000070: 4b48 343e a3e6 753e 5548 7bbf 00ec 6abf
00000080: ba67 15bf d8bb a7be 92e4 f13e 883d 6d3f
00000090: f2fd 003f 74b0 953e 6352 89be d49f 10bf
000000a0: 8d6a 863e 551b 113f c287 4cbf 80ad 3abf
000000b0: a62d fb3e a17a 1e3f 524b 37bf 3a70 15bf
000000c0: 365a f63d ac06 333d b37c 23bf a441 4abf
000000d0: bd94 b03e 3c2e c23e 78d0 a7be 34cc 7dbf
000000e0: d30b 2fbe 7932 20bf 85da 073f 1b9d 1f3f
000000f0: 5002 3dbd ca30 e5be dfa0 4a3f 12a0 5e3f
00000100: ce5e 9bbd 3743 073d 20ad 593f 73c6 3b3f
00000110: 0e4b dd3e 584d c83e 0ee7 7fbf d20f 5ebf
00000120: 164f fc3d c4c9 6a3e efe2 bebe 6878 79bf
00000130: 4887 2c3f aac5 a13e fb88 54bf c897 23bf
00000140: 57de cd3e deb7 a03e ceff 62bf 3a99 09bf
00000150: d166 d73d a711 e63d 4000 69bf 3139 c0be
00000160: 06a4 f53e 1009 703e e82c 3abf 6f1d 1bbf
00000170: a477 1e3f 1727 b43d 7ad7 41bf 0b30 34be
00000180: b847 9cbe 5e9a 883e 6137 4f3f a3cf 2e3f
00000190: 8251 9fbe e458 febc 5582 be3e a84d 303f
000001a0: d120 01bf d7d5 d3be 311c 2d3f c9b5 823f
000001b0: fe72 01be 013a 9cbd e5f6 203f 1542 5d3f
000001c0: 4fbc dc3e 0fc7 61be 24c6 0ebe 8ebd 5f3e
000001d0: e9ea d53e 3ee6 273e 276e eabe e25d 3bbf
000001e0: ad2a 22bf aff7 0ebe e041 463f 3d53 fa3e
000001f0: 80b0 773e dcb9 e73e f8fd eebe 1b7f 76bf
0.6881522 0.27454332 -0.5186189 -0.7179308 0.17605738 0.43029165 -0.7873985 -0.82645184
0.40110523 0.039687075 0.18725732 0.4794126 0.40559718 0.29042134 -0.5355529 -0.85749763
-0.3012904 -0.15114145 0.4717811 -0.05622878 -0.4622073 -0.28074986 0.66092765 0.29558957
-0.048780035 0.188373 0.9987076 0.9123327 0.17605703 0.24013762 -0.98157245 -0.9176636
-0.583614 -0.327605 0.47244698 0.92672014 0.5038749 0.29236186 -0.2682067 -0.5649388
0.26253167 0.5668233 -0.7989465 -0.7292099 0.49058264 0.61905867 -0.71599305 -0.5837437
0.12028925 0.043707535 -0.6386215 -0.7900641 0.34488478 0.379259 -0.32776237 -0.99139714
-0.17094354 -0.62577015 0.5306781 0.623491 -0.046144783 -0.44763786 0.7915172 0.86963
-0.07586442 0.033023085 0.8502979 0.73349684 0.43221325 0.3912151 -0.99961936 -0.8674289
0.12319772 0.2292853 -0.37282512 -0.9744935 0.6739392 0.31596118 -0.83021516 -0.63903475
0.40208694 0.3139028 -0.88671577 -0.5374943 0.105176575 0.11233836 -0.91016006 -0.37543634
0.47976702 0.23440957 -0.7272477 -0.6059179 0.6190131 0.08796518 -0.75719416 -0.17596452
-0.30523467 0.26680273 0.80943877 0.6828558 -0.31116873 -0.031048246 0.3720881 0.68868494
-0.504407 -0.41374084 0.6762114 1.0211726 -0.12641522 -0.07628251 0.6287673 0.8642896
0.43112418 -0.22048591 -0.13942772 0.21849653 0.41780785 0.16396424 -0.45787165 -0.7319013
-0.6334637 -0.13961671 0.7744427 0.4889163 0.24188423 0.45258987 -0.46678138 -0.962877

bias f4 [32]
00000000: fa62 7bbe fd0d 07be ef49 ad3c 1c8c 0abe
00000010: 2972 303e 4cf6 8cbe a036 b93d 4393 c2bd
00000020: c795 983d b677 563e fbb0 46be a33f 57be
00000030: f55f b43d fdc2 46be ee12 3c3e 6826 f13d
00000040: e3c2 8f3e 34b3 b8bd eecc d73c f703 89be
00000050: 468e 04bf 946f f63d 8557 e7be cbdf 2cbe
00000060: cd6a debd 4fab c4bd 051e e73c 467e 08be
00000070: d76d e5bd 4fc9 bcbe c7ab b4bd 06f1 27be
-0.24549475 -0.1318893 0.021153418 -0.1353001 0.17231049 -0.2753166 0.09043622 -0.09500744
0.07450443 0.20944104 -0.1940345 -0.21020369 0.08807365 -0.1941032 0.18366596 0.117749035
0.28078374 -0.09018555 0.026342835 -0.26760837 -0.5177959 0.120330006 -0.4518396 -0.16882245
-0.108602144 -0.09602987 0.028212557 -0.1332942 -0.11202591 -0.36872336 -0.088218264 -0.16400537

weight f4 [32, 32]
00000000: 8f77 00bf a978 43bf eddd c6bd a7ee 16bf
00000010: cf3d 233f 2f23 64bd ba80 a33e 37c7 3bbf
00000020: a16b 213f d67e c83c fe0c 09bf 79ac b2be
00000030: a43c 0cbf d162 eabe 3d70 4b3e 5a3d 343f
00000040: 96e4 a93e 687d 37bf 082d 70be 1ede 2ebf
00000050: f64c 1cbf 9c1f ef3d ac60 1cbf 3b13 c2be
00000060: 30aa 013f b873 f3bd f099 173f 2b78 0f3f
00000070: a0c9 2cbd 2c5e efbe 085e 0c3f 1bba 5ebf
00000080: 8b10 68bf 1e70 10bf 6280 41be 8036 b6be
00000090: 4554 a23e ae5c 0e3d 0599 d43e 0205 43bf
000000a0: 506b f63e 6a7c dd3d fc0a eebe d37a a0be
000000b0: 3b07 20bf e86c 07bf dcf8 f2be cd31 4d3f
000000c0: 5376 933e 5544 25bf ccac 1abf 87cd 11bf
000000d0: 3104 30bf 9d99 70be 459a 9cbe 78fe 6dbe
000000e0: e3d1 e03e e1e0 643e 7d5b 343f c3b8 183f
000000f0: b975 ccbe ece5 2abf 8104 ae3e dfeb dcbe
00000100: 3793 ee3e 8770 d73c 4f2a e2be d7e9 37be
00000110: 01be c43e d54c 00bf 0d21 33bf bbbe 433e
00000120: 66a3 febc 2763 2e3e 259a 4b3f e5ea df3e
00000130: 9ed7 223f b13f b5be 0dad acbe 4a1d 22be
00000140: 69f9 ad3d 5d21 563e 55d3 3b3e 77c9 bbbe
00000150: 286e cabd b2e3 f83e 3a9c 02bf 1517 adbe
00000160: 3249 c13e d77f 54bd c228 983e 5ad8 5d3e
00000170: 4468 57be 4090 debb 2dec 1cbf 65c8 193f
00000180: d980 04bf bf96 3bbf e499 2f3e c564 29bf
00000190: 3207 2e3e be58 613e 7001 433f 726c 5abf
000001a0: c982 3d3f 7a39 50be 8a5e 06bf e30b e5be
000001b0: 3765 0dbe bf04 4ebf c1d1 03bd ee14 263f
000001c0: 62fd 1d3f b97f 41bf 4a5f 4abf bd53 46bf
000001d0: 37c8 9abe 458b d7be 4dbf 00bf a8b5 95be
000001e0: e80f fa3d 66bc a23d f460 1e3f 9b83 073f
000001f0: e0c7 04bf fea4 6cbe 4188 0d3f ab0f 5dbf
00000200: 2332 a63e 00af a8bc f60e 80be 0360 06bf
00000210: 99e5 953e 7f41 3fbe 22db 3bbe 13b3 833e
00000220: 21c5 a03e 78af 30bd 7dc3 1a3f 95ae 143f
00000230: 4e33 b63e 1bbf 49be c4dc babe 2a8a 07bf
00000240: f904 8b3e 6d53 203e 920c dfbe f082 47be
00000250: e487 7ebe f072 ee3d adf7 003e 9993 7bbe
00000260: 90ed 043f 3a65 88bd 398a d43d dcce b43e
00000270: 8b41 2bbe 31a5 f0be f6f5 28be 11e7 8dbd
00000280: 6ad6 153f 2646 443f c834 4ebe 63b9 ff3e
00000290: ccb4 9dbe aeec c7be 03cd 50be 9f07 003f
000002a0: a35e a1be b699 6d3e c523 233f 7157 323f
000002b0: 81da 5c3e 5148 583f 9a05 4abe cafd f7be
000002c0: 1eb2 00bf bf0a 563f 5e29 203f 5b17 8a3e
000002d0: 6555 313f 8c03 f83e e0b1 3e3f d38d c43d
000002e0: c70f c8be 6ae8 7a3d 57f2 25bf 2d32 24bf
000002f0: d9be 863d c15d 8c3e 6ffa bbbe c569 403f
00000300: f09b 32bf e639 4c3e a592 403f ceee ed3e
00000310: 825a 9ebe 3704 9abe 203d 29be d5a6 d03e
00000320: 4bc9 4abe dcc2 163f 59d4 f1bd b5a3 71be
00000330: 0689 053f 16fc 473e 6a30 3d3f c4d7 c3be
00000340: 65bb 3ebe 6f57 2f3e 72c0 213f b844 0abf
00000350: 65e3 27bf b98b fdbe ed23 d1be c6fe 2c3f
00000360: f144 f3be 076b 2fbf 4890 66be 1553 05bf
00000370: 28e9 ff3e 7073 81be 511c 7fbe af76 5abd
00000380: e926 cd3e 11c6 9f3e 543e ba3e e7bb d93e
00000390: a453 b4be f6ae 7dbe aa54 29bf bb54 2f3f
000003a0: 00e0 81bd 498c 593e 0048 ab3d 524a 73be
000003b0: 1843 583e 4173 acbc bf6f f63e 8d54 e3bd
000003c0: 980a 03bf deca bd3e 8b89 d03e 3239 6d3e
000003d0: 458b 0e3f 372a 553d 95d1 cc3e 17a8 b63e
000003e0: 33ca c7be 5935 d63d e8b8 9abe a8c4 80be
000003f0: ce7e 923e 2256 be3e cf63 533e 64a1 1c3f
-0.5018243 -0.7635599 -0.09710298 -0.58957905 0.6376619 -0.055697616 0.31934148 -0.7335085
0.63054854 0.024474543 -0.5353545 -0.3489721 -0.5478003 -0.45778516 0.19867034 0.70406115
0.3318221 -0.7167573 -0.23454678 -0.68307674 -0.61054933 0.11675951 -0.6108501 -0.37905297
0.5065031 -0.11887306 0.59219265 0.56042737 -0.042184472 -0.46751535 0.5483098 -0.87002724
-0.9065024 -0.5642108 -0.1889663 -0.35588455 0.31704918 0.034756355 0.41522995 -0.76179516
0.48128748 0.10814746 -0.46492755 -0.31343707 -0.6251103 -0.5290055 -0.4745549 0.80154115
0.28801212 -0.6455739 -0.6041992 -0.56954235 -0.68756396 -0.23496099 -0.30586448 -0.23241603
0.4391013 0.2235141 0.704521 0.59656924 -0.39933565 -0.6675708 0.3398781 -0.43148705
0.4659669 0.026298774 -0.44172904 -0.17960297 0.3842621 -0.50117236 -0.69972306 0.19115727
-0.031083774 0.17030011 0.7953208 0.43733898 0.63610256 -0.35400155 -0.33725777 -0.15831485
0.08494837 0.20911165 0.18342336 -0.36677143 -0.09884292 0.48611218 -0.5101963 -0.33806673
0.37751156 -0.05187973 0.29718596 0.21664563 -0.21035868 -0.0067920983 -0.61297876 0.600714
-0.51759106 -0.73276895 0.17148548 -0.6616939 0.16994932 0.22006509 0.7617407 -0.85321724
0.7402769 -0.20334426 -0.52488005 -0.4473563 -0.13808142 -0.8047599 -0.03218246 0.64875686
0.61714756 -0.75585514 -0.7905165 -0.77471524 -0.30230877 -0.42098442 -0.502919 -0.29240155
0.12210065 0.079460904 0.6186669 0.5293519 -0.51867485 -0.23109815 0.5528603 -0.8635203
0.32460126 -0.020591259 -0.25011414 -0.5249025 0.29276732 -0.18677329 -0.18345311 0.2572256
0.31400397 -0.04313609 0.6045454 0.5807889 0.35586017 -0.19701807 -0.36496556 -0.52945197
0.2715223 0.15656824 -0.43564278 -0.19483542 -0.24856526 0.11643016 0.12594481 -0.24568023
0.5192499 -0.066599324 0.103779264 0.3531407 -0.16724221 -0.4700103 -0.16500077 -0.06928838
0.58530295 0.7666954 -0.20137322 0.49946126 -0.30802 -0.3904776 -0.20390706 0.5001163
-0.31517515 0.23203167 0.63726455 0.69664675 0.21567728 0.84485346 -0.197287 -0.48435813
-0.50271785 0.8361015 0.6256312 0.26970944 0.69270927 0.48440206 0.74490166 0.09597363
-0.39074537 0.061256804 -0.64822906 -0.6413906 0.0657937 0.2741528 -0.36714503 0.7516139
-0.6976919 0.19943962 0.7522376 0.46471256 -0.30928427 -0.3008134 -0.16527224 0.40752283
-0.1980335 0.5889108 -0.1180808 -0.23597606 0.52162206 0.19529757 0.73902 -0.38250554
-0.18626173 0.17123197 0.63184273 -0.54011106 -0.6558135 -0.49520662 -0.40847722 0.67576253
-0.47513536 -0.68522686 -0.22515976 -0.520799 0.49982572 -0.25283384 -0.24913146 -0.05333584
0.4006875 0.312058 0.36375678 0.4252617 -0.35220063 -0.24773774 -0.6614481 0.68488663
-0.06341553 0.21244921 0.08363342 -0.2375882 0.21119344 -0.021051051 0.4813213 -0.11100111
-0.5118804 0.37068838 0.40729937 0.2316635 0.5568126 0.052042212 0.40003648 0.35675117
-0.39021453 0.10459394 -0.30219197 -0.25150037 0.2861237 0.3717509 0.20643543 0.6118376

bias f4 [32]
00000000: b27d db3b b076 adbc c007 01bf e8ce f3bb
00000010: 8b88 cebe 8d7a 3ebe 4db6 853e 8efd a73e
00000020: ec43 38be 4249 2a3d 5523 84bd fcb1 d0bc
00000030: 7ca5 e23d 0f7d fb3e 325e 1b3e ba89 4d3e
00000040: f543 febd 7e7e 5b3e 6826 dbbe 8574 3b3d
00000050: 5e1f dc3d 9141 bc3e f62f c1bd 0c3f 89be
00000060: f264 3fbe 9f65 35be 02b0 c83c 07a4 1abe
00000070: ac7f 553e 45f2 b8be 218c 7dbe ccec 8dbd
0.0066983337 -0.021174759 -0.5040245 -0.0074404366 -0.4033855 -0.18601437 0.26115647 0.32810634
-0.1799466 0.04157377 -0.064520516 -0.025475495 0.1106672 0.4911885 0.15172651 0.2007207
-0.124153055 0.21434972 -0.4280274 0.04576542 0.1074817 0.36768773 -0.09432976 -0.26805913
-0.18690851 -0.17714547 0.02449799 -0.15101634 0.20849484 -0.36122337 -0.24760486 -0.06929931

weight f4 [32, 32]
00000000: 102c 27bf e15e 12bf e8fc 9f3e 818c 65bf
00000010: a2cc 2a3e 2347 1e3f a931 43bf c8e0 80be
00000020: 3ae7 f23e aa35 bf3e 22e3 54bf 3b53 e2be
00000030: 13ea 393f a2e5 053e 4c08 333f 7356 26bf
00000040: ba67 4dbe 17d9 1ebe c718 cc3e 0eb2 54bf
00000050: ef2c 093f c835 ec3c 01ba d03e 4eaf 003f
00000060: 78ef 5bbd 3610 2a3e d60c ebbe 5dc5 053f
00000070: c83a 9e3b e825 153e 13fe ecbe 9a15 c03e
00000080: 292d 33bf 9ad6 34bf 13bb d53e 59bf 56bf
00000090: c152 0f3f a940 623f 30b4 00bf 94af 5dbe
000000a0: 817e f03e 1542 983e 9190 0bbf fbad 62bf
000000b0: 392d 2e3f 99ad 5d3d 6363 093f 2945 a6be
000000c0: 0430 cfbc d2f4 623e bfdc a13e 53b7 46bf
000000d0: 5dec 393f c344 07be 849b ba3e 25e6 203f
000000e0: cca3 b33d f9cf 05be ae82 6abe 3ab4 193f
000000f0: b615 1a3f 94cd 803e 2660 b2be 2f12 343f
00000100: dc8d 1dbf d5f4 3ebf af71 0b3f 9814 34bf
00000110: bfe1 ec3e 766f 443f 9594 54bf adb4 15bf
00000120: ff93 5e3f b62a 393e fa29 ecbe f64b bdbe
00000130: 63d4 a13e 5d80 19bf 6769 bb3e f5b8 21bf
00000140: 735a 68be 068c a5be 35e0 533f 36b9 02bf
00000150: 8577 853d 6d82 783e 66bd 343f 0746 3d3f
00000160: ca31 7a3e 2d78 b63e b7a7 babe f266 533f
00000170: 0c13 8a3e 4081 213e 396a c1bd 91fb 933e
00000180: eff6 fe3e a692 ab3e 426c ee3e b137 0b3f
00000190: 2c44 21be e5ae b8be ce50 813e 1a88 16bf
000001a0: 2010 50bf 5186 aebd 2c63 8e3e e11e 9e3e
000001b0: a714 59bf 05ee 4dbe 94b5 18bf 0939 a53e
000001c0: e1ef 0ebf fa42 debe 59ff 9cbe 4efd 253f
000001d0: c78c ccbe 0711 34be 72da 1abf a58a 30bf
000001e0: c8f2 3f3f 6611 353e c234 ba3e 3478 4abf
000001f0: 07c4 f3be bacc 06bf a39f 053f 3a36 1dbf
00000200: 7ed3 2abf 7288 43bf af45 dd3e 413b 2bbf
00000210: 9957 053f 035c 7d3e 948c 9dbe 5f7c 1dbe
00000220: ad5d 583f 6f80 8c3e 68a7 37bf 2e75 4ebf
00000230: 0529 133f 00ec 5c3e 0353 da3e 8c2a b3be
00000240: 00d3 0f3d 2381 41be f6d3 023f 2d35 cbbe
00000250: db12 c63e 2bb6 dfbd 38cf 983e 1288 293f
00000260: dc2b 1ebd 1c17 14be 7382 f7be cdce 0a3f
00000270: 99ff 183f d7d2 263f e848 033d cb2b 683f
00000280: db55 41bf 14e2 8fbe 0272 fc3e 456e 54bf
00000290: 9fc5 b73e b3e3 d43e cb34 cebe ae59 b3be
000002a0: 6767 183f c5b8 e33d 8a66 66bf 702c 20bf
000002b0: 6d94 e73e 1bcd dfbe e14f 0f3f d81e 07bf
000002c0: f515 45be a1aa a1be bb42 883e 2c80 5dbf
000002d0: ac8b 3abc 303b 0e3d 3fb5 3c3f 5e0f b33e
000002e0: 1133 38bd c311 ad3e 9b03 cebe 26a2 683f
000002f0: e8ef 243e 581e 163e a3ce 9bbe 5e72 573f
00000300: 65c2 4cbf 95b9 acbe ef64 cebe ddff 90be
00000310: d4d2 08bf 1673 f7be 07c9 80be c1eb c13e
00000320: 525e 873e 5097 d4bd 340f cbbe 211c e9be
00000330: ce78 8d3e 6861 433f 0046 083f bc26 903e
00000340: a1e1 aa3e 2f23 213f 8fd8 01bf 392f e1be
00000350: 1f7f 013f 9c68 463f 6dc8 393f 8c92 813d
00000360: c820 0abf 009a d2be e6c2 22bf 42f4 3c3f
00000370: fb57 b63e 3dfc 5d3e f2e4 13bf 26ec 4a3e
00000380: ff1d 143f 465e 353f d403 a7be ddf9 2b3f
00000390: 51c6 05bf 7c06 d0be b65d 5c3e 26ca 943d
000003a0: e64a 03bf aa0f f9be ca45 173f 1b7e e03e
000003b0: f5fd b0be cf47 94be 516e babe d999 a53e
000003c0: af6e 97be 45fa dabe 12ea 90be 782c 243f
000003d0: 42d1 35be ff11 60be 3baa 05bf 8990 64bf
000003e0: a785 213e e9fe a93e 0d02 1d3f a53a 33bf
000003f0: b9d3 fcbe 6ab3 f7be 794c 5f3e 50c6 3cbf
-0.6530161 -0.57176024 0.3124764 -0.89667517 0.16679624 0.61827296 -0.7624765 -0.25171494
0.47442037 0.3734563 -0.8315908 -0.44204125 0.72622794 0.13075879 0.69934535 -0.6497566
-0.200591 -0.155125 0.39862654 -0.8308419 0.5358419 0.028834239 0.4076691 0.50267494
-0.053695172 0.16607746 -0.4590823 0.5225428 0.0048287846 0.14565241 -0.46287593 0.3751648
-0.69990784 -0.70639956 0.4174429 -0.83885723 0.5598565 0.88379914 -0.50274944 -0.21649009
0.46971515 0.29737917 -0.54517466 -0.88546723 0.68037754 0.054120634 0.5366728 -0.3247464
-0.02529145 0.22163704 0.31613728 -0.7762348 0.72626287 -0.13209824 0.36446774 0.6285117
0.08771476 -0.13067617 -0.22901413 0.6004063 0.6018938 0.25156844 -0.3483898 0.70340246
-0.61544585 -0.74592334 0.5447034 -0.70343924 0.4626598 0.76732576 -0.8303922 -0.58478814
0.86944574 0.18082699 -0.46125776 -0.36972016 0.3160735 -0.5996149 0.36603853 -0.6317285
-0.22690754 -0.32333392 0.8276399 -0.5106386 0.06516937 0.24268503 0.706015 0.7393498
0.24433056 0.35638562 -0.3645608 0.8257896 0.26967657 0.15771961 -0.094440885 0.28902867
0.4979777 0.3351032 0.4656697 0.54381853 -0.15748662 -0.36070934 0.25256962 -0.58801425
-0.81274605 -0.085217126 0.27810037 0.30882934 -0.8479714 -0.20110328 -0.59652066 0.32270077
-0.55834776 -0.43410474 -0.30663565 0.6483964 -0.39951155 -0.1758462 -0.6048957 -0.68961555
0.7497983 0.17682418 0.36368376 -0.79089665 -0.47610494 -0.5265614 0.5219671 -0.6141087
-0.6672896 -0.76380074 0.43217227 -0.6688729 0.5208679 0.24742131 -0.30771315 -0.15379475
0.8451794 0.27441737 -0.71739817 -0.8064755 0.57484466 0.21574402 0.42641458 -0.34993398
0.035113335 -0.18896918 0.51104677 -0.39689007 0.3868626 -0.10923418 0.29845595 0.6622325
-0.038616046 -0.1446194 -0.48341712 0.542218 0.5976501 0.65165466 0.03205195 0.9069182
-0.7552163 -0.2810217 0.4930573 -0.8298076 0.3589296 0.4157997 -0.40274653 -0.35029358
0.5953278 0.11119226 -0.9000021 -0.62567806 0.45230427 -0.4371117 0.5598126 -0.5278144
-0.19246657 -0.31575492 0.2661341 -0.865237 -0.011385839 0.034724414 0.7371406 0.34972662
-0.044970576 0.33802614 -0.40237126 0.9087242 0.16107142 0.14660013 -0.3043109 0.84158885
-0.7998412 -0.33735338 -0.4031138 -0.28320208 -0.534467 -0.4832999 -0.25153372 0.37875178
0.26439148 -0.10380423 -0.39660037 -0.45529273 0.2763123 0.76320505 0.5323181 0.28154552
0.33375266 0.6294431 -0.5072107 -0.4398134 0.50584596 0.7750337 0.7257145 0.0632678
-0.5395627 -0.41133118 -0.6357864 0.7381021 0.35614 0.21678253 -0.5777122 0.19816646
0.5785827 0.70846975 -0.32620108 0.67178136 -0.5225573 -0.40629947 0.21520123 0.07265119
-0.5128616 -0.48644763 0.59090865 0.4384621 -0.34568754 -0.28961036 -0.3641229 0.3234394
-0.29576632 -0.42769065 -0.2830358 0.64130354 -0.17755607 -0.21881865 -0.52212876 -0.89283043
0.1577364 0.33202294 0.61331254 -0.7001136 -0.49380282 -0.4837907 0.21806516 -0.737401

bias f4 [32]
00000000: 05e9 453e 9ad2 9bbd 6268 acbd e6ee d13e
00000010: 0736 663e fa7d 8f3c dc43 a5be 9983 1dbd
00000020: da34 813d 934e 3cbe 99d4 003e 38d9 c93e
00000030: 753e a73e 1bee 893e 7bc2 57be c777 f4be
00000040: a732 4cbe d684 5a3e 05c9 65bc 6d26 023f
00000050: a1ed 1d3e bf89 edbd b8b0 fb3d 8378 67be
00000060: fbe2 043d 2ccc a3be 1694 a83c abe0 b73e
00000070: 858d 8a3e e790 b93e b257 783e 5978 1f3e
0.19327171 -0.076085284 -0.08418347 0.41002578 0.22481547 0.017516125 -0.32278335 -0.03845558
0.06308909 -0.18389349 0.125811 0.39423537 0.32664838 0.26939473 -0.21070282 -0.47747633
-0.19941197 0.21339735 -0.014024978 0.50839883 0.1542268 -0.115985386 0.12289566 -0.22604565
0.032443028 -0.31991708 0.020578425 0.35913596 0.27061096 0.36243364 0.24252203 0.15573253

weight f4 [2, 32]
00000000: ef72 e03e 9df7 283f 58fa 7b3f 816f 403e
00000010: fc7c f53e 4c18 123f f9e0 05bf caa2 c0be
00000020: 7818 49bf 5008 4e3e 35b5 6abf 548e 2ebf
00000030: 18d2 53bf e4a0 fd3e 4a6f 463f d06d c63e
00000040: a7c5 7a3f 00a5 7abd cf70 393f 9da8 07bf
00000050: b057 6e3e 1c85 353f e83e 1bbf fa1b c8be
00000060: 70d7 183f 472d c4be 8127 b3bd 9714 12bf
00000070: 293b 283e 61a9 4f3e 5b71 42bf dff9 94be
00000080: 18ef 34bf 5c6a 3dbf 7386 8cbe 380e 48be
00000090: d41b 48bf fb24 06bf bef5 c23e d2cd f93e
000000a0: 9ef2 293f 9390 b43e 89f2 4e3f d6e6 93be
000000b0: 1609 663f a31a 1ebf f5a2 13bf f895 25bf
000000c0: f7ae 14bf 3bcf 65be 314b b3be 85e0 853e
000000d0: 56c0 06be 2928 eabe 0376 103d 0d95 a03d
000000e0: a3ce 5fbf 8a48 1d3f 9112 ed3e 6a11 163f
000000f0: 0db0 16bf 3e76 3dbf b777 423f e913 3b3e
0.43837687 0.6600283 0.9842887 0.18792535 0.47946918 0.57068324 -0.52296406 -0.37624198
-0.7855296 0.20120358 -0.9168275 -0.68185925 -0.8274245 0.49536812 0.77513564 0.38755655
0.97957844 -0.061192513 0.7243776 -0.5299166 0.23275638 0.70906234 -0.6064286 -0.39083844
0.5970373 -0.38315794 -0.08747769 -0.5706267 0.16428818 0.20279457 -0.75954217 -0.29096887
-0.7067733 -0.73990417 -0.27446327 -0.19536674 -0.7816746 -0.5240018 0.3807811 0.4878984
0.6638583 0.3526655 0.8083883 -0.2888705 0.89857614 -0.61759394 -0.5767053 -0.6468196
-0.58079475 -0.22442333 -0.35018304 0.26147857 -0.13159308 -0.45733765 0.035268795 0.07840929
-0.8742468 0.6143881 0.46303228 0.5862032 -0.5886238 -0.7400855 0.7596392 0.18269314

bias f4 [2]
00000000: 3317 87be 7205 1a3e
-0.26384887 0.1504114

exp_avg f4 [32, 4]
00000000: df06 20c1 4021 9dc0 0c71 a23f 776e 5b40
00000010: 4379 26c1 e09e c0c0 dd2e c33f 4aaf 8840
00000020: 8257 1fc0 73f3 b0bf 8519 98be 4643 04c0
00000030: 79e8 e1c0 15f8 39c0 768d 633f 4b53 0e40
00000040: 5da1 9940 34c1 f63f 197c 8dbd 0a29 263e
00000050: 939d 2940 5cba 1b40 5a0a 40bf 2b15 07c0
00000060: efb2 e740 9570 2740 05ef f1bf 97da 9ac0
00000070: 83e9 28c1 cdd3 cbc0 87c3 1b40 7c8c f340
00000080: 6982 3641 6953 c140 0051 17c0 b18e d6c0
00000090: 00aa 21c0 4735 19c0 f7c7 f33e 1b4d d13f
000000a0: 559b bac0 bbe3 72c0 4434 9f3f fba4 9140
000000b0: 6fee 99c0 461c 33c0 375e 1d40 5c70 0c41
000000c0: f21e f3c0 d948 6cc0 0479 0640 2571 b040
000000d0: 0fe7 0bc1 1526 8cc0 92e2 c13f a23e 8a40
000000e0: 6102 813f 73c5 8b3f 87d7 2cbf 3205 2bc0
000000f0: e1a1 3841 9e7e dc40 1612 2bc0 2e51 01c1
00000100: fa18 bc40 33cf 1a40 6e62 3abf 9633 bbbf
00000110: 4ce5 35c1 40f4 e1c0 de8c 1840 ea06 f340
00000120: 67f5 2bc1 736d c8c0 05b9 3040 14f2 fc40
00000130: 5aa5 fec0 6338 2fc0 2ea1 e93f 762f 9f40
00000140: 1651 c7c0 b741 31c0 913a 2e3f 88f4 0840
00000150: 992d 10be a7a1 53be 4cf3 293f aa2b 6a40
00000160: c26e e1c0 2b1d 47c0 90c1 a03f 9ef3 7440
00000170: b5ea 98c0 b553 10c0 9470 d03d 4be5 153e
00000180: 6625 be40 b66f 1b40 e57d a6bf 2e6d 3dc0
00000190: 575e c340 aea3 4940 a250 c5bf e789 62c0
000001a0: 4ef5 2141 476b 6540 8e48 28c0 b38e d4c0
000001b0: d982 f940 911a 8140 2bda d5bf 672c 89c0
000001c0: 07cf 41c0 fd66 36bf 2c88 3ebc ed9b e7be
000001d0: 6d77 c0c0 dc5e 1cc0 0733 c13e fc83 463f
000001e0: 91f6 0c41 39b8 aa40 b3d8 efbf f1d7 a9c0
000001f0: e8b7 60c1 d026 fcc0 2e8d 6540 6cdb 3041
-10.0016775 -4.910309 1.2690749 3.4286172 -10.404605 -6.019394 1.5248677 4.2713976
-2.489716 -1.3824295 -0.2970697 -2.066606 -7.059628 -2.9057667 0.8888773 2.2238338
4.8009477 1.9277711 -0.069084354 0.16226593 2.6502426 2.4332495 -0.75015795 -2.110667
7.2405925 2.6162465 -1.8901068 -4.8391833 -10.55701 -6.3696046 2.433809 7.610899
11.406838 6.041432 -2.3643188 -6.7049184 -2.526001 -2.3938768 0.476135 1.6351656
-5.8314614 -3.7951496 1.2437825 4.551389 -4.8103557 -2.7986007 2.4588754 8.7774315
-7.5975275 -3.6919463 2.1011362 5.5138116 -8.743911 -4.3796487 1.5147269 4.3201456
1.0078851 1.0919632 -0.6751637 -2.672192 11.539521 6.890456 -2.6729789 -8.082319
5.878049 2.4188964 -0.7280644 -1.4625118 -11.368481 -7.0610657 2.3835979 7.594594
-10.747413 -6.2633605 2.7612927 7.9045506 -7.9576845 -2.7378166 1.8252313 4.9745436
-6.228648 -2.769636 0.68058115 2.139925 -0.14079894 -0.20667134 0.66386867 3.658915
-7.0447702 -3.1111553 1.255907 3.8273692 -4.7786508 -2.255109 0.101777226 0.1463825
5.9420652 2.4286933 -1.300717 -2.9597888 6.105266 3.1506152 -1.5415232 -3.539667
10.122389 3.5846727 -2.6294284 -6.6424193 7.7972226 4.034493 -1.6707205 -4.28667
-3.028261 -0.712509 -0.011629146 -0.4523615 -6.0145783 -2.4432898 0.37734243 0.7754514
8.810197 5.334988 -1.8738006 -5.30761 -14.044899 -7.879738 3.586742 11.05357

exp_avg_sq f4 [32, 4]
00000000: b8f4 2440 96c9 3b3f 7950 193e dab1 353f
00000010: cbe2 3d40 8732 9b3f ef1e 3e3e c668 8f3f
00000020: 347a 4f3e 0380 d73d e87f b33c 9b81 d73e
00000030: 5a50 a03f 938b 793e 93b8 9d3d 7b96 ac3e
00000040: 5b80 0f3f d855 db3d e906 dd3b bd19 ee3b
00000050: 532f 8f3e 2203 a83e ac35 ef3c 515b 883e
00000060: e77a ac3f 356a 5c3e fec6 823e db9d be3f
00000070: c1c3 4540 01cf b33f da5b de3e d609 6f40
00000080: 36e4 6140 0a58 993f dfcd d63e 3265 3740
00000090: 41b1 5e3e 8933 8d3e a2bb 653c 6fe7 293e
000000a0: 8ae2 653f 1843 e43e d443 0c3e 0463 ac3f
000000b0: f2ef 1f3f 68d9 833e 1c20 f53e 535e aa40
000000c0: 87a1 d23f af18 063f ca05 913e e7b2 ef3f
000000d0: 7400 0140 19c9 163f 4af6 453e 2f6b 9e3f
000000e0: 69a6 063d 436c 333d eb56 193d b857 f63e
000000f0: 7a44 6f40 30c7 d53f 4b1d 043f c401 8540
00000100: f1d1 633f 64cf 363e dcab 453d 4a3b 073e
00000110: 271e 6640 554a db3f f433 df3e 9d7b 6c40
00000120: cc9a 5740 4eae be3f fcc6 033f 9eb2 7c40
00000130: 822e cb3f bbee 823e 8faf 8b3e 28bf d43f
00000140: 0402 733f a864 5d3e 5f54 6f3d 0d36 a93e
00000150: 94d4 4c3c fd23 d13c 37e4 863d eb8e 8b3f
00000160: ef15 9f3f 7c3e 933e 1f79 1b3e dc0e 833f
00000170: 387b 0f3f 0af7 0f3e 7c82 e73b 55f6 c83b
00000180: 0a9c 7b3f 2a0b 763e 0a19 dd3d 0af0 023f
00000190: 655c 923f 69e3 e13e 8c76 0c3e ab07 3f3f
000001a0: 585c 2a40 4b1a d63e 06b9 013f 9aa4 3a40
000001b0: bad3 dd3f 4c4d 1e3f 25a7 3f3e 653e 8e3f
000001c0: 1448 5d3e c64d 303d 9b30 243b 0d0c 853c
000001d0: 4517 623f 795f 2f3e 3b06 d03c 2b0f 263d
000001e0: e663 0f40 4bfe 863f 8149 753e 0cf3 dd3f
000001f0: 2e18 ae40 4e10 0540 696a 763f 00ff 0141
2.5774364 0.7335447 0.14972104 0.70974505 2.9669673 1.2124795 0.18566488 1.1203849
0.2026146 0.10522463 0.021911576 0.4209107 1.2524521 0.2436965 0.0770122 0.33708557
0.5605523 0.10709733 0.0067452085 0.007266252 0.27965793 0.3281489 0.029200397 0.2663217
1.3475007 0.2152489 0.25542444 1.4891924 3.0900729 1.4047548 0.43429452 3.7349753
3.529554 1.1979992 0.41953942 2.8655515 0.21747304 0.2757838 0.014021786 0.16592191
0.89798796 0.44582438 0.1369775 1.3467717 0.624755 0.25751805 0.4787606 5.324014
1.6455544 0.52381414 0.2832473 1.8726472 2.0156527 0.589006 0.19332233 1.237646
0.032873545 0.04380442 0.037436407 0.481138 3.7385545 1.6701412 0.516072 4.1564655
0.8899222 0.1785255 0.0482596 0.1320621 3.5955904 1.7132059 0.43594325 3.6950448
3.368823 1.4896944 0.514755 3.948402 1.5873568 0.25572762 0.27282378 1.6620836
0.9492495 0.21620429 0.058430072 0.3304905 0.012501854 0.025529856 0.06586497 1.090299
1.2428569 0.2875861 0.15182923 1.023891 0.5604739 0.14059082 0.0070651155 0.0061328807
0.9828497 0.24027696 0.107957914 0.5114752 1.1434447 0.44118813 0.13717097 0.74621075
2.6618862 0.41816935 0.5067295 2.9162965 1.7330239 0.61836696 0.18716104 1.1112791
0.21609527 0.04304292 0.0025053385 0.016241098 0.88316756 0.17126264 0.025393596 0.04054181
2.2404723 1.0546354 0.23953821 1.7339797 5.4404516 2.0791202 0.9625612 8.124756

exp_avg f4 [32]
00000000: 0623 1841 59ed 1641 7c36 8b40 e78d 2241
00000010: 5e91 f7c0 982b 873e b55d 98c0 e10e 9040
00000020: 328b 0fc1 1c6a 8a3e 682a 57be 2410 49c0
00000030: 738b 7040 b70b 2641 6999 4d40 c2fb c7c0
00000040: ef8a 0ec1 90e5 8d40 4b7f cc40 de96 0d41
00000050: 053f fd40 8cf3 8ac0 6dc8 0441 d89f d540
00000060: 7f46 dbc0 f5ba a5c0 f098 3dc1 5fac bfc0
00000070: e498 bb40 caf0 0941 fe1c abc0 2bf1 2141
9.508551 9.432946 4.350401 10.159644 -7.736495 0.26400447 -4.761439 4.5018163
-8.971483 0.2703408 -0.2101227 -3.1416101 3.7585113 10.37786 3.2124884 -6.249482
-8.908919 4.434273 6.3905387 8.849333 7.913943 -4.34223 8.298932 6.675762
-6.8523555 -5.179072 -11.849838 -5.9897914 5.8624134 8.621286 -5.347289 10.121379

exp_avg_sq f4 [32]
00000000: ebda a340 5ab8 8f40 0bc4 1c3f 84ff 9340
00000010: 28d8 3440 7e54 f63e afdd 1940 8b04 5240
00000020: c5ca 9d40 d4d3 973e a1a8 943f 68fb e93f
00000030: d936 0940 b30a a240 51f9 163f 8723 7b40
00000040: 20af 5b40 b9e6 5a40 039d 5b40 97e1 8740
00000050: cccb 5440 4e0f 483f dabc 6f40 77da 0940
00000060: 2767 0a40 5214 b43f 0cdc d540 68b5 0b40
00000070: babf d43f 1f3b 6c40 f1fc 1640 b06e d740
5.1204734 4.491254 0.6123664 4.624941 2.8256931 0.48111337 2.4041555 3.2815273
4.931002 0.296538 1.1613961 1.8279848 2.1439726 5.063806 0.58974177 3.9240434
3.4325638 3.4203322 3.4314582 4.246288 3.3249388 0.78148353 3.7459016 2.153959
2.162546 1.4068701 6.683111 2.1829472 1.662101 3.6911085 2.3591883 6.7322617

exp_avg f4 [32, 32]
00000000: 390b 6b3f 6022 0d3f 03ad 88be c77d 8e3f
00000010: cc52 43bf 2c23 a03d 067e d2be afc6 563f
00000020: a115 9abf 7199 f03d 3c31 4a3f 7684 7c3f
00000030: 9144 8dbd 87dc 983f 19b3 edbe b366 07bf
00000040: 2c55 09be 3c75 b53f d930 863e 2fe2 aa3f
00000050: 3a3e 8c3f 2eca 353f 3ffe 843f a477 8e3f
00000060: 2c10 623e 0a7e a93e 54dc cfbf c9a2 5fbd
00000070: 93fe e93e f84f 8d3f d0b3 fbbd a542 803f
00000080: 35a0 453f 262a 003f a14b 3fbe 9342 9d3f
00000090: 6c34 5dbf 3db2 463e 7693 59be 849e 123f
000000a0: 02f5 83bf d3bc 9b3b 9322 db3e 20ec 1c3f
000000b0: c1d0 04be ae0b 963f b2d1 afbd d838 b4be
000000c0: 46b4 98be d47c 883f 170f 643e fc75 9e3f
000000d0: cc06 833f 3fd0 133f 867c 783f 0b05 9c3f
000000e0: 2c1b 2d3c 2b99 853e e11c c3bf 096c ebbd
000000f0: 3d89 2b3f 3b49 8d3f 183a febd 62d5 4b3f
00000100: cc19 c1bd 3f7c 9d3d 53a2 323e b254 da3e
00000110: 7699 a1be 8c00 383e 5f33 0b3e 61c9 24be
00000120: f508 ba3c a5a4 b2bd 8498 e0be 5699 fabe
00000130: c28c d0bd c883 773e 3af5 183f 5b1a f83d
00000140: 44eb 9bbe bb14 7dbe c32a 933c b313 cb3d
00000150: ac4f bb3d 40c9 1ebe 0bac 9b3d 2396 f63e
00000160: f365 9fbe 00ff b73a d7b8 73be 1781 06be
00000170: 8566 c93e f1ba 3b3e 7222 893d e015 8fbd
00000180: 6d27 7c3f 68ee 1b3f 8907 9bbe 794a 9c3f
00000190: 999c 54bf 9aeb b23d 515d 05bf 3fb7 763f
000001a0: 5c1f aabf ef0e 073e a705 5a3f de09 863f
000001b0: 0efa 67bd a4cb a63f f03e edbe f458 17bf
000001c0: 3ad2 1abe 2f3d ca3f 3a22 973e da3b bb3f
000001d0: 8e59 973f 0471 513f 828d 8f3f b48a 9f3f
000001e0: a477 503e 6754 bd3e f042 e8bf 745f aabd
000001f0: 704f 003f b233 983f 65b4 05be c489 8d3f
00000200: b49d 76bd 6de8 2a3e fbb4 6a3e eaf5 f63e
00000210: 90c6 c0be af63 063e 623f df39 e1d7 c5bc
00000220: c20a b8bd a017 09bd 76f6 bebe 69b3 f3be
00000230: bf1c 00bc e13c af3e fea0 173f bbca 143c
00000240: 05bb 96be 635e d2bd 9ea7 023e cdcf 033e
00000250: 7871 863d 1e4b 3ebe a375 703d 9f55 013f
00000260: 2b54 afbe 65a1 28bd 8c5b ccbe 48ac 79be
00000270: 34f8 cb3e 36ec 4b3e bf70 843d 10f5 803d
00000280: ce90 52bf 386d fdbe cefb 873e 7bfb 30bf
00000290: 0bcc f03e cbc7 e03d fdd4 223f 7a26 78bf
000002a0: b4e6 8e3f 2633 65be b929 79bf a31c 8bbf
000002b0: 67ed 11be a240 69bf 34cb 393f 76f0 213f
000002c0: f27e 83bd 4d28 bdbf 5c1c adbe cdad 84bf
000002d0: c171 49bf 55ce 26bf 19e8 43bf 5b38 27bf
000002e0: f4b3 93be 3b0e 55be d464 ab3f 2378 e53d
000002f0: 02ce 03be 5c26 48bf f159 203e 6428 7ebf
00000300: 7aef f33d 5a9e d3bd ced1 c0be caa0 1fbe
00000310: 5bc7 5a3e adc3 c53d 024c c03d e088 903c
00000320: c910 e6bc d0ef 87bd a56f 963e f2f1 ec3e
00000330: 2f29 3cbe 01b5 ddbd ced1 dcbe 4bcf 323c
00000340: 0f52 243e b410 0d3e d2c5 33be f3ad 1d3e
00000350: f6c9 553e 8e66 cb3e d515 3a3e c144 17be
00000360: 1211 b43e 354b 643e 71c6 cc3d 0bb1 a93e
00000370: df3f 45be 93fd 2b3d a75b c03c e96f 0d3c
00000380: 9da5 c5bd bd62 0abe d456 a83c b0e5 86be
00000390: de66 2d3e 4cf2 9abd caf8 173e 7b99 40be
000003a0: d650 433e f831 dfbb 96fa 1abd 8509 05bd
000003b0: a302 8bbb abf4 82be 1481 87bd 9962 e43d
000003c0: 235a 1a3e 1c22 48be b0da bdbd 7df7 56be
000003d0: 2b80 51be e3a4 91bd 27a8 43be 663a 99be
000003e0: 21ff 353d 8715 73bd d1a4 9c3e 45ac 813d
000003f0: 2c85 05be 1ef8 50be f4f0 febc 6272 37be
0.91814 0.5513058 -0.26694497 1.1132134 -0.76298213 0.078192085 -0.41111773 0.8389692
-1.2037851 0.117480166 0.78981376 0.9863962 -0.06897844 1.19423 -0.46425703 -0.5289108
-0.13411397 1.4176402 0.26209143 1.3350276 1.095649 0.71011627 1.039009 1.1130261
0.22076482 0.33103973 -1.6239114 -0.054598603 0.45702037 1.104003 -0.12290156 1.0020338
0.7719758 0.50064313 -0.18681194 1.2285942 -0.86408114 0.1940393 -0.21247658 0.57273126
-1.0309145 0.004752734 0.42799816 0.612978 -0.12970258 1.1722314 -0.08584918 -0.35199618
-0.29825038 1.0663095 0.22271381 1.2379756 1.0236449 0.57739633 0.9706501 1.2189039
0.01056556 0.2609342 -1.5243188 -0.114952154 0.67006284 1.1037973 -0.12413424 0.7962247
-0.094287485 0.07689714 0.17444734 0.42642742 -0.31562394 0.17968959 0.13593815 -0.16092445
0.02270935 -0.0872281 -0.4386636 -0.4894511 -0.101830974 0.24171364 0.59749186 0.12114402
-0.3045293 -0.2471494 0.017964726 0.09915867 0.091460556 -0.15506458 0.07601174 0.4816142
-0.3113247 0.0014037788 -0.2380098 -0.13135181 0.3933603 0.18333031 0.06696023 -0.06986594
0.9849766 0.60910654 -0.30279186 1.2210227 -0.8305145 0.08736344 -0.52095515 0.9637336
-1.329082 0.1318929 0.85164875 1.0471761 -0.056634955 1.3030896 -0.4633708 -0.59120107
-0.15119258 1.5799922 0.295183 1.462764 1.1824205 0.81813073 1.121506 1.2464204
0.2035814 0.36978456 -1.8145428 -0.083189875 0.5012121 1.1890776 -0.13057096 1.1057668
-0.06020899 0.16690226 0.22920601 0.48234493 -0.3765149 0.13123964 0.00042581098 -0.02415079
-0.08986427 -0.033469796 -0.3729741 -0.47597817 -0.007819354 0.34226134 0.5923003 0.009081538
-0.2943956 -0.10271909 0.12759253 0.12872238 0.06564611 -0.18583342 0.058705937 0.5052127
-0.34243903 -0.041169543 -0.39913595 -0.24382126 0.398378 0.19914326 0.06466817 0.06296742
-0.82252204 -0.4949739 0.265593 -0.6913373 0.47030672 0.109756075 0.63606244 -0.9693371
1.1164155 -0.22382793 -0.9732929 -1.0868114 -0.14250718 -0.91114247 0.7257569 0.6325754
-0.06420697 -1.4777924 -0.338107 -1.036554 -0.786892 -0.6515859 -0.7652603 -0.65320367
-0.2884823 -0.2080621 1.3390145 0.11204555 -0.12871554 -0.7818353 0.1565931 -0.9928038
0.11910911 -0.103329375 -0.37660068 -0.1558868 0.2136511 0.09656463 0.09389497 0.017643392
-0.028084176 -0.066375375 0.29382053 0.4627834 -0.18375085 -0.108255394 -0.43128818 0.01091368
0.16046928 0.13775903 -0.17555931 0.15398388 0.20877823 0.3972668 0.18172391 -0.14772321
0.35169274 0.22294314 0.09998787 0.33142886 -0.19262646 0.041989874 0.023481203 0.0086326385
-0.09650729 -0.13514228 0.020549215 -0.26347113 0.16933772 -0.07565746 0.14840999 -0.18808548
0.19073805 -0.0068113767 -0.037836634 -0.03247978 -0.0042422577 -0.25577292 -0.066164166 0.111516185
0.15073447 -0.19544262 -0.09270227 -0.20992847 -0.20459048 -0.07111528 -0.19107114 -0.29927367
0.044432763 -0.059346702 0.30594495 0.06331686 -0.13039082 -0.20407149 -0.031120755 -0.17914727

exp_avg_sq f4 [32, 32]
00000000: d01f f43c 407d f43c 9ca4 223c e3d2 b93d
00000010: 9225 6d3d f9bb 893b 377b 523d c0fb 763d
00000020: 091a 963d 548e 313b 8fc2 d93c 6e3e 103d
00000030: d45a 653c 7566 bf3d a3ef ac3c 8789 e63c
00000040: 3dee 713c c8a8 d83d 8085 bb3c d151 953d
00000050: f73e 4b3d bb45 ad3c e7fe 323d aa23 9d3d
00000060: ea92 9f3c f464 f53b eab3 2b3e e0b0 fc3c
00000070: 96bf f83c de70 833d acbf 8c3a 54d4 7e3d
00000080: 76b1 b13c 8036 c23c e3f1 1f3c aabe e23d
00000090: 54b4 903d f483 ae3b 9b52 953c 1625 ca3c
000000a0: ad0e 5a3d d23e fa3a 02ce 2f3c 51fa b43c
000000b0: 4e17 be3b bf50 be3d 0c8b cf3c cb4a 403c
000000c0: 9cd8 ac3c 48ec 5c3d c031 6e3c 62ae 883d
000000d0: 14cd 3d3d 73cf 833c 573a 273d 7c35 c53d
000000e0: 3caa ab3c 6f43 b53b 0a4b 193e 407d ca3c
000000f0: fe7d 473d 44c1 8b3d b8bc 683a 0c24 1b3d
00000100: 6a79 023a 58ad 533a d235 2d3b f4c0 5f3c
00000110: ba85 f63b eb26 b93a 5a6f a93b b925 613b
00000120: 73af 5e3a 192f cb39 ab19 4b3c 1654 4b3c
00000130: d25e 1c3b eebe b13b 9e84 ac3c 1880 193b
00000140: 216e 893b b7d6 b33b 4a54 5a3a 2fb4 df3a
00000150: 583c 7b3a 7558 b83a 7913 513a 6f48 8f3c
00000160: 4704 a33b 8616 d439 fb10 d63b f146 f83a
00000170: 0900 2b3c 2a8c 4e3b 5eb0 6e39 b56c b33a
00000180: c123 113d 5bc2 133d eef8 463c 940c e33d
00000190: 679e 8d3d 3dac a53b ac95 873d 8f3f a03d
000001a0: 50b8 bb3d 4fe1 633b ec6b 043d 6c9c 293d
000001b0: 0024 873c 8cbd e83d bd64 c93c 8bb0 0d3d
000001c0: 6f0e 8a3c 84df 083e f182 dd3c ccf4 b83d
000001d0: d10c 703d 2e63 e63c 5eed 533d 73c3 c73d
000001e0: d033 b93c 9829 103c 29b1 583e 639b 123d
000001f0: be68 153d 3a53 9b3d f5e4 963a 65c1 9d3d
00000200: 632e 9f39 fb43 f23a 0de1 733b 2f24 8a3c
00000210: 60a8 243c 70c6 553a 046b 523a a2f9 af39
00000220: 949c d23a f1c2 193a f62e 013c f384 303c
00000230: 899d 083a f543 163c c350 9e3c 24d9 c939
00000240: 8673 8c3b 4093 873a d548 9d3a af63 1f3b
00000250: 2c7c 753a 5ceb df3a 0c35 5d3a 51b8 9d3c
00000260: 2bb4 ce3b 3b3f bb39 f336 573c a917 6c3b
00000270: f8f3 2d3c 65cc 7c3b 371a 4339 28d7 583a
00000280: a797 c93c 0b2e ca3c dd05 c83b 6ab2 123d
00000290: 50f8 cf3c 68aa 743b 71f2 a93d 6af8 ad3d
000002a0: d0da 843d 72c1 603b 8ce8 3b3d fc3e 253d
000002b0: 865f b83c 669d 5c3d 2054 bb3c 6d9f 263d
000002c0: 4739 c53b c5c3 033e 6a75 d53c 992a 2d3d
000002d0: b93d d93c 2663 863c 0a16 c63c d161 d33c
000002e0: 3e9f 373c ca96 ae3b ff66 e53d 4961 de3c
000002f0: d05d 113c 17ea 053d 07d5 ae3a cdb6 853d
00000300: 7779 063a 5686 043a e5dc d93b 6fd3 ba3a
00000310: 7e3d 173b 4fe7 273a 2673 853a 3d07 b939
00000320: cde4 cc38 e819 cc39 6cdb 7b3b efac 163c
00000330: f7dd dc3a 8a39 453a 1f8c 073c 52b7 c838
00000340: 3ea9 bc3a 95c0 623a 2965 b93a 12cb 7e3a
00000350: 0a82 e83a 0b10 e73b 8848 aa3a 7e00 cc3a
00000360: 9bbf c43b 8fac 153b a87c 493a 9c4b a33b
00000370: d135 fe3a 4e09 2639 2f1d a738 3aa8 d838
00000380: 234c f139 3fd8 c03a fff7 083a a934 c13b
00000390: 50d5 4e3b 761d 8f39 c16b e13a 4863 203b
000003a0: 295b 273b 2cf8 cc39 563d 113a bc73 6b3a
000003b0: 0684 6239 644a a23b 1c58 033b 6591 693a
000003c0: 0129 dc3a 7426 163b c832 933a 1d63 1a3b
000003d0: 0bec d23a 97f5 093a 4f43 c13a 68cf d83b
000003e0: 9abf 9b3a 9ef6 5339 2efc f33b 57cf ac3a
000003f0: 4083 1c3b cee3 213b 88f1 1138 7d51 093b
0.029800326 0.02984488 0.009926941 0.090734266 0.057897158 0.0042033163 0.051387038 0.06029868
0.073291846 0.002709289 0.02658203 0.035215788 0.013998706 0.09345714 0.021110361 0.02814175
0.014766273 0.105790675 0.022890806 0.07290996 0.049620595 0.021151414 0.043700125 0.07672818
0.019479234 0.007488841 0.1676785 0.03084606 0.030364793 0.06418012 0.0010738275 0.06221421
0.021691065 0.023707628 0.00976226 0.110715225 0.07065645 0.0053257886 0.018227866 0.024675887
0.053236652 0.0019092208 0.010730268 0.022092016 0.005801118 0.09292745 0.025334857 0.011736582
0.021099381 0.053936273 0.0145382285 0.06673886 0.046338156 0.01609013 0.04082712 0.09629342
0.020955198 0.0055317204 0.14970031 0.024717927 0.04870414 0.06823972 0.0008878219 0.037876174
0.00049771986 0.00080748415 0.0026429784 0.013656843 0.0075232657 0.0014125978 0.005170745 0.003435476
0.0008494772 0.00038754268 0.012396256 0.012410184 0.0023860228 0.005424372 0.02105933 0.0023422297
0.0041940366 0.0054882425 0.00083286 0.0017067249 0.0009583882 0.0014064448 0.0007975619 0.017490594
0.004974875 0.00040452572 0.006532786 0.0018942041 0.01043702 0.003151665 0.0002276315 0.0013689013
0.03543449 0.036074024 0.01214431 0.110863835 0.069149785 0.005055933 0.066203445 0.07824623
0.09166014 0.0034771746 0.032329485 0.04140894 0.016496658 0.11364278 0.024584169 0.034592193
0.016852586 0.13366514 0.027039977 0.09031066 0.058605973 0.028123464 0.051740043 0.09754076
0.022607714 0.008798979 0.21161331 0.03579272 0.036476843 0.075842336 0.0011512326 0.07702903
0.00030361404 0.0018483395 0.0037212998 0.016862957 0.010049909 0.00081548747 0.0008026811 0.00033564592
0.0016068392 0.00058655353 0.0078847315 0.010773885 0.0005211463 0.009171476 0.01932562 0.0003849949
0.0042862324 0.0010343567 0.0011999855 0.002432089 0.00093645114 0.0017083692 0.00084383856 0.019252928
0.006308099 0.0003571453 0.0131356595 0.0036024845 0.010617249 0.0038573977 0.00018606415 0.0008271807
0.024608446 0.024680158 0.0061042146 0.03581468 0.02538696 0.0037333015 0.08298195 0.08494647
0.06487048 0.003429499 0.04587607 0.04034327 0.022506487 0.053861044 0.022867262 0.040679384
0.006018791 0.12867649 0.026056964 0.042276952 0.02651869 0.0164047 0.02418043 0.025803478
0.0112074 0.005328034 0.112012856 0.027145999 0.008872464 0.03269395 0.0013338634 0.06529007
0.0005129794 0.0005055418 0.006648647 0.0014253686 0.0023077424 0.0006405012 0.0010181412 0.00035291343
9.7700955e-05 0.00038929214 0.0038430346 0.009196504 0.0016850819 0.00075235276 0.008273154 9.570889e-05
0.00143937 0.0008649913 0.0014144528 0.0009719591 0.001773895 0.007051473 0.0012991587 0.0015564112
0.0060042865 0.0022838449 0.0007686117 0.0049833786 0.0019394701 0.0001583446 7.9686164e-05 0.00010331017
0.00046023828 0.0014712884 0.00052249426 0.00589617 0.003156025 0.00027297036 0.0017198251 0.0024473239
0.0025536513 0.00039094815 0.0005540451 0.00089817843 0.00021602222 0.0049527157 0.002004153 0.000890991
0.0016796888 0.0022911103 0.0011230344 0.0023557611 0.0016092075 0.0005262731 0.0014744791 0.0066165216
0.0011882663 0.000202144 0.0074458336 0.0013184351 0.0023881942 0.0024702433 3.4795637e-05 0.0020953112

exp_avg f4 [32]
00000000: 607a 40bf 7b45 4d3d c77f 8e3f 7cc9 47bf
00000010: e645 923f b2d6 9d3f 4f97 61bf 8876 5ebd
00000020: b645 2a3f 2291 203f 8215 40bf de24 15bf
00000030: 8ffa 423f 28dd 5bbf 0402 0e3f 5943 47bf
00000040: 805d 563d 7e4e ecbe de03 823f 5d59 50bf
00000050: 7549 ccbe 68a8 cdbe 0b5a 963f 5752 943f
00000060: 2050 0e3f 688f ad3e 5bac cdbe f94c 6a3f
00000070: ea1e 92be dec8 853f 6590 d73c c92e 973f
-0.7518673 0.05011509 1.1132745 -0.78041816 1.1427581 1.2331145 -0.88121504 -0.05431226
0.6651262 0.62721455 -0.7503282 -0.5825938 0.7616357 -0.8588433 0.55471826 -0.7783714
0.052335262 -0.46153635 1.015743 -0.8138636 -0.39899793 -0.40167546 1.1746229 1.1587628
0.5559101 0.33898473 -0.4017056 0.915237 -0.2853921 1.0451925 0.02631397 1.1811153

exp_avg_sq f4 [32]
00000000: cd6c e43d e8dc 073e c161 b13d 5e68 043e
00000010: 15b2 ac3d ccca d63d 98a1 0c3d ddf4 153c
00000020: 1ef8 bf3d c43a b53c 0a8c f63d a3fb d63d
00000030: a572 b13d 6274 963d 05ca fc3c 718b 023d
00000040: 2c83 a53b 24ac 913d 66d9 813d a9ec 963d
00000050: 69ca dc3d 2203 b43d 8289 903d 1108 093e
00000060: 0ee1 ba3d 0a73 703d 2d66 c53c 1f4e 0c3e
00000070: 3baf c03d 1e60 4f3d 8de5 6f3d 847d 003e
0.111535646 0.13267863 0.08661223 0.12930438 0.08432404 0.10487899 0.034333795 0.009152618
0.093734965 0.022122748 0.12038429 0.10497215 0.08664445 0.07346417 0.03085805 0.031871263
0.0050510373 0.07112911 0.063402936 0.07369358 0.10780794 0.0878966 0.070574775 0.13381983
0.09124957 0.05870346 0.024096573 0.13701676 0.094084226 0.050628774 0.058568526 0.1254788

exp_avg f4 [32, 32]
00000000: 8e08 723e 7859 733d 79f5 bebe b108 cc3e
00000010: 7a61 d6be 95d7 3ebe d077 bc3e c5f5 1e3e
00000020: 965a 67be 6a7a 95be ba19 723e 2b29 413e
00000030: 1ed0 2bbe 8f2d 393e 9bee 98be 95ad 973e
00000040: 00af f43d be79 103e f5a4 e9be 63ad 683e
00000050: 6e2c 473c 4a66 113e 4b5e 57be dc3b 9bbe
00000060: 9252 1ebe 8e45 68bd 42c0 1a3e cde7 8ebe
00000070: f5e6 883c e5cc 05be 2d01 6abd f4df 74be
00000080: e86a c73e 7d14 6a3e cc70 95be eeea 323f
00000090: 8fbe b9be 5579 6ebe 9ae7 c33e 550c 463e
000000a0: 90a7 afbe 5196 77be c8d7 c53e 1502 ab3e
000000b0: 87b2 71be b8b7 333e 7581 9bbe eea0 8b3e
000000c0: 953a d2bd cfc4 0b3d 3fd1 ffbe 324f b13e
000000d0: 939b 41be 7a35 cf3d 6d60 a9be 3b4e d4be
000000e0: 9eb5 b9bd 8c53 9a3d 291b 7e3e f9fd b5be
000000f0: 6339 f5bd a789 e1bd 4a9f 2abc 8bf3 a7be
00000100: a385 2c3e c766 cd3d aefb 49be 3083 983e
00000110: ec29 74be 62cb 11be 6320 ff3d 1c80 183e
00000120: 041f 43be 173c 22be 0376 4c3e de8d 3c3e
00000130: 7639 0ebe aea1 083e 2fc3 19be eee2 e93d
00000140: efb3 c03d c0a1 833d 8ce7 70be 5f29 193e
00000150: 2960 abbb ed61 ee39 880e 0fbe be8f 45be
00000160: 5502 1abd 7810 adbd 0be8 093e 740d 3fbe
00000170: b82a 84bd 7e3a bebd 2fbc 0a3d 0b19 31be
00000180: 0d7d febe bae3 fdbe f82c efbc 71bc 5fbf
00000190: ecc7 f63c eb2a c63d 85f7 14be 998d c13d
000001a0: 3213 543e 2e08 5e3e e8d4 91be 1f3c abbe
000001b0: c179 9d3e 71c7 333e cec2 a03e 8be1 95bd
000001c0: 0430 5c3e 0b54 823e 0cae 473e 0b36 c0be
000001d0: bec4 1e3f b378 dc3d 4fea 8e3e 901b 653e
000001e0: 8430 61be c18b 8bbe e379 b2be b128 be3e
000001f0: 80a8 bf3e 9772 d73d 6852 54be c12c 6a3e
00000200: 0577 a13e d0ba fb3d f28d dcbe b0c6 0e3f
00000210: fdbf f7be b52e 7abe aa47 db3e 696d 6c3e
00000220: e28e 9fbe 03d6 8cbe 44c7 a83e db62 8e3e
00000230: ef2b 4abe 9bdd 843e 3b76 9abe 1eea a03e
00000240: 940d 063d fd31 013e a9cb 0cbf 5e19 983e
00000250: 4492 2bbd b149 1e3e 0d3b 86be 0a6c c7be
00000260: 9111 30be 76a2 7abd 0b7a 533e 5a4c b2be
00000270: d877 1cbd fa9e 07be 9516 9cbd 0dd6 9dbe
00000280: 2c6e 0e3e eaa0 d33c 59a4 89be 768c 7f3e
00000290: be41 a5be 8acb 27be 0b88 823e 4185 743e
000002a0: a6c9 5abe 0a51 25be 96f2 563e 2589 333e
000002b0: 0869 adbd 4be0 6b3e 4288 38be 2b5c 4b3e
000002c0: bde6 123d 2181 073e ab55 b4be a56f 063e
000002d0: 519a b63d eb62 c83d e7e1 0ebe 3ab5 75be
000002e0: ed71 14be d099 b8bd e6b7 133e 9aee 32be
000002f0: 3128 173c 83de 2dbd bbd9 a3bd ff5c 36be
00000300: b905 5a3e 80c2 843e 869d 093e 5bfb c03e
00000310: 41d2 003e 6c00 8e3c 0736 95ba b30c 10be
00000320: fadd b9bc caa7 18bd 5f6c 8d3d fc7f e03d
00000330: 08a6 eebd 3bb6 3fbe 53b0 c8bd f07e 24bd
00000340: c480 48be 2486 4fbe e9a2 ff3c e155 163e
00000350: f5db c7be 9f3a abbd 135d cfbd 9179 fabc
00000360: 20fc 313e cd49 5a3e 8947 0c3e 3460 00be
00000370: d5be 52be 3c23 4abc 54de 003e 6813 4ebd
00000380: 03ff bebe f39e 55be b477 923e 5435 24bf
00000390: e65f aa3e 2ce7 543e de7b b1be 5952 d9bd
000003a0: 0403 973e 3253 6f3e cfb6 abbe 2129 8fbe
000003b0: 4eb1 713e ef7c 03be 66fa 893e 1fde 87be
000003c0: f15f 2d3d e039 e2bc cb78 e23e a394 adbe
000003d0: 9b2a 3f3e 3572 c5bd ed46 9a3e 036d c13e
000003e0: fe3b af3d 82e9 a5bd a103 3ebe 2abf ab3e
000003f0: 40cd cf3d a694 223e 2a72 a939 b231 993e
0.23636076 0.059411496 -0.37296656 0.3985038 -0.41871244 -0.18636926 0.3681016 0.15523441
-0.2259315 -0.29194957 0.23642626 0.1886336 -0.16778609 0.18083785 -0.29869542 0.2962462
0.11947441 0.14108941 -0.45633665 0.22722392 0.012156589 0.14199176 -0.21032064 -0.30319107
-0.15461186 -0.056706958 0.15112403 -0.27911225 0.016711691 -0.13066442 -0.057130028 -0.23913556
0.3894875 0.22859378 -0.2918762 0.69889724 -0.36278197 -0.23288472 0.38262635 0.19340642
-0.34307528 -0.24178435 0.3864119 0.33400026 -0.23603259 0.17550552 -0.30372205 0.27271217
-0.1026508 0.03412324 -0.4996433 0.34630734 -0.18907003 0.10117622 -0.3308138 -0.41465935
-0.09067844 0.075354666 0.24815048 -0.35545328 -0.11973836 -0.11012583 -0.010413954 -0.32802996
0.16847853 0.10029369 -0.19724914 0.29787588 -0.23844117 -0.1423774 0.12457349 0.1489262
-0.190548 -0.15843235 0.19966893 0.18413493 -0.13889107 0.13342926 -0.15015863 0.114202365
0.094093196 0.06427336 -0.23525828 0.14957188 -0.005229969 0.00045467858 -0.13970387 -0.19293115
-0.03759988 -0.08450407 0.13467424 -0.18657476 -0.064534605 -0.092885 0.033870872 -0.1729471
-0.4970478 -0.49587804 -0.029196247 -0.87396914 0.030124627 0.09676155 -0.14547546 0.09450836
0.20710447 0.21682808 -0.28482747 -0.33444306 0.30756953 0.1755655 0.31398624 -0.073184095
0.21502692 0.25454745 0.19499987 -0.37541232 0.62018955 0.10765209 0.27913138 0.22373796
-0.21991163 -0.2725506 -0.34858617 0.3714042 0.37433243 0.10519903 -0.2073456 0.22868635
0.31536117 0.12291491 -0.43077046 0.55771923 -0.48388663 -0.2443188 0.42828113 0.23088612
-0.31163698 -0.27507028 0.32964528 0.27809796 -0.19743322 0.25950322 -0.30168328 0.31428617
0.032727793 0.12616725 -0.5499826 0.29706854 -0.041887537 0.15457799 -0.26216927 -0.38949615
-0.17194201 -0.06119009 0.20652024 -0.34823877 -0.03820023 -0.13244238 -0.07621495 -0.3082737
0.13909215 0.025833566 -0.268832 0.24955925 -0.3227672 -0.16386238 0.25494418 0.23878957
-0.21365985 -0.16144195 0.20990977 0.17532785 -0.08467299 0.2303478 -0.18020728 0.19859378
0.03586458 0.13232853 -0.3522161 0.13128527 0.08916152 0.09784492 -0.13953362 -0.23994914
-0.14496584 -0.090137124 0.1442562 -0.17473832 0.009225891 -0.04244853 -0.08000513 -0.17808913
0.21291246 0.25929642 0.13438997 0.3769177 0.12580206 0.017334186 -0.0011383899 -0.14067344
-0.022688854 -0.03726939 0.06905436 0.10961911 -0.11652762 -0.18721859 -0.09799256 -0.04016012
-0.1958037 -0.20266014 0.031205611 0.14681198 -0.39035 -0.083607905 -0.101251744 -0.030575546
0.17381334 0.21317215 0.13699163 -0.12536699 -0.20580609 -0.012337502 0.12584811 -0.050311476
-0.37303934 -0.20861416 0.2860695 -0.6414387 0.3327629 0.2079131 -0.34664816 -0.1061141
0.29494488 0.2337158 -0.3353791 -0.27961066 0.23602793 -0.12840627 0.2694885 -0.26536652
0.042327825 -0.027615488 0.44232783 -0.33902463 0.18668596 -0.09640924 0.30132237 0.37778482
0.085563645 -0.08101179 -0.18556072 0.33544284 0.1014657 0.15877017 0.0003231925 0.29920727
